<?xml version="1.0" ?>
<net name="encoder" version="11">
	<layers>
		<layer id="8" name="0" type="Parameter" version="opset1">
			<data shape="1,3,224,224" element_type="f32"/>
			<rt_info>
				<attribute name="old_api_map_element_type" version="0" value="f16"/>
			</rt_info>
			<output>
				<port id="0" precision="FP32" names="0">
					<dim>1</dim>
					<dim>3</dim>
					<dim>224</dim>
					<dim>224</dim>
					<rt_info>
						<attribute name="layout" version="0" layout="[N,C,H,W]"/>
					</rt_info>
				</port>
			</output>
		</layer>
		<layer id="0" name="238223867812" type="Const" version="opset1">
			<data offset="0" size="4" shape="" element_type="f32"/>
			<output>
				<port id="0" precision="FP32"/>
			</output>
		</layer>
		<layer id="1" name="238323878394" type="Const" version="opset1">
			<data offset="4" size="4" shape="" element_type="f32"/>
			<output>
				<port id="0" precision="FP32"/>
			</output>
		</layer>
		<layer id="2" name="238423887710" type="Const" version="opset1">
			<data offset="0" size="4" shape="" element_type="f32"/>
			<output>
				<port id="0" precision="FP32"/>
			</output>
		</layer>
		<layer id="3" name="238523897716" type="Const" version="opset1">
			<data offset="4" size="4" shape="" element_type="f32"/>
			<output>
				<port id="0" precision="FP32"/>
			</output>
		</layer>
		<layer id="4" name="9599637965" type="Const" version="opset1">
			<data offset="8" size="4" shape="" element_type="f32"/>
			<output>
				<port id="0" precision="FP32"/>
			</output>
		</layer>
		<layer id="5" name="9609647833" type="Const" version="opset1">
			<data offset="12" size="4" shape="" element_type="f32"/>
			<output>
				<port id="0" precision="FP32"/>
			</output>
		</layer>
		<layer id="6" name="9619657599" type="Const" version="opset1">
			<data offset="8" size="4" shape="" element_type="f32"/>
			<output>
				<port id="0" precision="FP32"/>
			</output>
		</layer>
		<layer id="7" name="9629667632" type="Const" version="opset1">
			<data offset="12" size="4" shape="" element_type="f32"/>
			<output>
				<port id="0" precision="FP32"/>
			</output>
		</layer>
		<layer id="9" name="Gather_66172758352" type="Const" version="opset1">
			<data offset="16" size="6" shape="1,3,1,1" element_type="f16"/>
			<output>
				<port id="0" precision="FP16">
					<dim>1</dim>
					<dim>3</dim>
					<dim>1</dim>
					<dim>1</dim>
				</port>
			</output>
		</layer>
		<layer id="10" name="Gather_66172754177/restored_convert" type="Convert" version="opset1">
			<data destination_type="f32"/>
			<rt_info>
				<attribute name="decompression" version="0"/>
			</rt_info>
			<input>
				<port id="0">
					<dim>1</dim>
					<dim>3</dim>
					<dim>1</dim>
					<dim>1</dim>
				</port>
			</input>
			<output>
				<port id="1" precision="FP32">
					<dim>1</dim>
					<dim>3</dim>
					<dim>1</dim>
					<dim>1</dim>
				</port>
			</output>
		</layer>
		<layer id="11" name="Subtract_420" type="Subtract" version="opset1">
			<data auto_broadcast="numpy"/>
			<rt_info>
				<attribute name="preprocessing" version="0"/>
			</rt_info>
			<input>
				<port id="0">
					<dim>1</dim>
					<dim>3</dim>
					<dim>224</dim>
					<dim>224</dim>
				</port>
				<port id="1">
					<dim>1</dim>
					<dim>3</dim>
					<dim>1</dim>
					<dim>1</dim>
				</port>
			</input>
			<output>
				<port id="2" precision="FP32">
					<dim>1</dim>
					<dim>3</dim>
					<dim>224</dim>
					<dim>224</dim>
				</port>
			</output>
		</layer>
		<layer id="12" name="Multiply_5795/fq_input_0" type="FakeQuantize" version="opset1">
			<data levels="256" auto_broadcast="numpy"/>
			<input>
				<port id="0">
					<dim>1</dim>
					<dim>3</dim>
					<dim>224</dim>
					<dim>224</dim>
				</port>
				<port id="1"/>
				<port id="2"/>
				<port id="3"/>
				<port id="4"/>
			</input>
			<output>
				<port id="5" precision="FP32">
					<dim>1</dim>
					<dim>3</dim>
					<dim>224</dim>
					<dim>224</dim>
				</port>
			</output>
		</layer>
		<layer id="13" name="encoder_Multiply_5795/fq_weights_1/scale55777491" type="Const" version="opset1">
			<data offset="22" size="256" shape="64,1,1,1" element_type="f32"/>
			<output>
				<port id="0" precision="FP32">
					<dim>64</dim>
					<dim>1</dim>
					<dim>1</dim>
					<dim>1</dim>
				</port>
			</output>
		</layer>
		<layer id="14" name="Gather_66202784178/restored_convert/quantized55698214" type="Const" version="opset1">
			<data offset="278" size="9408" shape="64,3,7,7" element_type="i8"/>
			<output>
				<port id="0" precision="I8">
					<dim>64</dim>
					<dim>3</dim>
					<dim>7</dim>
					<dim>7</dim>
				</port>
			</output>
		</layer>
		<layer id="15" name="Gather_66202784178/restored_convert/quantized/to_f32" type="Convert" version="opset1">
			<data destination_type="f32"/>
			<input>
				<port id="0">
					<dim>64</dim>
					<dim>3</dim>
					<dim>7</dim>
					<dim>7</dim>
				</port>
			</input>
			<output>
				<port id="1" precision="FP32">
					<dim>64</dim>
					<dim>3</dim>
					<dim>7</dim>
					<dim>7</dim>
				</port>
			</output>
		</layer>
		<layer id="16" name="Multiply_5795/fq_weights_1/mulpiply_by_scale" type="Multiply" version="opset1">
			<data auto_broadcast="numpy"/>
			<input>
				<port id="0">
					<dim>64</dim>
					<dim>3</dim>
					<dim>7</dim>
					<dim>7</dim>
				</port>
				<port id="1">
					<dim>64</dim>
					<dim>1</dim>
					<dim>1</dim>
					<dim>1</dim>
				</port>
			</input>
			<output>
				<port id="2" precision="FP32">
					<dim>64</dim>
					<dim>3</dim>
					<dim>7</dim>
					<dim>7</dim>
				</port>
			</output>
		</layer>
		<layer id="17" name="Multiply_5795" type="Convolution" version="opset1">
			<data auto_pad="explicit" strides="2,2" dilations="1,1" pads_begin="3,3" pads_end="3,3"/>
			<rt_info>
				<attribute name="preprocessing" version="0"/>
			</rt_info>
			<input>
				<port id="0">
					<dim>1</dim>
					<dim>3</dim>
					<dim>224</dim>
					<dim>224</dim>
				</port>
				<port id="1">
					<dim>64</dim>
					<dim>3</dim>
					<dim>7</dim>
					<dim>7</dim>
				</port>
			</input>
			<output>
				<port id="2" precision="FP32">
					<dim>1</dim>
					<dim>64</dim>
					<dim>112</dim>
					<dim>112</dim>
				</port>
			</output>
		</layer>
		<layer id="18" name="Constant_58002817929" type="Const" version="opset1">
			<data offset="9686" size="128" shape="1,64,1,1" element_type="f16"/>
			<output>
				<port id="0" precision="FP16">
					<dim>1</dim>
					<dim>64</dim>
					<dim>1</dim>
					<dim>1</dim>
				</port>
			</output>
		</layer>
		<layer id="19" name="Constant_58002814179/restored_convert" type="Convert" version="opset1">
			<data destination_type="f32"/>
			<rt_info>
				<attribute name="decompression" version="0"/>
			</rt_info>
			<input>
				<port id="0">
					<dim>1</dim>
					<dim>64</dim>
					<dim>1</dim>
					<dim>1</dim>
				</port>
			</input>
			<output>
				<port id="1" precision="FP32">
					<dim>1</dim>
					<dim>64</dim>
					<dim>1</dim>
					<dim>1</dim>
				</port>
			</output>
		</layer>
		<layer id="20" name="249" type="Add" version="opset1">
			<data auto_broadcast="numpy"/>
			<input>
				<port id="0">
					<dim>1</dim>
					<dim>64</dim>
					<dim>112</dim>
					<dim>112</dim>
				</port>
				<port id="1">
					<dim>1</dim>
					<dim>64</dim>
					<dim>1</dim>
					<dim>1</dim>
				</port>
			</input>
			<output>
				<port id="2" precision="FP32" names="249">
					<dim>1</dim>
					<dim>64</dim>
					<dim>112</dim>
					<dim>112</dim>
				</port>
			</output>
		</layer>
		<layer id="21" name="250" type="ReLU" version="opset1">
			<input>
				<port id="0">
					<dim>1</dim>
					<dim>64</dim>
					<dim>112</dim>
					<dim>112</dim>
				</port>
			</input>
			<output>
				<port id="1" precision="FP32" names="250">
					<dim>1</dim>
					<dim>64</dim>
					<dim>112</dim>
					<dim>112</dim>
				</port>
			</output>
		</layer>
		<layer id="22" name="251/fq_input_0" type="FakeQuantize" version="opset1">
			<data levels="256" auto_broadcast="numpy"/>
			<input>
				<port id="0">
					<dim>1</dim>
					<dim>64</dim>
					<dim>112</dim>
					<dim>112</dim>
				</port>
				<port id="1"/>
				<port id="2"/>
				<port id="3"/>
				<port id="4"/>
			</input>
			<output>
				<port id="5" precision="FP32">
					<dim>1</dim>
					<dim>64</dim>
					<dim>112</dim>
					<dim>112</dim>
				</port>
			</output>
		</layer>
		<layer id="23" name="251" type="MaxPool" version="opset8">
			<data strides="2,2" kernel="3,3" pads_begin="1,1" pads_end="1,1" rounding_type="floor" auto_pad="explicit" dilations="1,1" axis="0" index_element_type="i64"/>
			<input>
				<port id="0">
					<dim>1</dim>
					<dim>64</dim>
					<dim>112</dim>
					<dim>112</dim>
				</port>
			</input>
			<output>
				<port id="1" precision="FP32" names="251">
					<dim>1</dim>
					<dim>64</dim>
					<dim>56</dim>
					<dim>56</dim>
				</port>
				<port id="2" precision="FP32">
					<dim>1</dim>
					<dim>64</dim>
					<dim>56</dim>
					<dim>56</dim>
					<rt_info/>
				</port>
			</output>
		</layer>
		<layer id="25" name="115911637917" type="Const" version="opset1">
			<data offset="0" size="4" shape="" element_type="f32"/>
			<output>
				<port id="0" precision="FP32"/>
			</output>
		</layer>
		<layer id="26" name="116011647935" type="Const" version="opset1">
			<data offset="9814" size="4" shape="" element_type="f32"/>
			<output>
				<port id="0" precision="FP32"/>
			</output>
		</layer>
		<layer id="27" name="116111657779" type="Const" version="opset1">
			<data offset="0" size="4" shape="" element_type="f32"/>
			<output>
				<port id="0" precision="FP32"/>
			</output>
		</layer>
		<layer id="28" name="116211667575" type="Const" version="opset1">
			<data offset="9814" size="4" shape="" element_type="f32"/>
			<output>
				<port id="0" precision="FP32"/>
			</output>
		</layer>
		<layer id="29" name="186918737704" type="Const" version="opset1">
			<data offset="9818" size="4" shape="" element_type="f32"/>
			<output>
				<port id="0" precision="FP32"/>
			</output>
		</layer>
		<layer id="30" name="187018747902" type="Const" version="opset1">
			<data offset="9822" size="4" shape="" element_type="f32"/>
			<output>
				<port id="0" precision="FP32"/>
			</output>
		</layer>
		<layer id="31" name="187118757995" type="Const" version="opset1">
			<data offset="9818" size="4" shape="" element_type="f32"/>
			<output>
				<port id="0" precision="FP32"/>
			</output>
		</layer>
		<layer id="32" name="187218768298" type="Const" version="opset1">
			<data offset="9822" size="4" shape="" element_type="f32"/>
			<output>
				<port id="0" precision="FP32"/>
			</output>
		</layer>
		<layer id="33" name="138913937512" type="Const" version="opset1">
			<data offset="0" size="4" shape="" element_type="f32"/>
			<output>
				<port id="0" precision="FP32"/>
			</output>
		</layer>
		<layer id="34" name="139013948244" type="Const" version="opset1">
			<data offset="9826" size="4" shape="" element_type="f32"/>
			<output>
				<port id="0" precision="FP32"/>
			</output>
		</layer>
		<layer id="35" name="139113957905" type="Const" version="opset1">
			<data offset="0" size="4" shape="" element_type="f32"/>
			<output>
				<port id="0" precision="FP32"/>
			</output>
		</layer>
		<layer id="36" name="139213967920" type="Const" version="opset1">
			<data offset="9826" size="4" shape="" element_type="f32"/>
			<output>
				<port id="0" precision="FP32"/>
			</output>
		</layer>
		<layer id="37" name="187918838385" type="Const" version="opset1">
			<data offset="0" size="4" shape="" element_type="f32"/>
			<output>
				<port id="0" precision="FP32"/>
			</output>
		</layer>
		<layer id="38" name="188018847911" type="Const" version="opset1">
			<data offset="9830" size="4" shape="" element_type="f32"/>
			<output>
				<port id="0" precision="FP32"/>
			</output>
		</layer>
		<layer id="39" name="188118857551" type="Const" version="opset1">
			<data offset="0" size="4" shape="" element_type="f32"/>
			<output>
				<port id="0" precision="FP32"/>
			</output>
		</layer>
		<layer id="40" name="188218868088" type="Const" version="opset1">
			<data offset="9830" size="4" shape="" element_type="f32"/>
			<output>
				<port id="0" precision="FP32"/>
			</output>
		</layer>
		<layer id="41" name="144914538295" type="Const" version="opset1">
			<data offset="9834" size="4" shape="" element_type="f32"/>
			<output>
				<port id="0" precision="FP32"/>
			</output>
		</layer>
		<layer id="42" name="145014548085" type="Const" version="opset1">
			<data offset="9838" size="4" shape="" element_type="f32"/>
			<output>
				<port id="0" precision="FP32"/>
			</output>
		</layer>
		<layer id="43" name="145114557878" type="Const" version="opset1">
			<data offset="9834" size="4" shape="" element_type="f32"/>
			<output>
				<port id="0" precision="FP32"/>
			</output>
		</layer>
		<layer id="44" name="145214567602" type="Const" version="opset1">
			<data offset="9838" size="4" shape="" element_type="f32"/>
			<output>
				<port id="0" precision="FP32"/>
			</output>
		</layer>
		<layer id="45" name="174917537488" type="Const" version="opset1">
			<data offset="0" size="4" shape="" element_type="f32"/>
			<output>
				<port id="0" precision="FP32"/>
			</output>
		</layer>
		<layer id="46" name="175017547755" type="Const" version="opset1">
			<data offset="9842" size="4" shape="" element_type="f32"/>
			<output>
				<port id="0" precision="FP32"/>
			</output>
		</layer>
		<layer id="47" name="175117557647" type="Const" version="opset1">
			<data offset="0" size="4" shape="" element_type="f32"/>
			<output>
				<port id="0" precision="FP32"/>
			</output>
		</layer>
		<layer id="48" name="175217568184" type="Const" version="opset1">
			<data offset="9842" size="4" shape="" element_type="f32"/>
			<output>
				<port id="0" precision="FP32"/>
			</output>
		</layer>
		<layer id="49" name="145914637497" type="Const" version="opset1">
			<data offset="0" size="4" shape="" element_type="f32"/>
			<output>
				<port id="0" precision="FP32"/>
			</output>
		</layer>
		<layer id="50" name="146014648400" type="Const" version="opset1">
			<data offset="9846" size="4" shape="" element_type="f32"/>
			<output>
				<port id="0" precision="FP32"/>
			</output>
		</layer>
		<layer id="51" name="146114658340" type="Const" version="opset1">
			<data offset="0" size="4" shape="" element_type="f32"/>
			<output>
				<port id="0" precision="FP32"/>
			</output>
		</layer>
		<layer id="52" name="146214668196" type="Const" version="opset1">
			<data offset="9846" size="4" shape="" element_type="f32"/>
			<output>
				<port id="0" precision="FP32"/>
			</output>
		</layer>
		<layer id="53" name="122912338079" type="Const" version="opset1">
			<data offset="9850" size="4" shape="" element_type="f32"/>
			<output>
				<port id="0" precision="FP32"/>
			</output>
		</layer>
		<layer id="54" name="123012347746" type="Const" version="opset1">
			<data offset="9854" size="4" shape="" element_type="f32"/>
			<output>
				<port id="0" precision="FP32"/>
			</output>
		</layer>
		<layer id="55" name="123112358262" type="Const" version="opset1">
			<data offset="9850" size="4" shape="" element_type="f32"/>
			<output>
				<port id="0" precision="FP32"/>
			</output>
		</layer>
		<layer id="56" name="123212367605" type="Const" version="opset1">
			<data offset="9854" size="4" shape="" element_type="f32"/>
			<output>
				<port id="0" precision="FP32"/>
			</output>
		</layer>
		<layer id="57" name="178917938187" type="Const" version="opset1">
			<data offset="0" size="4" shape="" element_type="f32"/>
			<output>
				<port id="0" precision="FP32"/>
			</output>
		</layer>
		<layer id="58" name="179017947722" type="Const" version="opset1">
			<data offset="9858" size="4" shape="" element_type="f32"/>
			<output>
				<port id="0" precision="FP32"/>
			</output>
		</layer>
		<layer id="59" name="179117957611" type="Const" version="opset1">
			<data offset="0" size="4" shape="" element_type="f32"/>
			<output>
				<port id="0" precision="FP32"/>
			</output>
		</layer>
		<layer id="60" name="179217967845" type="Const" version="opset1">
			<data offset="9858" size="4" shape="" element_type="f32"/>
			<output>
				<port id="0" precision="FP32"/>
			</output>
		</layer>
		<layer id="61" name="111911237800" type="Const" version="opset1">
			<data offset="0" size="4" shape="" element_type="f32"/>
			<output>
				<port id="0" precision="FP32"/>
			</output>
		</layer>
		<layer id="62" name="112011247962" type="Const" version="opset1">
			<data offset="9862" size="4" shape="" element_type="f32"/>
			<output>
				<port id="0" precision="FP32"/>
			</output>
		</layer>
		<layer id="63" name="112111258070" type="Const" version="opset1">
			<data offset="0" size="4" shape="" element_type="f32"/>
			<output>
				<port id="0" precision="FP32"/>
			</output>
		</layer>
		<layer id="64" name="112211267656" type="Const" version="opset1">
			<data offset="9862" size="4" shape="" element_type="f32"/>
			<output>
				<port id="0" precision="FP32"/>
			</output>
		</layer>
		<layer id="65" name="136913737761" type="Const" version="opset1">
			<data offset="9866" size="4" shape="" element_type="f32"/>
			<output>
				<port id="0" precision="FP32"/>
			</output>
		</layer>
		<layer id="66" name="137013747737" type="Const" version="opset1">
			<data offset="9870" size="4" shape="" element_type="f32"/>
			<output>
				<port id="0" precision="FP32"/>
			</output>
		</layer>
		<layer id="67" name="137113757707" type="Const" version="opset1">
			<data offset="9866" size="4" shape="" element_type="f32"/>
			<output>
				<port id="0" precision="FP32"/>
			</output>
		</layer>
		<layer id="68" name="137213768361" type="Const" version="opset1">
			<data offset="9870" size="4" shape="" element_type="f32"/>
			<output>
				<port id="0" precision="FP32"/>
			</output>
		</layer>
		<layer id="69" name="170917137866" type="Const" version="opset1">
			<data offset="0" size="4" shape="" element_type="f32"/>
			<output>
				<port id="0" precision="FP32"/>
			</output>
		</layer>
		<layer id="70" name="171017147959" type="Const" version="opset1">
			<data offset="9874" size="4" shape="" element_type="f32"/>
			<output>
				<port id="0" precision="FP32"/>
			</output>
		</layer>
		<layer id="71" name="171117157731" type="Const" version="opset1">
			<data offset="0" size="4" shape="" element_type="f32"/>
			<output>
				<port id="0" precision="FP32"/>
			</output>
		</layer>
		<layer id="72" name="171217167986" type="Const" version="opset1">
			<data offset="9874" size="4" shape="" element_type="f32"/>
			<output>
				<port id="0" precision="FP32"/>
			</output>
		</layer>
		<layer id="73" name="137913837482" type="Const" version="opset1">
			<data offset="0" size="4" shape="" element_type="f32"/>
			<output>
				<port id="0" precision="FP32"/>
			</output>
		</layer>
		<layer id="74" name="138013847758" type="Const" version="opset1">
			<data offset="9878" size="4" shape="" element_type="f32"/>
			<output>
				<port id="0" precision="FP32"/>
			</output>
		</layer>
		<layer id="75" name="138113857608" type="Const" version="opset1">
			<data offset="0" size="4" shape="" element_type="f32"/>
			<output>
				<port id="0" precision="FP32"/>
			</output>
		</layer>
		<layer id="76" name="138213868016" type="Const" version="opset1">
			<data offset="9878" size="4" shape="" element_type="f32"/>
			<output>
				<port id="0" precision="FP32"/>
			</output>
		</layer>
		<layer id="77" name="154915537872" type="Const" version="opset1">
			<data offset="9882" size="4" shape="" element_type="f32"/>
			<output>
				<port id="0" precision="FP32"/>
			</output>
		</layer>
		<layer id="78" name="155015548235" type="Const" version="opset1">
			<data offset="9886" size="4" shape="" element_type="f32"/>
			<output>
				<port id="0" precision="FP32"/>
			</output>
		</layer>
		<layer id="79" name="155115557578" type="Const" version="opset1">
			<data offset="9882" size="4" shape="" element_type="f32"/>
			<output>
				<port id="0" precision="FP32"/>
			</output>
		</layer>
		<layer id="80" name="155215567686" type="Const" version="opset1">
			<data offset="9886" size="4" shape="" element_type="f32"/>
			<output>
				<port id="0" precision="FP32"/>
			</output>
		</layer>
		<layer id="81" name="8999037893" type="Const" version="opset1">
			<data offset="0" size="4" shape="" element_type="f32"/>
			<output>
				<port id="0" precision="FP32"/>
			</output>
		</layer>
		<layer id="82" name="9009048118" type="Const" version="opset1">
			<data offset="9890" size="4" shape="" element_type="f32"/>
			<output>
				<port id="0" precision="FP32"/>
			</output>
		</layer>
		<layer id="83" name="9019057515" type="Const" version="opset1">
			<data offset="0" size="4" shape="" element_type="f32"/>
			<output>
				<port id="0" precision="FP32"/>
			</output>
		</layer>
		<layer id="84" name="9029067815" type="Const" version="opset1">
			<data offset="9890" size="4" shape="" element_type="f32"/>
			<output>
				<port id="0" precision="FP32"/>
			</output>
		</layer>
		<layer id="85" name="155915637521" type="Const" version="opset1">
			<data offset="0" size="4" shape="" element_type="f32"/>
			<output>
				<port id="0" precision="FP32"/>
			</output>
		</layer>
		<layer id="86" name="156015647680" type="Const" version="opset1">
			<data offset="9894" size="4" shape="" element_type="f32"/>
			<output>
				<port id="0" precision="FP32"/>
			</output>
		</layer>
		<layer id="87" name="156115657839" type="Const" version="opset1">
			<data offset="0" size="4" shape="" element_type="f32"/>
			<output>
				<port id="0" precision="FP32"/>
			</output>
		</layer>
		<layer id="88" name="156215668286" type="Const" version="opset1">
			<data offset="9894" size="4" shape="" element_type="f32"/>
			<output>
				<port id="0" precision="FP32"/>
			</output>
		</layer>
		<layer id="89" name="184918538130" type="Const" version="opset1">
			<data offset="9898" size="4" shape="" element_type="f32"/>
			<output>
				<port id="0" precision="FP32"/>
			</output>
		</layer>
		<layer id="90" name="185018548175" type="Const" version="opset1">
			<data offset="9902" size="4" shape="" element_type="f32"/>
			<output>
				<port id="0" precision="FP32"/>
			</output>
		</layer>
		<layer id="91" name="185118558304" type="Const" version="opset1">
			<data offset="9898" size="4" shape="" element_type="f32"/>
			<output>
				<port id="0" precision="FP32"/>
			</output>
		</layer>
		<layer id="92" name="185218567548" type="Const" version="opset1">
			<data offset="9902" size="4" shape="" element_type="f32"/>
			<output>
				<port id="0" precision="FP32"/>
			</output>
		</layer>
		<layer id="93" name="113911437524" type="Const" version="opset1">
			<data offset="0" size="4" shape="" element_type="f32"/>
			<output>
				<port id="0" precision="FP32"/>
			</output>
		</layer>
		<layer id="94" name="114011448160" type="Const" version="opset1">
			<data offset="9906" size="4" shape="" element_type="f32"/>
			<output>
				<port id="0" precision="FP32"/>
			</output>
		</layer>
		<layer id="95" name="114111458256" type="Const" version="opset1">
			<data offset="0" size="4" shape="" element_type="f32"/>
			<output>
				<port id="0" precision="FP32"/>
			</output>
		</layer>
		<layer id="96" name="114211468424" type="Const" version="opset1">
			<data offset="9906" size="4" shape="" element_type="f32"/>
			<output>
				<port id="0" precision="FP32"/>
			</output>
		</layer>
		<layer id="97" name="185918638112" type="Const" version="opset1">
			<data offset="0" size="4" shape="" element_type="f32"/>
			<output>
				<port id="0" precision="FP32"/>
			</output>
		</layer>
		<layer id="98" name="186018648325" type="Const" version="opset1">
			<data offset="9910" size="4" shape="" element_type="f32"/>
			<output>
				<port id="0" precision="FP32"/>
			</output>
		</layer>
		<layer id="99" name="186118658055" type="Const" version="opset1">
			<data offset="0" size="4" shape="" element_type="f32"/>
			<output>
				<port id="0" precision="FP32"/>
			</output>
		</layer>
		<layer id="100" name="186218667896" type="Const" version="opset1">
			<data offset="9910" size="4" shape="" element_type="f32"/>
			<output>
				<port id="0" precision="FP32"/>
			</output>
		</layer>
		<layer id="101" name="99910038271" type="Const" version="opset1">
			<data offset="9914" size="4" shape="" element_type="f32"/>
			<output>
				<port id="0" precision="FP32"/>
			</output>
		</layer>
		<layer id="102" name="100010048142" type="Const" version="opset1">
			<data offset="9918" size="4" shape="" element_type="f32"/>
			<output>
				<port id="0" precision="FP32"/>
			</output>
		</layer>
		<layer id="103" name="100110057620" type="Const" version="opset1">
			<data offset="9914" size="4" shape="" element_type="f32"/>
			<output>
				<port id="0" precision="FP32"/>
			</output>
		</layer>
		<layer id="104" name="100210067884" type="Const" version="opset1">
			<data offset="9918" size="4" shape="" element_type="f32"/>
			<output>
				<port id="0" precision="FP32"/>
			</output>
		</layer>
		<layer id="105" name="156915737914" type="Const" version="opset1">
			<data offset="0" size="4" shape="" element_type="f32"/>
			<output>
				<port id="0" precision="FP32"/>
			</output>
		</layer>
		<layer id="106" name="157015747506" type="Const" version="opset1">
			<data offset="9922" size="4" shape="" element_type="f32"/>
			<output>
				<port id="0" precision="FP32"/>
			</output>
		</layer>
		<layer id="107" name="157115757908" type="Const" version="opset1">
			<data offset="0" size="4" shape="" element_type="f32"/>
			<output>
				<port id="0" precision="FP32"/>
			</output>
		</layer>
		<layer id="108" name="157215767638" type="Const" version="opset1">
			<data offset="9922" size="4" shape="" element_type="f32"/>
			<output>
				<port id="0" precision="FP32"/>
			</output>
		</layer>
		<layer id="109" name="100910137827" type="Const" version="opset1">
			<data offset="0" size="4" shape="" element_type="f32"/>
			<output>
				<port id="0" precision="FP32"/>
			</output>
		</layer>
		<layer id="110" name="101010147560" type="Const" version="opset1">
			<data offset="9926" size="4" shape="" element_type="f32"/>
			<output>
				<port id="0" precision="FP32"/>
			</output>
		</layer>
		<layer id="111" name="101110157857" type="Const" version="opset1">
			<data offset="0" size="4" shape="" element_type="f32"/>
			<output>
				<port id="0" precision="FP32"/>
			</output>
		</layer>
		<layer id="112" name="101210168082" type="Const" version="opset1">
			<data offset="9926" size="4" shape="" element_type="f32"/>
			<output>
				<port id="0" precision="FP32"/>
			</output>
		</layer>
		<layer id="113" name="128912938331" type="Const" version="opset1">
			<data offset="9930" size="4" shape="" element_type="f32"/>
			<output>
				<port id="0" precision="FP32"/>
			</output>
		</layer>
		<layer id="114" name="129012947629" type="Const" version="opset1">
			<data offset="9934" size="4" shape="" element_type="f32"/>
			<output>
				<port id="0" precision="FP32"/>
			</output>
		</layer>
		<layer id="115" name="129112958106" type="Const" version="opset1">
			<data offset="9930" size="4" shape="" element_type="f32"/>
			<output>
				<port id="0" precision="FP32"/>
			</output>
		</layer>
		<layer id="116" name="129212967674" type="Const" version="opset1">
			<data offset="9934" size="4" shape="" element_type="f32"/>
			<output>
				<port id="0" precision="FP32"/>
			</output>
		</layer>
		<layer id="117" name="176917738151" type="Const" version="opset1">
			<data offset="0" size="4" shape="" element_type="f32"/>
			<output>
				<port id="0" precision="FP32"/>
			</output>
		</layer>
		<layer id="118" name="177017747677" type="Const" version="opset1">
			<data offset="9938" size="4" shape="" element_type="f32"/>
			<output>
				<port id="0" precision="FP32"/>
			</output>
		</layer>
		<layer id="119" name="177117757977" type="Const" version="opset1">
			<data offset="0" size="4" shape="" element_type="f32"/>
			<output>
				<port id="0" precision="FP32"/>
			</output>
		</layer>
		<layer id="120" name="177217768292" type="Const" version="opset1">
			<data offset="9938" size="4" shape="" element_type="f32"/>
			<output>
				<port id="0" precision="FP32"/>
			</output>
		</layer>
		<layer id="121" name="129913038223" type="Const" version="opset1">
			<data offset="0" size="4" shape="" element_type="f32"/>
			<output>
				<port id="0" precision="FP32"/>
			</output>
		</layer>
		<layer id="122" name="130013048037" type="Const" version="opset1">
			<data offset="9942" size="4" shape="" element_type="f32"/>
			<output>
				<port id="0" precision="FP32"/>
			</output>
		</layer>
		<layer id="123" name="130113058025" type="Const" version="opset1">
			<data offset="0" size="4" shape="" element_type="f32"/>
			<output>
				<port id="0" precision="FP32"/>
			</output>
		</layer>
		<layer id="124" name="130213067692" type="Const" version="opset1">
			<data offset="9942" size="4" shape="" element_type="f32"/>
			<output>
				<port id="0" precision="FP32"/>
			</output>
		</layer>
		<layer id="125" name="103910438127" type="Const" version="opset1">
			<data offset="9946" size="4" shape="" element_type="f32"/>
			<output>
				<port id="0" precision="FP32"/>
			</output>
		</layer>
		<layer id="126" name="104010447863" type="Const" version="opset1">
			<data offset="9950" size="4" shape="" element_type="f32"/>
			<output>
				<port id="0" precision="FP32"/>
			</output>
		</layer>
		<layer id="127" name="104110457572" type="Const" version="opset1">
			<data offset="9946" size="4" shape="" element_type="f32"/>
			<output>
				<port id="0" precision="FP32"/>
			</output>
		</layer>
		<layer id="128" name="104210468328" type="Const" version="opset1">
			<data offset="9950" size="4" shape="" element_type="f32"/>
			<output>
				<port id="0" precision="FP32"/>
			</output>
		</layer>
		<layer id="129" name="9199237587" type="Const" version="opset1">
			<data offset="0" size="4" shape="" element_type="f32"/>
			<output>
				<port id="0" precision="FP32"/>
			</output>
		</layer>
		<layer id="130" name="9209248364" type="Const" version="opset1">
			<data offset="9954" size="4" shape="" element_type="f32"/>
			<output>
				<port id="0" precision="FP32"/>
			</output>
		</layer>
		<layer id="131" name="9219258367" type="Const" version="opset1">
			<data offset="0" size="4" shape="" element_type="f32"/>
			<output>
				<port id="0" precision="FP32"/>
			</output>
		</layer>
		<layer id="132" name="9229268334" type="Const" version="opset1">
			<data offset="9954" size="4" shape="" element_type="f32"/>
			<output>
				<port id="0" precision="FP32"/>
			</output>
		</layer>
		<layer id="133" name="118911938205" type="Const" version="opset1">
			<data offset="0" size="4" shape="" element_type="f32"/>
			<output>
				<port id="0" precision="FP32"/>
			</output>
		</layer>
		<layer id="134" name="119011947563" type="Const" version="opset1">
			<data offset="9958" size="4" shape="" element_type="f32"/>
			<output>
				<port id="0" precision="FP32"/>
			</output>
		</layer>
		<layer id="135" name="119111958247" type="Const" version="opset1">
			<data offset="0" size="4" shape="" element_type="f32"/>
			<output>
				<port id="0" precision="FP32"/>
			</output>
		</layer>
		<layer id="136" name="119211968031" type="Const" version="opset1">
			<data offset="9958" size="4" shape="" element_type="f32"/>
			<output>
				<port id="0" precision="FP32"/>
			</output>
		</layer>
		<layer id="137" name="126912738346" type="Const" version="opset1">
			<data offset="9962" size="4" shape="" element_type="f32"/>
			<output>
				<port id="0" precision="FP32"/>
			</output>
		</layer>
		<layer id="138" name="127012748310" type="Const" version="opset1">
			<data offset="9966" size="4" shape="" element_type="f32"/>
			<output>
				<port id="0" precision="FP32"/>
			</output>
		</layer>
		<layer id="139" name="127112757938" type="Const" version="opset1">
			<data offset="9962" size="4" shape="" element_type="f32"/>
			<output>
				<port id="0" precision="FP32"/>
			</output>
		</layer>
		<layer id="140" name="127212767557" type="Const" version="opset1">
			<data offset="9966" size="4" shape="" element_type="f32"/>
			<output>
				<port id="0" precision="FP32"/>
			</output>
		</layer>
		<layer id="141" name="8798838073" type="Const" version="opset1">
			<data offset="0" size="4" shape="" element_type="f32"/>
			<output>
				<port id="0" precision="FP32"/>
			</output>
		</layer>
		<layer id="142" name="8808847809" type="Const" version="opset1">
			<data offset="9970" size="4" shape="" element_type="f32"/>
			<output>
				<port id="0" precision="FP32"/>
			</output>
		</layer>
		<layer id="143" name="8818857476" type="Const" version="opset1">
			<data offset="0" size="4" shape="" element_type="f32"/>
			<output>
				<port id="0" precision="FP32"/>
			</output>
		</layer>
		<layer id="144" name="8828867776" type="Const" version="opset1">
			<data offset="9970" size="4" shape="" element_type="f32"/>
			<output>
				<port id="0" precision="FP32"/>
			</output>
		</layer>
		<layer id="145" name="127912838232" type="Const" version="opset1">
			<data offset="0" size="4" shape="" element_type="f32"/>
			<output>
				<port id="0" precision="FP32"/>
			</output>
		</layer>
		<layer id="146" name="128012848343" type="Const" version="opset1">
			<data offset="9974" size="4" shape="" element_type="f32"/>
			<output>
				<port id="0" precision="FP32"/>
			</output>
		</layer>
		<layer id="147" name="128112858001" type="Const" version="opset1">
			<data offset="0" size="4" shape="" element_type="f32"/>
			<output>
				<port id="0" precision="FP32"/>
			</output>
		</layer>
		<layer id="148" name="128212867890" type="Const" version="opset1">
			<data offset="9974" size="4" shape="" element_type="f32"/>
			<output>
				<port id="0" precision="FP32"/>
			</output>
		</layer>
		<layer id="149" name="150915137539" type="Const" version="opset1">
			<data offset="9978" size="4" shape="" element_type="f32"/>
			<output>
				<port id="0" precision="FP32"/>
			</output>
		</layer>
		<layer id="150" name="151015148121" type="Const" version="opset1">
			<data offset="9982" size="4" shape="" element_type="f32"/>
			<output>
				<port id="0" precision="FP32"/>
			</output>
		</layer>
		<layer id="151" name="151115157956" type="Const" version="opset1">
			<data offset="9978" size="4" shape="" element_type="f32"/>
			<output>
				<port id="0" precision="FP32"/>
			</output>
		</layer>
		<layer id="152" name="151215168307" type="Const" version="opset1">
			<data offset="9982" size="4" shape="" element_type="f32"/>
			<output>
				<port id="0" precision="FP32"/>
			</output>
		</layer>
		<layer id="153" name="168916938391" type="Const" version="opset1">
			<data offset="0" size="4" shape="" element_type="f32"/>
			<output>
				<port id="0" precision="FP32"/>
			</output>
		</layer>
		<layer id="154" name="169016948163" type="Const" version="opset1">
			<data offset="9986" size="4" shape="" element_type="f32"/>
			<output>
				<port id="0" precision="FP32"/>
			</output>
		</layer>
		<layer id="155" name="169116957644" type="Const" version="opset1">
			<data offset="0" size="4" shape="" element_type="f32"/>
			<output>
				<port id="0" precision="FP32"/>
			</output>
		</layer>
		<layer id="156" name="169216967473" type="Const" version="opset1">
			<data offset="9986" size="4" shape="" element_type="f32"/>
			<output>
				<port id="0" precision="FP32"/>
			</output>
		</layer>
		<layer id="157" name="151915237941" type="Const" version="opset1">
			<data offset="0" size="4" shape="" element_type="f32"/>
			<output>
				<port id="0" precision="FP32"/>
			</output>
		</layer>
		<layer id="158" name="152015247881" type="Const" version="opset1">
			<data offset="9990" size="4" shape="" element_type="f32"/>
			<output>
				<port id="0" precision="FP32"/>
			</output>
		</layer>
		<layer id="159" name="152115258259" type="Const" version="opset1">
			<data offset="0" size="4" shape="" element_type="f32"/>
			<output>
				<port id="0" precision="FP32"/>
			</output>
		</layer>
		<layer id="160" name="152215268046" type="Const" version="opset1">
			<data offset="9990" size="4" shape="" element_type="f32"/>
			<output>
				<port id="0" precision="FP32"/>
			</output>
		</layer>
		<layer id="161" name="9799837623" type="Const" version="opset1">
			<data offset="9994" size="4" shape="" element_type="f32"/>
			<output>
				<port id="0" precision="FP32"/>
			</output>
		</layer>
		<layer id="162" name="9809848100" type="Const" version="opset1">
			<data offset="9998" size="4" shape="" element_type="f32"/>
			<output>
				<port id="0" precision="FP32"/>
			</output>
		</layer>
		<layer id="163" name="9819858124" type="Const" version="opset1">
			<data offset="9994" size="4" shape="" element_type="f32"/>
			<output>
				<port id="0" precision="FP32"/>
			</output>
		</layer>
		<layer id="164" name="9829867728" type="Const" version="opset1">
			<data offset="9998" size="4" shape="" element_type="f32"/>
			<output>
				<port id="0" precision="FP32"/>
			</output>
		</layer>
		<layer id="165" name="105910637668" type="Const" version="opset1">
			<data offset="0" size="4" shape="" element_type="f32"/>
			<output>
				<port id="0" precision="FP32"/>
			</output>
		</layer>
		<layer id="166" name="106010648238" type="Const" version="opset1">
			<data offset="10002" size="4" shape="" element_type="f32"/>
			<output>
				<port id="0" precision="FP32"/>
			</output>
		</layer>
		<layer id="167" name="106110657719" type="Const" version="opset1">
			<data offset="0" size="4" shape="" element_type="f32"/>
			<output>
				<port id="0" precision="FP32"/>
			</output>
		</layer>
		<layer id="168" name="106210668157" type="Const" version="opset1">
			<data offset="10002" size="4" shape="" element_type="f32"/>
			<output>
				<port id="0" precision="FP32"/>
			</output>
		</layer>
		<layer id="169" name="9899937749" type="Const" version="opset1">
			<data offset="0" size="4" shape="" element_type="f32"/>
			<output>
				<port id="0" precision="FP32"/>
			</output>
		</layer>
		<layer id="170" name="9909947791" type="Const" version="opset1">
			<data offset="10006" size="4" shape="" element_type="f32"/>
			<output>
				<port id="0" precision="FP32"/>
			</output>
		</layer>
		<layer id="171" name="9919958202" type="Const" version="opset1">
			<data offset="0" size="4" shape="" element_type="f32"/>
			<output>
				<port id="0" precision="FP32"/>
			</output>
		</layer>
		<layer id="172" name="9929968418" type="Const" version="opset1">
			<data offset="10006" size="4" shape="" element_type="f32"/>
			<output>
				<port id="0" precision="FP32"/>
			</output>
		</layer>
		<layer id="173" name="164916537689" type="Const" version="opset1">
			<data offset="10010" size="4" shape="" element_type="f32"/>
			<output>
				<port id="0" precision="FP32"/>
			</output>
		</layer>
		<layer id="174" name="165016547797" type="Const" version="opset1">
			<data offset="10014" size="4" shape="" element_type="f32"/>
			<output>
				<port id="0" precision="FP32"/>
			</output>
		</layer>
		<layer id="175" name="165116557803" type="Const" version="opset1">
			<data offset="10010" size="4" shape="" element_type="f32"/>
			<output>
				<port id="0" precision="FP32"/>
			</output>
		</layer>
		<layer id="176" name="165216568154" type="Const" version="opset1">
			<data offset="10014" size="4" shape="" element_type="f32"/>
			<output>
				<port id="0" precision="FP32"/>
			</output>
		</layer>
		<layer id="177" name="8398437818" type="Const" version="opset1">
			<data offset="0" size="4" shape="" element_type="f32"/>
			<output>
				<port id="0" precision="FP32"/>
			</output>
		</layer>
		<layer id="178" name="8408448253" type="Const" version="opset1">
			<data offset="10018" size="4" shape="" element_type="f32"/>
			<output>
				<port id="0" precision="FP32"/>
			</output>
		</layer>
		<layer id="179" name="8418457830" type="Const" version="opset1">
			<data offset="0" size="4" shape="" element_type="f32"/>
			<output>
				<port id="0" precision="FP32"/>
			</output>
		</layer>
		<layer id="180" name="8428468091" type="Const" version="opset1">
			<data offset="10018" size="4" shape="" element_type="f32"/>
			<output>
				<port id="0" precision="FP32"/>
			</output>
		</layer>
		<layer id="181" name="158915938337" type="Const" version="opset1">
			<data offset="0" size="4" shape="" element_type="f32"/>
			<output>
				<port id="0" precision="FP32"/>
			</output>
		</layer>
		<layer id="182" name="159015947494" type="Const" version="opset1">
			<data offset="10022" size="4" shape="" element_type="f32"/>
			<output>
				<port id="0" precision="FP32"/>
			</output>
		</layer>
		<layer id="183" name="159115958412" type="Const" version="opset1">
			<data offset="0" size="4" shape="" element_type="f32"/>
			<output>
				<port id="0" precision="FP32"/>
			</output>
		</layer>
		<layer id="184" name="159215968028" type="Const" version="opset1">
			<data offset="10022" size="4" shape="" element_type="f32"/>
			<output>
				<port id="0" precision="FP32"/>
			</output>
		</layer>
		<layer id="185" name="116911738301" type="Const" version="opset1">
			<data offset="10026" size="4" shape="" element_type="f32"/>
			<output>
				<port id="0" precision="FP32"/>
			</output>
		</layer>
		<layer id="186" name="117011748406" type="Const" version="opset1">
			<data offset="10030" size="4" shape="" element_type="f32"/>
			<output>
				<port id="0" precision="FP32"/>
			</output>
		</layer>
		<layer id="187" name="117111757752" type="Const" version="opset1">
			<data offset="10026" size="4" shape="" element_type="f32"/>
			<output>
				<port id="0" precision="FP32"/>
			</output>
		</layer>
		<layer id="188" name="117211768199" type="Const" version="opset1">
			<data offset="10030" size="4" shape="" element_type="f32"/>
			<output>
				<port id="0" precision="FP32"/>
			</output>
		</layer>
		<layer id="189" name="182918338004" type="Const" version="opset1">
			<data offset="0" size="4" shape="" element_type="f32"/>
			<output>
				<port id="0" precision="FP32"/>
			</output>
		</layer>
		<layer id="190" name="183018347770" type="Const" version="opset1">
			<data offset="10034" size="4" shape="" element_type="f32"/>
			<output>
				<port id="0" precision="FP32"/>
			</output>
		</layer>
		<layer id="191" name="183118358208" type="Const" version="opset1">
			<data offset="0" size="4" shape="" element_type="f32"/>
			<output>
				<port id="0" precision="FP32"/>
			</output>
		</layer>
		<layer id="192" name="183218368316" type="Const" version="opset1">
			<data offset="10034" size="4" shape="" element_type="f32"/>
			<output>
				<port id="0" precision="FP32"/>
			</output>
		</layer>
		<layer id="193" name="117911838430" type="Const" version="opset1">
			<data offset="0" size="4" shape="" element_type="f32"/>
			<output>
				<port id="0" precision="FP32"/>
			</output>
		</layer>
		<layer id="194" name="118011847662" type="Const" version="opset1">
			<data offset="10038" size="4" shape="" element_type="f32"/>
			<output>
				<port id="0" precision="FP32"/>
			</output>
		</layer>
		<layer id="195" name="118111858061" type="Const" version="opset1">
			<data offset="0" size="4" shape="" element_type="f32"/>
			<output>
				<port id="0" precision="FP32"/>
			</output>
		</layer>
		<layer id="196" name="118211867518" type="Const" version="opset1">
			<data offset="10038" size="4" shape="" element_type="f32"/>
			<output>
				<port id="0" precision="FP32"/>
			</output>
		</layer>
		<layer id="197" name="140914137536" type="Const" version="opset1">
			<data offset="10042" size="4" shape="" element_type="f32"/>
			<output>
				<port id="0" precision="FP32"/>
			</output>
		</layer>
		<layer id="198" name="141014148226" type="Const" version="opset1">
			<data offset="10046" size="4" shape="" element_type="f32"/>
			<output>
				<port id="0" precision="FP32"/>
			</output>
		</layer>
		<layer id="199" name="141114158169" type="Const" version="opset1">
			<data offset="10042" size="4" shape="" element_type="f32"/>
			<output>
				<port id="0" precision="FP32"/>
			</output>
		</layer>
		<layer id="200" name="141214168313" type="Const" version="opset1">
			<data offset="10046" size="4" shape="" element_type="f32"/>
			<output>
				<port id="0" precision="FP32"/>
			</output>
		</layer>
		<layer id="201" name="160916137869" type="Const" version="opset1">
			<data offset="0" size="4" shape="" element_type="f32"/>
			<output>
				<port id="0" precision="FP32"/>
			</output>
		</layer>
		<layer id="202" name="161016148193" type="Const" version="opset1">
			<data offset="10050" size="4" shape="" element_type="f32"/>
			<output>
				<port id="0" precision="FP32"/>
			</output>
		</layer>
		<layer id="203" name="161116157527" type="Const" version="opset1">
			<data offset="0" size="4" shape="" element_type="f32"/>
			<output>
				<port id="0" precision="FP32"/>
			</output>
		</layer>
		<layer id="204" name="161216167992" type="Const" version="opset1">
			<data offset="10050" size="4" shape="" element_type="f32"/>
			<output>
				<port id="0" precision="FP32"/>
			</output>
		</layer>
		<layer id="205" name="141914237590" type="Const" version="opset1">
			<data offset="0" size="4" shape="" element_type="f32"/>
			<output>
				<port id="0" precision="FP32"/>
			</output>
		</layer>
		<layer id="206" name="142014248097" type="Const" version="opset1">
			<data offset="10054" size="4" shape="" element_type="f32"/>
			<output>
				<port id="0" precision="FP32"/>
			</output>
		</layer>
		<layer id="207" name="142114258034" type="Const" version="opset1">
			<data offset="0" size="4" shape="" element_type="f32"/>
			<output>
				<port id="0" precision="FP32"/>
			</output>
		</layer>
		<layer id="208" name="142214268115" type="Const" version="opset1">
			<data offset="10054" size="4" shape="" element_type="f32"/>
			<output>
				<port id="0" precision="FP32"/>
			</output>
		</layer>
		<layer id="209" name="124912538109" type="Const" version="opset1">
			<data offset="10058" size="4" shape="" element_type="f32"/>
			<output>
				<port id="0" precision="FP32"/>
			</output>
		</layer>
		<layer id="210" name="125012548403" type="Const" version="opset1">
			<data offset="10062" size="4" shape="" element_type="f32"/>
			<output>
				<port id="0" precision="FP32"/>
			</output>
		</layer>
		<layer id="211" name="125112558358" type="Const" version="opset1">
			<data offset="10058" size="4" shape="" element_type="f32"/>
			<output>
				<port id="0" precision="FP32"/>
			</output>
		</layer>
		<layer id="212" name="125212567698" type="Const" version="opset1">
			<data offset="10062" size="4" shape="" element_type="f32"/>
			<output>
				<port id="0" precision="FP32"/>
			</output>
		</layer>
		<layer id="213" name="142914337854" type="Const" version="opset1">
			<data offset="0" size="4" shape="" element_type="f32"/>
			<output>
				<port id="0" precision="FP32"/>
			</output>
		</layer>
		<layer id="214" name="143014347500" type="Const" version="opset1">
			<data offset="10066" size="4" shape="" element_type="f32"/>
			<output>
				<port id="0" precision="FP32"/>
			</output>
		</layer>
		<layer id="215" name="143114357695" type="Const" version="opset1">
			<data offset="0" size="4" shape="" element_type="f32"/>
			<output>
				<port id="0" precision="FP32"/>
			</output>
		</layer>
		<layer id="216" name="143214368145" type="Const" version="opset1">
			<data offset="10066" size="4" shape="" element_type="f32"/>
			<output>
				<port id="0" precision="FP32"/>
			</output>
		</layer>
		<layer id="217" name="encoder_Multiply_5802/fq_weights_1/scale57577764" type="Const" version="opset1">
			<data offset="10070" size="256" shape="64,1,1,1" element_type="f32"/>
			<output>
				<port id="0" precision="FP32">
					<dim>64</dim>
					<dim>1</dim>
					<dim>1</dim>
					<dim>1</dim>
				</port>
			</output>
		</layer>
		<layer id="218" name="Multiply_60692864180/restored_convert/quantized57498283" type="Const" version="opset1">
			<data offset="10326" size="36864" shape="64,64,3,3" element_type="i8"/>
			<output>
				<port id="0" precision="I8">
					<dim>64</dim>
					<dim>64</dim>
					<dim>3</dim>
					<dim>3</dim>
				</port>
			</output>
		</layer>
		<layer id="219" name="Multiply_60692864180/restored_convert/quantized/to_f32" type="Convert" version="opset1">
			<data destination_type="f32"/>
			<input>
				<port id="0">
					<dim>64</dim>
					<dim>64</dim>
					<dim>3</dim>
					<dim>3</dim>
				</port>
			</input>
			<output>
				<port id="1" precision="FP32">
					<dim>64</dim>
					<dim>64</dim>
					<dim>3</dim>
					<dim>3</dim>
				</port>
			</output>
		</layer>
		<layer id="220" name="Multiply_5802/fq_weights_1/mulpiply_by_scale" type="Multiply" version="opset1">
			<data auto_broadcast="numpy"/>
			<input>
				<port id="0">
					<dim>64</dim>
					<dim>64</dim>
					<dim>3</dim>
					<dim>3</dim>
				</port>
				<port id="1">
					<dim>64</dim>
					<dim>1</dim>
					<dim>1</dim>
					<dim>1</dim>
				</port>
			</input>
			<output>
				<port id="2" precision="FP32">
					<dim>64</dim>
					<dim>64</dim>
					<dim>3</dim>
					<dim>3</dim>
				</port>
			</output>
		</layer>
		<layer id="221" name="Multiply_5802" type="Convolution" version="opset1">
			<data auto_pad="explicit" strides="1,1" dilations="1,1" pads_begin="1,1" pads_end="1,1"/>
			<input>
				<port id="0">
					<dim>1</dim>
					<dim>64</dim>
					<dim>56</dim>
					<dim>56</dim>
				</port>
				<port id="1">
					<dim>64</dim>
					<dim>64</dim>
					<dim>3</dim>
					<dim>3</dim>
				</port>
			</input>
			<output>
				<port id="2" precision="FP32">
					<dim>1</dim>
					<dim>64</dim>
					<dim>56</dim>
					<dim>56</dim>
				</port>
			</output>
		</layer>
		<layer id="222" name="Constant_58072897926" type="Const" version="opset1">
			<data offset="47190" size="128" shape="1,64,1,1" element_type="f16"/>
			<output>
				<port id="0" precision="FP16">
					<dim>1</dim>
					<dim>64</dim>
					<dim>1</dim>
					<dim>1</dim>
				</port>
			</output>
		</layer>
		<layer id="223" name="Constant_58072894181/restored_convert" type="Convert" version="opset1">
			<data destination_type="f32"/>
			<rt_info>
				<attribute name="decompression" version="0"/>
			</rt_info>
			<input>
				<port id="0">
					<dim>1</dim>
					<dim>64</dim>
					<dim>1</dim>
					<dim>1</dim>
				</port>
			</input>
			<output>
				<port id="1" precision="FP32">
					<dim>1</dim>
					<dim>64</dim>
					<dim>1</dim>
					<dim>1</dim>
				</port>
			</output>
		</layer>
		<layer id="224" name="253" type="Add" version="opset1">
			<data auto_broadcast="numpy"/>
			<input>
				<port id="0">
					<dim>1</dim>
					<dim>64</dim>
					<dim>56</dim>
					<dim>56</dim>
				</port>
				<port id="1">
					<dim>1</dim>
					<dim>64</dim>
					<dim>1</dim>
					<dim>1</dim>
				</port>
			</input>
			<output>
				<port id="2" precision="FP32" names="253">
					<dim>1</dim>
					<dim>64</dim>
					<dim>56</dim>
					<dim>56</dim>
				</port>
			</output>
		</layer>
		<layer id="225" name="254" type="ReLU" version="opset1">
			<input>
				<port id="0">
					<dim>1</dim>
					<dim>64</dim>
					<dim>56</dim>
					<dim>56</dim>
				</port>
			</input>
			<output>
				<port id="1" precision="FP32" names="254">
					<dim>1</dim>
					<dim>64</dim>
					<dim>56</dim>
					<dim>56</dim>
				</port>
			</output>
		</layer>
		<layer id="226" name="Multiply_5809/fq_input_0" type="FakeQuantize" version="opset1">
			<data levels="256" auto_broadcast="numpy"/>
			<input>
				<port id="0">
					<dim>1</dim>
					<dim>64</dim>
					<dim>56</dim>
					<dim>56</dim>
				</port>
				<port id="1"/>
				<port id="2"/>
				<port id="3"/>
				<port id="4"/>
			</input>
			<output>
				<port id="5" precision="FP32">
					<dim>1</dim>
					<dim>64</dim>
					<dim>56</dim>
					<dim>56</dim>
				</port>
			</output>
		</layer>
		<layer id="227" name="encoder_Multiply_5809/fq_weights_1/scale54577944" type="Const" version="opset1">
			<data offset="47318" size="256" shape="64,1,1,1" element_type="f32"/>
			<output>
				<port id="0" precision="FP32">
					<dim>64</dim>
					<dim>1</dim>
					<dim>1</dim>
					<dim>1</dim>
				</port>
			</output>
		</layer>
		<layer id="228" name="Multiply_60782934182/restored_convert/quantized54498268" type="Const" version="opset1">
			<data offset="47574" size="36864" shape="64,64,3,3" element_type="i8"/>
			<output>
				<port id="0" precision="I8">
					<dim>64</dim>
					<dim>64</dim>
					<dim>3</dim>
					<dim>3</dim>
				</port>
			</output>
		</layer>
		<layer id="229" name="Multiply_60782934182/restored_convert/quantized/to_f32" type="Convert" version="opset1">
			<data destination_type="f32"/>
			<input>
				<port id="0">
					<dim>64</dim>
					<dim>64</dim>
					<dim>3</dim>
					<dim>3</dim>
				</port>
			</input>
			<output>
				<port id="1" precision="FP32">
					<dim>64</dim>
					<dim>64</dim>
					<dim>3</dim>
					<dim>3</dim>
				</port>
			</output>
		</layer>
		<layer id="230" name="Multiply_5809/fq_weights_1/mulpiply_by_scale" type="Multiply" version="opset1">
			<data auto_broadcast="numpy"/>
			<input>
				<port id="0">
					<dim>64</dim>
					<dim>64</dim>
					<dim>3</dim>
					<dim>3</dim>
				</port>
				<port id="1">
					<dim>64</dim>
					<dim>1</dim>
					<dim>1</dim>
					<dim>1</dim>
				</port>
			</input>
			<output>
				<port id="2" precision="FP32">
					<dim>64</dim>
					<dim>64</dim>
					<dim>3</dim>
					<dim>3</dim>
				</port>
			</output>
		</layer>
		<layer id="231" name="Multiply_5809" type="Convolution" version="opset1">
			<data auto_pad="explicit" strides="1,1" dilations="1,1" pads_begin="1,1" pads_end="1,1"/>
			<input>
				<port id="0">
					<dim>1</dim>
					<dim>64</dim>
					<dim>56</dim>
					<dim>56</dim>
				</port>
				<port id="1">
					<dim>64</dim>
					<dim>64</dim>
					<dim>3</dim>
					<dim>3</dim>
				</port>
			</input>
			<output>
				<port id="2" precision="FP32">
					<dim>1</dim>
					<dim>64</dim>
					<dim>56</dim>
					<dim>56</dim>
				</port>
			</output>
		</layer>
		<layer id="232" name="Constant_58142967545" type="Const" version="opset1">
			<data offset="84438" size="128" shape="1,64,1,1" element_type="f16"/>
			<output>
				<port id="0" precision="FP16">
					<dim>1</dim>
					<dim>64</dim>
					<dim>1</dim>
					<dim>1</dim>
				</port>
			</output>
		</layer>
		<layer id="233" name="Constant_58142964183/restored_convert" type="Convert" version="opset1">
			<data destination_type="f32"/>
			<rt_info>
				<attribute name="decompression" version="0"/>
			</rt_info>
			<input>
				<port id="0">
					<dim>1</dim>
					<dim>64</dim>
					<dim>1</dim>
					<dim>1</dim>
				</port>
			</input>
			<output>
				<port id="1" precision="FP32">
					<dim>1</dim>
					<dim>64</dim>
					<dim>1</dim>
					<dim>1</dim>
				</port>
			</output>
		</layer>
		<layer id="234" name="256" type="Add" version="opset1">
			<data auto_broadcast="numpy"/>
			<input>
				<port id="0">
					<dim>1</dim>
					<dim>64</dim>
					<dim>56</dim>
					<dim>56</dim>
				</port>
				<port id="1">
					<dim>1</dim>
					<dim>64</dim>
					<dim>1</dim>
					<dim>1</dim>
				</port>
			</input>
			<output>
				<port id="2" precision="FP32" names="256">
					<dim>1</dim>
					<dim>64</dim>
					<dim>56</dim>
					<dim>56</dim>
				</port>
			</output>
		</layer>
		<layer id="235" name="257/fq_input_0" type="FakeQuantize" version="opset1">
			<data levels="256" auto_broadcast="numpy"/>
			<input>
				<port id="0">
					<dim>1</dim>
					<dim>64</dim>
					<dim>56</dim>
					<dim>56</dim>
				</port>
				<port id="1"/>
				<port id="2"/>
				<port id="3"/>
				<port id="4"/>
			</input>
			<output>
				<port id="5" precision="FP32">
					<dim>1</dim>
					<dim>64</dim>
					<dim>56</dim>
					<dim>56</dim>
				</port>
			</output>
		</layer>
		<layer id="236" name="257" type="Add" version="opset1">
			<data auto_broadcast="numpy"/>
			<input>
				<port id="0">
					<dim>1</dim>
					<dim>64</dim>
					<dim>56</dim>
					<dim>56</dim>
				</port>
				<port id="1">
					<dim>1</dim>
					<dim>64</dim>
					<dim>56</dim>
					<dim>56</dim>
				</port>
			</input>
			<output>
				<port id="2" precision="FP32" names="257">
					<dim>1</dim>
					<dim>64</dim>
					<dim>56</dim>
					<dim>56</dim>
				</port>
			</output>
		</layer>
		<layer id="237" name="258" type="ReLU" version="opset1">
			<input>
				<port id="0">
					<dim>1</dim>
					<dim>64</dim>
					<dim>56</dim>
					<dim>56</dim>
				</port>
			</input>
			<output>
				<port id="1" precision="FP32" names="258">
					<dim>1</dim>
					<dim>64</dim>
					<dim>56</dim>
					<dim>56</dim>
				</port>
			</output>
		</layer>
		<layer id="238" name="264/fq_input_1" type="FakeQuantize" version="opset1">
			<data levels="256" auto_broadcast="numpy"/>
			<input>
				<port id="0">
					<dim>1</dim>
					<dim>64</dim>
					<dim>56</dim>
					<dim>56</dim>
				</port>
				<port id="1"/>
				<port id="2"/>
				<port id="3"/>
				<port id="4"/>
			</input>
			<output>
				<port id="5" precision="FP32">
					<dim>1</dim>
					<dim>64</dim>
					<dim>56</dim>
					<dim>56</dim>
				</port>
			</output>
		</layer>
		<layer id="239" name="encoder_Multiply_5816/fq_weights_1/scale53977683" type="Const" version="opset1">
			<data offset="84566" size="256" shape="64,1,1,1" element_type="f32"/>
			<output>
				<port id="0" precision="FP32">
					<dim>64</dim>
					<dim>1</dim>
					<dim>1</dim>
					<dim>1</dim>
				</port>
			</output>
		</layer>
		<layer id="240" name="Multiply_60873014184/restored_convert/quantized53898133" type="Const" version="opset1">
			<data offset="84822" size="36864" shape="64,64,3,3" element_type="i8"/>
			<output>
				<port id="0" precision="I8">
					<dim>64</dim>
					<dim>64</dim>
					<dim>3</dim>
					<dim>3</dim>
				</port>
			</output>
		</layer>
		<layer id="241" name="Multiply_60873014184/restored_convert/quantized/to_f32" type="Convert" version="opset1">
			<data destination_type="f32"/>
			<input>
				<port id="0">
					<dim>64</dim>
					<dim>64</dim>
					<dim>3</dim>
					<dim>3</dim>
				</port>
			</input>
			<output>
				<port id="1" precision="FP32">
					<dim>64</dim>
					<dim>64</dim>
					<dim>3</dim>
					<dim>3</dim>
				</port>
			</output>
		</layer>
		<layer id="242" name="Multiply_5816/fq_weights_1/mulpiply_by_scale" type="Multiply" version="opset1">
			<data auto_broadcast="numpy"/>
			<input>
				<port id="0">
					<dim>64</dim>
					<dim>64</dim>
					<dim>3</dim>
					<dim>3</dim>
				</port>
				<port id="1">
					<dim>64</dim>
					<dim>1</dim>
					<dim>1</dim>
					<dim>1</dim>
				</port>
			</input>
			<output>
				<port id="2" precision="FP32">
					<dim>64</dim>
					<dim>64</dim>
					<dim>3</dim>
					<dim>3</dim>
				</port>
			</output>
		</layer>
		<layer id="243" name="Multiply_5816" type="Convolution" version="opset1">
			<data auto_pad="explicit" strides="1,1" dilations="1,1" pads_begin="1,1" pads_end="1,1"/>
			<input>
				<port id="0">
					<dim>1</dim>
					<dim>64</dim>
					<dim>56</dim>
					<dim>56</dim>
				</port>
				<port id="1">
					<dim>64</dim>
					<dim>64</dim>
					<dim>3</dim>
					<dim>3</dim>
				</port>
			</input>
			<output>
				<port id="2" precision="FP32">
					<dim>1</dim>
					<dim>64</dim>
					<dim>56</dim>
					<dim>56</dim>
				</port>
			</output>
		</layer>
		<layer id="244" name="Constant_58213048265" type="Const" version="opset1">
			<data offset="121686" size="128" shape="1,64,1,1" element_type="f16"/>
			<output>
				<port id="0" precision="FP16">
					<dim>1</dim>
					<dim>64</dim>
					<dim>1</dim>
					<dim>1</dim>
				</port>
			</output>
		</layer>
		<layer id="245" name="Constant_58213044185/restored_convert" type="Convert" version="opset1">
			<data destination_type="f32"/>
			<rt_info>
				<attribute name="decompression" version="0"/>
			</rt_info>
			<input>
				<port id="0">
					<dim>1</dim>
					<dim>64</dim>
					<dim>1</dim>
					<dim>1</dim>
				</port>
			</input>
			<output>
				<port id="1" precision="FP32">
					<dim>1</dim>
					<dim>64</dim>
					<dim>1</dim>
					<dim>1</dim>
				</port>
			</output>
		</layer>
		<layer id="246" name="260" type="Add" version="opset1">
			<data auto_broadcast="numpy"/>
			<input>
				<port id="0">
					<dim>1</dim>
					<dim>64</dim>
					<dim>56</dim>
					<dim>56</dim>
				</port>
				<port id="1">
					<dim>1</dim>
					<dim>64</dim>
					<dim>1</dim>
					<dim>1</dim>
				</port>
			</input>
			<output>
				<port id="2" precision="FP32" names="260">
					<dim>1</dim>
					<dim>64</dim>
					<dim>56</dim>
					<dim>56</dim>
				</port>
			</output>
		</layer>
		<layer id="247" name="261" type="ReLU" version="opset1">
			<input>
				<port id="0">
					<dim>1</dim>
					<dim>64</dim>
					<dim>56</dim>
					<dim>56</dim>
				</port>
			</input>
			<output>
				<port id="1" precision="FP32" names="261">
					<dim>1</dim>
					<dim>64</dim>
					<dim>56</dim>
					<dim>56</dim>
				</port>
			</output>
		</layer>
		<layer id="248" name="Multiply_5823/fq_input_0" type="FakeQuantize" version="opset1">
			<data levels="256" auto_broadcast="numpy"/>
			<input>
				<port id="0">
					<dim>1</dim>
					<dim>64</dim>
					<dim>56</dim>
					<dim>56</dim>
				</port>
				<port id="1"/>
				<port id="2"/>
				<port id="3"/>
				<port id="4"/>
			</input>
			<output>
				<port id="5" precision="FP32">
					<dim>1</dim>
					<dim>64</dim>
					<dim>56</dim>
					<dim>56</dim>
				</port>
			</output>
		</layer>
		<layer id="249" name="encoder_Multiply_5823/fq_weights_1/scale58178013" type="Const" version="opset1">
			<data offset="121814" size="256" shape="64,1,1,1" element_type="f32"/>
			<output>
				<port id="0" precision="FP32">
					<dim>64</dim>
					<dim>1</dim>
					<dim>1</dim>
					<dim>1</dim>
				</port>
			</output>
		</layer>
		<layer id="250" name="Multiply_60963084186/restored_convert/quantized58098421" type="Const" version="opset1">
			<data offset="122070" size="36864" shape="64,64,3,3" element_type="i8"/>
			<output>
				<port id="0" precision="I8">
					<dim>64</dim>
					<dim>64</dim>
					<dim>3</dim>
					<dim>3</dim>
				</port>
			</output>
		</layer>
		<layer id="251" name="Multiply_60963084186/restored_convert/quantized/to_f32" type="Convert" version="opset1">
			<data destination_type="f32"/>
			<input>
				<port id="0">
					<dim>64</dim>
					<dim>64</dim>
					<dim>3</dim>
					<dim>3</dim>
				</port>
			</input>
			<output>
				<port id="1" precision="FP32">
					<dim>64</dim>
					<dim>64</dim>
					<dim>3</dim>
					<dim>3</dim>
				</port>
			</output>
		</layer>
		<layer id="252" name="Multiply_5823/fq_weights_1/mulpiply_by_scale" type="Multiply" version="opset1">
			<data auto_broadcast="numpy"/>
			<input>
				<port id="0">
					<dim>64</dim>
					<dim>64</dim>
					<dim>3</dim>
					<dim>3</dim>
				</port>
				<port id="1">
					<dim>64</dim>
					<dim>1</dim>
					<dim>1</dim>
					<dim>1</dim>
				</port>
			</input>
			<output>
				<port id="2" precision="FP32">
					<dim>64</dim>
					<dim>64</dim>
					<dim>3</dim>
					<dim>3</dim>
				</port>
			</output>
		</layer>
		<layer id="253" name="Multiply_5823" type="Convolution" version="opset1">
			<data auto_pad="explicit" strides="1,1" dilations="1,1" pads_begin="1,1" pads_end="1,1"/>
			<input>
				<port id="0">
					<dim>1</dim>
					<dim>64</dim>
					<dim>56</dim>
					<dim>56</dim>
				</port>
				<port id="1">
					<dim>64</dim>
					<dim>64</dim>
					<dim>3</dim>
					<dim>3</dim>
				</port>
			</input>
			<output>
				<port id="2" precision="FP32">
					<dim>1</dim>
					<dim>64</dim>
					<dim>56</dim>
					<dim>56</dim>
				</port>
			</output>
		</layer>
		<layer id="254" name="Constant_58283117794" type="Const" version="opset1">
			<data offset="158934" size="128" shape="1,64,1,1" element_type="f16"/>
			<output>
				<port id="0" precision="FP16">
					<dim>1</dim>
					<dim>64</dim>
					<dim>1</dim>
					<dim>1</dim>
				</port>
			</output>
		</layer>
		<layer id="255" name="Constant_58283114187/restored_convert" type="Convert" version="opset1">
			<data destination_type="f32"/>
			<rt_info>
				<attribute name="decompression" version="0"/>
			</rt_info>
			<input>
				<port id="0">
					<dim>1</dim>
					<dim>64</dim>
					<dim>1</dim>
					<dim>1</dim>
				</port>
			</input>
			<output>
				<port id="1" precision="FP32">
					<dim>1</dim>
					<dim>64</dim>
					<dim>1</dim>
					<dim>1</dim>
				</port>
			</output>
		</layer>
		<layer id="256" name="263" type="Add" version="opset1">
			<data auto_broadcast="numpy"/>
			<input>
				<port id="0">
					<dim>1</dim>
					<dim>64</dim>
					<dim>56</dim>
					<dim>56</dim>
				</port>
				<port id="1">
					<dim>1</dim>
					<dim>64</dim>
					<dim>1</dim>
					<dim>1</dim>
				</port>
			</input>
			<output>
				<port id="2" precision="FP32" names="263">
					<dim>1</dim>
					<dim>64</dim>
					<dim>56</dim>
					<dim>56</dim>
				</port>
			</output>
		</layer>
		<layer id="257" name="264/fq_input_0" type="FakeQuantize" version="opset1">
			<data levels="256" auto_broadcast="numpy"/>
			<input>
				<port id="0">
					<dim>1</dim>
					<dim>64</dim>
					<dim>56</dim>
					<dim>56</dim>
				</port>
				<port id="1"/>
				<port id="2"/>
				<port id="3"/>
				<port id="4"/>
			</input>
			<output>
				<port id="5" precision="FP32">
					<dim>1</dim>
					<dim>64</dim>
					<dim>56</dim>
					<dim>56</dim>
				</port>
			</output>
		</layer>
		<layer id="258" name="264" type="Add" version="opset1">
			<data auto_broadcast="numpy"/>
			<input>
				<port id="0">
					<dim>1</dim>
					<dim>64</dim>
					<dim>56</dim>
					<dim>56</dim>
				</port>
				<port id="1">
					<dim>1</dim>
					<dim>64</dim>
					<dim>56</dim>
					<dim>56</dim>
				</port>
			</input>
			<output>
				<port id="2" precision="FP32" names="264">
					<dim>1</dim>
					<dim>64</dim>
					<dim>56</dim>
					<dim>56</dim>
				</port>
			</output>
		</layer>
		<layer id="259" name="265" type="ReLU" version="opset1">
			<input>
				<port id="0">
					<dim>1</dim>
					<dim>64</dim>
					<dim>56</dim>
					<dim>56</dim>
				</port>
			</input>
			<output>
				<port id="1" precision="FP32" names="265">
					<dim>1</dim>
					<dim>64</dim>
					<dim>56</dim>
					<dim>56</dim>
				</port>
			</output>
		</layer>
		<layer id="260" name="271/fq_input_1" type="FakeQuantize" version="opset1">
			<data levels="256" auto_broadcast="numpy"/>
			<input>
				<port id="0">
					<dim>1</dim>
					<dim>64</dim>
					<dim>56</dim>
					<dim>56</dim>
				</port>
				<port id="1"/>
				<port id="2"/>
				<port id="3"/>
				<port id="4"/>
			</input>
			<output>
				<port id="5" precision="FP32">
					<dim>1</dim>
					<dim>64</dim>
					<dim>56</dim>
					<dim>56</dim>
				</port>
			</output>
		</layer>
		<layer id="261" name="encoder_Multiply_5830/fq_weights_1/scale51577503" type="Const" version="opset1">
			<data offset="159062" size="256" shape="64,1,1,1" element_type="f32"/>
			<output>
				<port id="0" precision="FP32">
					<dim>64</dim>
					<dim>1</dim>
					<dim>1</dim>
					<dim>1</dim>
				</port>
			</output>
		</layer>
		<layer id="262" name="Multiply_61053164188/restored_convert/quantized51497530" type="Const" version="opset1">
			<data offset="159318" size="36864" shape="64,64,3,3" element_type="i8"/>
			<output>
				<port id="0" precision="I8">
					<dim>64</dim>
					<dim>64</dim>
					<dim>3</dim>
					<dim>3</dim>
				</port>
			</output>
		</layer>
		<layer id="263" name="Multiply_61053164188/restored_convert/quantized/to_f32" type="Convert" version="opset1">
			<data destination_type="f32"/>
			<input>
				<port id="0">
					<dim>64</dim>
					<dim>64</dim>
					<dim>3</dim>
					<dim>3</dim>
				</port>
			</input>
			<output>
				<port id="1" precision="FP32">
					<dim>64</dim>
					<dim>64</dim>
					<dim>3</dim>
					<dim>3</dim>
				</port>
			</output>
		</layer>
		<layer id="264" name="Multiply_5830/fq_weights_1/mulpiply_by_scale" type="Multiply" version="opset1">
			<data auto_broadcast="numpy"/>
			<input>
				<port id="0">
					<dim>64</dim>
					<dim>64</dim>
					<dim>3</dim>
					<dim>3</dim>
				</port>
				<port id="1">
					<dim>64</dim>
					<dim>1</dim>
					<dim>1</dim>
					<dim>1</dim>
				</port>
			</input>
			<output>
				<port id="2" precision="FP32">
					<dim>64</dim>
					<dim>64</dim>
					<dim>3</dim>
					<dim>3</dim>
				</port>
			</output>
		</layer>
		<layer id="265" name="Multiply_5830" type="Convolution" version="opset1">
			<data auto_pad="explicit" strides="1,1" dilations="1,1" pads_begin="1,1" pads_end="1,1"/>
			<input>
				<port id="0">
					<dim>1</dim>
					<dim>64</dim>
					<dim>56</dim>
					<dim>56</dim>
				</port>
				<port id="1">
					<dim>64</dim>
					<dim>64</dim>
					<dim>3</dim>
					<dim>3</dim>
				</port>
			</input>
			<output>
				<port id="2" precision="FP32">
					<dim>1</dim>
					<dim>64</dim>
					<dim>56</dim>
					<dim>56</dim>
				</port>
			</output>
		</layer>
		<layer id="266" name="Constant_58353197875" type="Const" version="opset1">
			<data offset="196182" size="128" shape="1,64,1,1" element_type="f16"/>
			<output>
				<port id="0" precision="FP16">
					<dim>1</dim>
					<dim>64</dim>
					<dim>1</dim>
					<dim>1</dim>
				</port>
			</output>
		</layer>
		<layer id="267" name="Constant_58353194189/restored_convert" type="Convert" version="opset1">
			<data destination_type="f32"/>
			<rt_info>
				<attribute name="decompression" version="0"/>
			</rt_info>
			<input>
				<port id="0">
					<dim>1</dim>
					<dim>64</dim>
					<dim>1</dim>
					<dim>1</dim>
				</port>
			</input>
			<output>
				<port id="1" precision="FP32">
					<dim>1</dim>
					<dim>64</dim>
					<dim>1</dim>
					<dim>1</dim>
				</port>
			</output>
		</layer>
		<layer id="268" name="267" type="Add" version="opset1">
			<data auto_broadcast="numpy"/>
			<input>
				<port id="0">
					<dim>1</dim>
					<dim>64</dim>
					<dim>56</dim>
					<dim>56</dim>
				</port>
				<port id="1">
					<dim>1</dim>
					<dim>64</dim>
					<dim>1</dim>
					<dim>1</dim>
				</port>
			</input>
			<output>
				<port id="2" precision="FP32" names="267">
					<dim>1</dim>
					<dim>64</dim>
					<dim>56</dim>
					<dim>56</dim>
				</port>
			</output>
		</layer>
		<layer id="269" name="268" type="ReLU" version="opset1">
			<input>
				<port id="0">
					<dim>1</dim>
					<dim>64</dim>
					<dim>56</dim>
					<dim>56</dim>
				</port>
			</input>
			<output>
				<port id="1" precision="FP32" names="268">
					<dim>1</dim>
					<dim>64</dim>
					<dim>56</dim>
					<dim>56</dim>
				</port>
			</output>
		</layer>
		<layer id="270" name="Multiply_5837/fq_input_0" type="FakeQuantize" version="opset1">
			<data levels="256" auto_broadcast="numpy"/>
			<input>
				<port id="0">
					<dim>1</dim>
					<dim>64</dim>
					<dim>56</dim>
					<dim>56</dim>
				</port>
				<port id="1"/>
				<port id="2"/>
				<port id="3"/>
				<port id="4"/>
			</input>
			<output>
				<port id="5" precision="FP32">
					<dim>1</dim>
					<dim>64</dim>
					<dim>56</dim>
					<dim>56</dim>
				</port>
			</output>
		</layer>
		<layer id="271" name="encoder_Multiply_5837/fq_weights_1/scale57877842" type="Const" version="opset1">
			<data offset="196310" size="256" shape="64,1,1,1" element_type="f32"/>
			<output>
				<port id="0" precision="FP32">
					<dim>64</dim>
					<dim>1</dim>
					<dim>1</dim>
					<dim>1</dim>
				</port>
			</output>
		</layer>
		<layer id="272" name="Multiply_61143234190/restored_convert/quantized57798379" type="Const" version="opset1">
			<data offset="196566" size="36864" shape="64,64,3,3" element_type="i8"/>
			<output>
				<port id="0" precision="I8">
					<dim>64</dim>
					<dim>64</dim>
					<dim>3</dim>
					<dim>3</dim>
				</port>
			</output>
		</layer>
		<layer id="273" name="Multiply_61143234190/restored_convert/quantized/to_f32" type="Convert" version="opset1">
			<data destination_type="f32"/>
			<input>
				<port id="0">
					<dim>64</dim>
					<dim>64</dim>
					<dim>3</dim>
					<dim>3</dim>
				</port>
			</input>
			<output>
				<port id="1" precision="FP32">
					<dim>64</dim>
					<dim>64</dim>
					<dim>3</dim>
					<dim>3</dim>
				</port>
			</output>
		</layer>
		<layer id="274" name="Multiply_5837/fq_weights_1/mulpiply_by_scale" type="Multiply" version="opset1">
			<data auto_broadcast="numpy"/>
			<input>
				<port id="0">
					<dim>64</dim>
					<dim>64</dim>
					<dim>3</dim>
					<dim>3</dim>
				</port>
				<port id="1">
					<dim>64</dim>
					<dim>1</dim>
					<dim>1</dim>
					<dim>1</dim>
				</port>
			</input>
			<output>
				<port id="2" precision="FP32">
					<dim>64</dim>
					<dim>64</dim>
					<dim>3</dim>
					<dim>3</dim>
				</port>
			</output>
		</layer>
		<layer id="275" name="Multiply_5837" type="Convolution" version="opset1">
			<data auto_pad="explicit" strides="1,1" dilations="1,1" pads_begin="1,1" pads_end="1,1"/>
			<input>
				<port id="0">
					<dim>1</dim>
					<dim>64</dim>
					<dim>56</dim>
					<dim>56</dim>
				</port>
				<port id="1">
					<dim>64</dim>
					<dim>64</dim>
					<dim>3</dim>
					<dim>3</dim>
				</port>
			</input>
			<output>
				<port id="2" precision="FP32">
					<dim>1</dim>
					<dim>64</dim>
					<dim>56</dim>
					<dim>56</dim>
				</port>
			</output>
		</layer>
		<layer id="276" name="Constant_58423267836" type="Const" version="opset1">
			<data offset="233430" size="128" shape="1,64,1,1" element_type="f16"/>
			<output>
				<port id="0" precision="FP16">
					<dim>1</dim>
					<dim>64</dim>
					<dim>1</dim>
					<dim>1</dim>
				</port>
			</output>
		</layer>
		<layer id="277" name="Constant_58423264191/restored_convert" type="Convert" version="opset1">
			<data destination_type="f32"/>
			<rt_info>
				<attribute name="decompression" version="0"/>
			</rt_info>
			<input>
				<port id="0">
					<dim>1</dim>
					<dim>64</dim>
					<dim>1</dim>
					<dim>1</dim>
				</port>
			</input>
			<output>
				<port id="1" precision="FP32">
					<dim>1</dim>
					<dim>64</dim>
					<dim>1</dim>
					<dim>1</dim>
				</port>
			</output>
		</layer>
		<layer id="278" name="270" type="Add" version="opset1">
			<data auto_broadcast="numpy"/>
			<input>
				<port id="0">
					<dim>1</dim>
					<dim>64</dim>
					<dim>56</dim>
					<dim>56</dim>
				</port>
				<port id="1">
					<dim>1</dim>
					<dim>64</dim>
					<dim>1</dim>
					<dim>1</dim>
				</port>
			</input>
			<output>
				<port id="2" precision="FP32" names="270">
					<dim>1</dim>
					<dim>64</dim>
					<dim>56</dim>
					<dim>56</dim>
				</port>
			</output>
		</layer>
		<layer id="279" name="271/fq_input_0" type="FakeQuantize" version="opset1">
			<data levels="256" auto_broadcast="numpy"/>
			<input>
				<port id="0">
					<dim>1</dim>
					<dim>64</dim>
					<dim>56</dim>
					<dim>56</dim>
				</port>
				<port id="1"/>
				<port id="2"/>
				<port id="3"/>
				<port id="4"/>
			</input>
			<output>
				<port id="5" precision="FP32">
					<dim>1</dim>
					<dim>64</dim>
					<dim>56</dim>
					<dim>56</dim>
				</port>
			</output>
		</layer>
		<layer id="280" name="271" type="Add" version="opset1">
			<data auto_broadcast="numpy"/>
			<input>
				<port id="0">
					<dim>1</dim>
					<dim>64</dim>
					<dim>56</dim>
					<dim>56</dim>
				</port>
				<port id="1">
					<dim>1</dim>
					<dim>64</dim>
					<dim>56</dim>
					<dim>56</dim>
				</port>
			</input>
			<output>
				<port id="2" precision="FP32" names="271">
					<dim>1</dim>
					<dim>64</dim>
					<dim>56</dim>
					<dim>56</dim>
				</port>
			</output>
		</layer>
		<layer id="281" name="272" type="ReLU" version="opset1">
			<input>
				<port id="0">
					<dim>1</dim>
					<dim>64</dim>
					<dim>56</dim>
					<dim>56</dim>
				</port>
			</input>
			<output>
				<port id="1" precision="FP32" names="272">
					<dim>1</dim>
					<dim>64</dim>
					<dim>56</dim>
					<dim>56</dim>
				</port>
			</output>
		</layer>
		<layer id="282" name="Multiply_5844/fq_input_0" type="FakeQuantize" version="opset1">
			<data levels="256" auto_broadcast="numpy"/>
			<input>
				<port id="0">
					<dim>1</dim>
					<dim>64</dim>
					<dim>56</dim>
					<dim>56</dim>
				</port>
				<port id="1"/>
				<port id="2"/>
				<port id="3"/>
				<port id="4"/>
			</input>
			<output>
				<port id="5" precision="FP32">
					<dim>1</dim>
					<dim>64</dim>
					<dim>56</dim>
					<dim>56</dim>
				</port>
			</output>
		</layer>
		<layer id="283" name="encoder_Multiply_5844/fq_weights_1/scale48277806" type="Const" version="opset1">
			<data offset="233558" size="512" shape="128,1,1,1" element_type="f32"/>
			<output>
				<port id="0" precision="FP32">
					<dim>128</dim>
					<dim>1</dim>
					<dim>1</dim>
					<dim>1</dim>
				</port>
			</output>
		</layer>
		<layer id="284" name="Multiply_61233314192/restored_convert/quantized48198382" type="Const" version="opset1">
			<data offset="234070" size="73728" shape="128,64,3,3" element_type="i8"/>
			<output>
				<port id="0" precision="I8">
					<dim>128</dim>
					<dim>64</dim>
					<dim>3</dim>
					<dim>3</dim>
				</port>
			</output>
		</layer>
		<layer id="285" name="Multiply_61233314192/restored_convert/quantized/to_f32" type="Convert" version="opset1">
			<data destination_type="f32"/>
			<input>
				<port id="0">
					<dim>128</dim>
					<dim>64</dim>
					<dim>3</dim>
					<dim>3</dim>
				</port>
			</input>
			<output>
				<port id="1" precision="FP32">
					<dim>128</dim>
					<dim>64</dim>
					<dim>3</dim>
					<dim>3</dim>
				</port>
			</output>
		</layer>
		<layer id="286" name="Multiply_5844/fq_weights_1/mulpiply_by_scale" type="Multiply" version="opset1">
			<data auto_broadcast="numpy"/>
			<input>
				<port id="0">
					<dim>128</dim>
					<dim>64</dim>
					<dim>3</dim>
					<dim>3</dim>
				</port>
				<port id="1">
					<dim>128</dim>
					<dim>1</dim>
					<dim>1</dim>
					<dim>1</dim>
				</port>
			</input>
			<output>
				<port id="2" precision="FP32">
					<dim>128</dim>
					<dim>64</dim>
					<dim>3</dim>
					<dim>3</dim>
				</port>
			</output>
		</layer>
		<layer id="287" name="Multiply_5844" type="Convolution" version="opset1">
			<data auto_pad="explicit" strides="2,2" dilations="1,1" pads_begin="1,1" pads_end="1,1"/>
			<input>
				<port id="0">
					<dim>1</dim>
					<dim>64</dim>
					<dim>56</dim>
					<dim>56</dim>
				</port>
				<port id="1">
					<dim>128</dim>
					<dim>64</dim>
					<dim>3</dim>
					<dim>3</dim>
				</port>
			</input>
			<output>
				<port id="2" precision="FP32">
					<dim>1</dim>
					<dim>128</dim>
					<dim>28</dim>
					<dim>28</dim>
				</port>
			</output>
		</layer>
		<layer id="288" name="Constant_58493347713" type="Const" version="opset1">
			<data offset="307798" size="256" shape="1,128,1,1" element_type="f16"/>
			<output>
				<port id="0" precision="FP16">
					<dim>1</dim>
					<dim>128</dim>
					<dim>1</dim>
					<dim>1</dim>
				</port>
			</output>
		</layer>
		<layer id="289" name="Constant_58493344193/restored_convert" type="Convert" version="opset1">
			<data destination_type="f32"/>
			<rt_info>
				<attribute name="decompression" version="0"/>
			</rt_info>
			<input>
				<port id="0">
					<dim>1</dim>
					<dim>128</dim>
					<dim>1</dim>
					<dim>1</dim>
				</port>
			</input>
			<output>
				<port id="1" precision="FP32">
					<dim>1</dim>
					<dim>128</dim>
					<dim>1</dim>
					<dim>1</dim>
				</port>
			</output>
		</layer>
		<layer id="290" name="274" type="Add" version="opset1">
			<data auto_broadcast="numpy"/>
			<input>
				<port id="0">
					<dim>1</dim>
					<dim>128</dim>
					<dim>28</dim>
					<dim>28</dim>
				</port>
				<port id="1">
					<dim>1</dim>
					<dim>128</dim>
					<dim>1</dim>
					<dim>1</dim>
				</port>
			</input>
			<output>
				<port id="2" precision="FP32" names="274">
					<dim>1</dim>
					<dim>128</dim>
					<dim>28</dim>
					<dim>28</dim>
				</port>
			</output>
		</layer>
		<layer id="291" name="275" type="ReLU" version="opset1">
			<input>
				<port id="0">
					<dim>1</dim>
					<dim>128</dim>
					<dim>28</dim>
					<dim>28</dim>
				</port>
			</input>
			<output>
				<port id="1" precision="FP32" names="275">
					<dim>1</dim>
					<dim>128</dim>
					<dim>28</dim>
					<dim>28</dim>
				</port>
			</output>
		</layer>
		<layer id="292" name="Multiply_5851/fq_input_0" type="FakeQuantize" version="opset1">
			<data levels="256" auto_broadcast="numpy"/>
			<input>
				<port id="0">
					<dim>1</dim>
					<dim>128</dim>
					<dim>28</dim>
					<dim>28</dim>
				</port>
				<port id="1"/>
				<port id="2"/>
				<port id="3"/>
				<port id="4"/>
			</input>
			<output>
				<port id="5" precision="FP32">
					<dim>1</dim>
					<dim>128</dim>
					<dim>28</dim>
					<dim>28</dim>
				</port>
			</output>
		</layer>
		<layer id="293" name="encoder_Multiply_5851/fq_weights_1/scale52478217" type="Const" version="opset1">
			<data offset="308054" size="512" shape="128,1,1,1" element_type="f32"/>
			<output>
				<port id="0" precision="FP32">
					<dim>128</dim>
					<dim>1</dim>
					<dim>1</dim>
					<dim>1</dim>
				</port>
			</output>
		</layer>
		<layer id="294" name="Multiply_61323384194/restored_convert/quantized52397974" type="Const" version="opset1">
			<data offset="308566" size="147456" shape="128,128,3,3" element_type="i8"/>
			<output>
				<port id="0" precision="I8">
					<dim>128</dim>
					<dim>128</dim>
					<dim>3</dim>
					<dim>3</dim>
				</port>
			</output>
		</layer>
		<layer id="295" name="Multiply_61323384194/restored_convert/quantized/to_f32" type="Convert" version="opset1">
			<data destination_type="f32"/>
			<input>
				<port id="0">
					<dim>128</dim>
					<dim>128</dim>
					<dim>3</dim>
					<dim>3</dim>
				</port>
			</input>
			<output>
				<port id="1" precision="FP32">
					<dim>128</dim>
					<dim>128</dim>
					<dim>3</dim>
					<dim>3</dim>
				</port>
			</output>
		</layer>
		<layer id="296" name="Multiply_5851/fq_weights_1/mulpiply_by_scale" type="Multiply" version="opset1">
			<data auto_broadcast="numpy"/>
			<input>
				<port id="0">
					<dim>128</dim>
					<dim>128</dim>
					<dim>3</dim>
					<dim>3</dim>
				</port>
				<port id="1">
					<dim>128</dim>
					<dim>1</dim>
					<dim>1</dim>
					<dim>1</dim>
				</port>
			</input>
			<output>
				<port id="2" precision="FP32">
					<dim>128</dim>
					<dim>128</dim>
					<dim>3</dim>
					<dim>3</dim>
				</port>
			</output>
		</layer>
		<layer id="297" name="Multiply_5851" type="Convolution" version="opset1">
			<data auto_pad="explicit" strides="1,1" dilations="1,1" pads_begin="1,1" pads_end="1,1"/>
			<input>
				<port id="0">
					<dim>1</dim>
					<dim>128</dim>
					<dim>28</dim>
					<dim>28</dim>
				</port>
				<port id="1">
					<dim>128</dim>
					<dim>128</dim>
					<dim>3</dim>
					<dim>3</dim>
				</port>
			</input>
			<output>
				<port id="2" precision="FP32">
					<dim>1</dim>
					<dim>128</dim>
					<dim>28</dim>
					<dim>28</dim>
				</port>
			</output>
		</layer>
		<layer id="298" name="Constant_58563417641" type="Const" version="opset1">
			<data offset="456022" size="256" shape="1,128,1,1" element_type="f16"/>
			<output>
				<port id="0" precision="FP16">
					<dim>1</dim>
					<dim>128</dim>
					<dim>1</dim>
					<dim>1</dim>
				</port>
			</output>
		</layer>
		<layer id="299" name="Constant_58563414195/restored_convert" type="Convert" version="opset1">
			<data destination_type="f32"/>
			<rt_info>
				<attribute name="decompression" version="0"/>
			</rt_info>
			<input>
				<port id="0">
					<dim>1</dim>
					<dim>128</dim>
					<dim>1</dim>
					<dim>1</dim>
				</port>
			</input>
			<output>
				<port id="1" precision="FP32">
					<dim>1</dim>
					<dim>128</dim>
					<dim>1</dim>
					<dim>1</dim>
				</port>
			</output>
		</layer>
		<layer id="300" name="277" type="Add" version="opset1">
			<data auto_broadcast="numpy"/>
			<input>
				<port id="0">
					<dim>1</dim>
					<dim>128</dim>
					<dim>28</dim>
					<dim>28</dim>
				</port>
				<port id="1">
					<dim>1</dim>
					<dim>128</dim>
					<dim>1</dim>
					<dim>1</dim>
				</port>
			</input>
			<output>
				<port id="2" precision="FP32" names="277">
					<dim>1</dim>
					<dim>128</dim>
					<dim>28</dim>
					<dim>28</dim>
				</port>
			</output>
		</layer>
		<layer id="301" name="280/fq_input_0" type="FakeQuantize" version="opset1">
			<data levels="256" auto_broadcast="numpy"/>
			<input>
				<port id="0">
					<dim>1</dim>
					<dim>128</dim>
					<dim>28</dim>
					<dim>28</dim>
				</port>
				<port id="1"/>
				<port id="2"/>
				<port id="3"/>
				<port id="4"/>
			</input>
			<output>
				<port id="5" precision="FP32">
					<dim>1</dim>
					<dim>128</dim>
					<dim>28</dim>
					<dim>28</dim>
				</port>
			</output>
		</layer>
		<layer id="302" name="165916637569" type="Const" version="opset1">
			<data offset="456278" size="4" shape="" element_type="f32"/>
			<output>
				<port id="0" precision="FP32"/>
			</output>
		</layer>
		<layer id="303" name="166016648052" type="Const" version="opset1">
			<data offset="456282" size="4" shape="" element_type="f32"/>
			<output>
				<port id="0" precision="FP32"/>
			</output>
		</layer>
		<layer id="304" name="166116658010" type="Const" version="opset1">
			<data offset="456278" size="4" shape="" element_type="f32"/>
			<output>
				<port id="0" precision="FP32"/>
			</output>
		</layer>
		<layer id="305" name="166216667617" type="Const" version="opset1">
			<data offset="456282" size="4" shape="" element_type="f32"/>
			<output>
				<port id="0" precision="FP32"/>
			</output>
		</layer>
		<layer id="306" name="encoder_Multiply_5858/fq_weights_1/scale47677821" type="Const" version="opset1">
			<data offset="456286" size="512" shape="128,1,1,1" element_type="f32"/>
			<output>
				<port id="0" precision="FP32">
					<dim>128</dim>
					<dim>1</dim>
					<dim>1</dim>
					<dim>1</dim>
				</port>
			</output>
		</layer>
		<layer id="307" name="Multiply_61413444196/restored_convert/quantized47598064" type="Const" version="opset1">
			<data offset="456798" size="8192" shape="128,64,1,1" element_type="i8"/>
			<output>
				<port id="0" precision="I8">
					<dim>128</dim>
					<dim>64</dim>
					<dim>1</dim>
					<dim>1</dim>
				</port>
			</output>
		</layer>
		<layer id="308" name="Multiply_61413444196/restored_convert/quantized/to_f32" type="Convert" version="opset1">
			<data destination_type="f32"/>
			<input>
				<port id="0">
					<dim>128</dim>
					<dim>64</dim>
					<dim>1</dim>
					<dim>1</dim>
				</port>
			</input>
			<output>
				<port id="1" precision="FP32">
					<dim>128</dim>
					<dim>64</dim>
					<dim>1</dim>
					<dim>1</dim>
				</port>
			</output>
		</layer>
		<layer id="309" name="Multiply_5858/fq_weights_1/mulpiply_by_scale" type="Multiply" version="opset1">
			<data auto_broadcast="numpy"/>
			<input>
				<port id="0">
					<dim>128</dim>
					<dim>64</dim>
					<dim>1</dim>
					<dim>1</dim>
				</port>
				<port id="1">
					<dim>128</dim>
					<dim>1</dim>
					<dim>1</dim>
					<dim>1</dim>
				</port>
			</input>
			<output>
				<port id="2" precision="FP32">
					<dim>128</dim>
					<dim>64</dim>
					<dim>1</dim>
					<dim>1</dim>
				</port>
			</output>
		</layer>
		<layer id="310" name="Multiply_5858" type="Convolution" version="opset1">
			<data auto_pad="explicit" strides="2,2" dilations="1,1" pads_begin="0,0" pads_end="0,0"/>
			<input>
				<port id="0">
					<dim>1</dim>
					<dim>64</dim>
					<dim>56</dim>
					<dim>56</dim>
				</port>
				<port id="1">
					<dim>128</dim>
					<dim>64</dim>
					<dim>1</dim>
					<dim>1</dim>
				</port>
			</input>
			<output>
				<port id="2" precision="FP32">
					<dim>1</dim>
					<dim>128</dim>
					<dim>28</dim>
					<dim>28</dim>
				</port>
			</output>
		</layer>
		<layer id="311" name="Constant_58633477980" type="Const" version="opset1">
			<data offset="464990" size="256" shape="1,128,1,1" element_type="f16"/>
			<output>
				<port id="0" precision="FP16">
					<dim>1</dim>
					<dim>128</dim>
					<dim>1</dim>
					<dim>1</dim>
				</port>
			</output>
		</layer>
		<layer id="312" name="Constant_58633474197/restored_convert" type="Convert" version="opset1">
			<data destination_type="f32"/>
			<rt_info>
				<attribute name="decompression" version="0"/>
			</rt_info>
			<input>
				<port id="0">
					<dim>1</dim>
					<dim>128</dim>
					<dim>1</dim>
					<dim>1</dim>
				</port>
			</input>
			<output>
				<port id="1" precision="FP32">
					<dim>1</dim>
					<dim>128</dim>
					<dim>1</dim>
					<dim>1</dim>
				</port>
			</output>
		</layer>
		<layer id="313" name="279" type="Add" version="opset1">
			<data auto_broadcast="numpy"/>
			<input>
				<port id="0">
					<dim>1</dim>
					<dim>128</dim>
					<dim>28</dim>
					<dim>28</dim>
				</port>
				<port id="1">
					<dim>1</dim>
					<dim>128</dim>
					<dim>1</dim>
					<dim>1</dim>
				</port>
			</input>
			<output>
				<port id="2" precision="FP32" names="279">
					<dim>1</dim>
					<dim>128</dim>
					<dim>28</dim>
					<dim>28</dim>
				</port>
			</output>
		</layer>
		<layer id="314" name="280/fq_input_1" type="FakeQuantize" version="opset1">
			<data levels="256" auto_broadcast="numpy"/>
			<input>
				<port id="0">
					<dim>1</dim>
					<dim>128</dim>
					<dim>28</dim>
					<dim>28</dim>
				</port>
				<port id="1"/>
				<port id="2"/>
				<port id="3"/>
				<port id="4"/>
			</input>
			<output>
				<port id="5" precision="FP32">
					<dim>1</dim>
					<dim>128</dim>
					<dim>28</dim>
					<dim>28</dim>
				</port>
			</output>
		</layer>
		<layer id="315" name="280" type="Add" version="opset1">
			<data auto_broadcast="numpy"/>
			<input>
				<port id="0">
					<dim>1</dim>
					<dim>128</dim>
					<dim>28</dim>
					<dim>28</dim>
				</port>
				<port id="1">
					<dim>1</dim>
					<dim>128</dim>
					<dim>28</dim>
					<dim>28</dim>
				</port>
			</input>
			<output>
				<port id="2" precision="FP32" names="280">
					<dim>1</dim>
					<dim>128</dim>
					<dim>28</dim>
					<dim>28</dim>
				</port>
			</output>
		</layer>
		<layer id="316" name="281" type="ReLU" version="opset1">
			<input>
				<port id="0">
					<dim>1</dim>
					<dim>128</dim>
					<dim>28</dim>
					<dim>28</dim>
				</port>
			</input>
			<output>
				<port id="1" precision="FP32" names="281">
					<dim>1</dim>
					<dim>128</dim>
					<dim>28</dim>
					<dim>28</dim>
				</port>
			</output>
		</layer>
		<layer id="317" name="287/fq_input_1" type="FakeQuantize" version="opset1">
			<data levels="256" auto_broadcast="numpy"/>
			<input>
				<port id="0">
					<dim>1</dim>
					<dim>128</dim>
					<dim>28</dim>
					<dim>28</dim>
				</port>
				<port id="1"/>
				<port id="2"/>
				<port id="3"/>
				<port id="4"/>
			</input>
			<output>
				<port id="5" precision="FP32">
					<dim>1</dim>
					<dim>128</dim>
					<dim>28</dim>
					<dim>28</dim>
				</port>
			</output>
		</layer>
		<layer id="318" name="encoder_Multiply_5865/fq_weights_1/scale55477740" type="Const" version="opset1">
			<data offset="465246" size="512" shape="128,1,1,1" element_type="f32"/>
			<output>
				<port id="0" precision="FP32">
					<dim>128</dim>
					<dim>1</dim>
					<dim>1</dim>
					<dim>1</dim>
				</port>
			</output>
		</layer>
		<layer id="319" name="Multiply_61503524198/restored_convert/quantized55397626" type="Const" version="opset1">
			<data offset="465758" size="147456" shape="128,128,3,3" element_type="i8"/>
			<output>
				<port id="0" precision="I8">
					<dim>128</dim>
					<dim>128</dim>
					<dim>3</dim>
					<dim>3</dim>
				</port>
			</output>
		</layer>
		<layer id="320" name="Multiply_61503524198/restored_convert/quantized/to_f32" type="Convert" version="opset1">
			<data destination_type="f32"/>
			<input>
				<port id="0">
					<dim>128</dim>
					<dim>128</dim>
					<dim>3</dim>
					<dim>3</dim>
				</port>
			</input>
			<output>
				<port id="1" precision="FP32">
					<dim>128</dim>
					<dim>128</dim>
					<dim>3</dim>
					<dim>3</dim>
				</port>
			</output>
		</layer>
		<layer id="321" name="Multiply_5865/fq_weights_1/mulpiply_by_scale" type="Multiply" version="opset1">
			<data auto_broadcast="numpy"/>
			<input>
				<port id="0">
					<dim>128</dim>
					<dim>128</dim>
					<dim>3</dim>
					<dim>3</dim>
				</port>
				<port id="1">
					<dim>128</dim>
					<dim>1</dim>
					<dim>1</dim>
					<dim>1</dim>
				</port>
			</input>
			<output>
				<port id="2" precision="FP32">
					<dim>128</dim>
					<dim>128</dim>
					<dim>3</dim>
					<dim>3</dim>
				</port>
			</output>
		</layer>
		<layer id="322" name="Multiply_5865" type="Convolution" version="opset1">
			<data auto_pad="explicit" strides="1,1" dilations="1,1" pads_begin="1,1" pads_end="1,1"/>
			<input>
				<port id="0">
					<dim>1</dim>
					<dim>128</dim>
					<dim>28</dim>
					<dim>28</dim>
				</port>
				<port id="1">
					<dim>128</dim>
					<dim>128</dim>
					<dim>3</dim>
					<dim>3</dim>
				</port>
			</input>
			<output>
				<port id="2" precision="FP32">
					<dim>1</dim>
					<dim>128</dim>
					<dim>28</dim>
					<dim>28</dim>
				</port>
			</output>
		</layer>
		<layer id="323" name="Constant_58703557614" type="Const" version="opset1">
			<data offset="613214" size="256" shape="1,128,1,1" element_type="f16"/>
			<output>
				<port id="0" precision="FP16">
					<dim>1</dim>
					<dim>128</dim>
					<dim>1</dim>
					<dim>1</dim>
				</port>
			</output>
		</layer>
		<layer id="324" name="Constant_58703554199/restored_convert" type="Convert" version="opset1">
			<data destination_type="f32"/>
			<rt_info>
				<attribute name="decompression" version="0"/>
			</rt_info>
			<input>
				<port id="0">
					<dim>1</dim>
					<dim>128</dim>
					<dim>1</dim>
					<dim>1</dim>
				</port>
			</input>
			<output>
				<port id="1" precision="FP32">
					<dim>1</dim>
					<dim>128</dim>
					<dim>1</dim>
					<dim>1</dim>
				</port>
			</output>
		</layer>
		<layer id="325" name="283" type="Add" version="opset1">
			<data auto_broadcast="numpy"/>
			<input>
				<port id="0">
					<dim>1</dim>
					<dim>128</dim>
					<dim>28</dim>
					<dim>28</dim>
				</port>
				<port id="1">
					<dim>1</dim>
					<dim>128</dim>
					<dim>1</dim>
					<dim>1</dim>
				</port>
			</input>
			<output>
				<port id="2" precision="FP32" names="283">
					<dim>1</dim>
					<dim>128</dim>
					<dim>28</dim>
					<dim>28</dim>
				</port>
			</output>
		</layer>
		<layer id="326" name="284" type="ReLU" version="opset1">
			<input>
				<port id="0">
					<dim>1</dim>
					<dim>128</dim>
					<dim>28</dim>
					<dim>28</dim>
				</port>
			</input>
			<output>
				<port id="1" precision="FP32" names="284">
					<dim>1</dim>
					<dim>128</dim>
					<dim>28</dim>
					<dim>28</dim>
				</port>
			</output>
		</layer>
		<layer id="327" name="Multiply_5872/fq_input_0" type="FakeQuantize" version="opset1">
			<data levels="256" auto_broadcast="numpy"/>
			<input>
				<port id="0">
					<dim>1</dim>
					<dim>128</dim>
					<dim>28</dim>
					<dim>28</dim>
				</port>
				<port id="1"/>
				<port id="2"/>
				<port id="3"/>
				<port id="4"/>
			</input>
			<output>
				<port id="5" precision="FP32">
					<dim>1</dim>
					<dim>128</dim>
					<dim>28</dim>
					<dim>28</dim>
				</port>
			</output>
		</layer>
		<layer id="328" name="encoder_Multiply_5872/fq_weights_1/scale56678211" type="Const" version="opset1">
			<data offset="613470" size="512" shape="128,1,1,1" element_type="f32"/>
			<output>
				<port id="0" precision="FP32">
					<dim>128</dim>
					<dim>1</dim>
					<dim>1</dim>
					<dim>1</dim>
				</port>
			</output>
		</layer>
		<layer id="329" name="Multiply_61593594200/restored_convert/quantized56597848" type="Const" version="opset1">
			<data offset="613982" size="147456" shape="128,128,3,3" element_type="i8"/>
			<output>
				<port id="0" precision="I8">
					<dim>128</dim>
					<dim>128</dim>
					<dim>3</dim>
					<dim>3</dim>
				</port>
			</output>
		</layer>
		<layer id="330" name="Multiply_61593594200/restored_convert/quantized/to_f32" type="Convert" version="opset1">
			<data destination_type="f32"/>
			<input>
				<port id="0">
					<dim>128</dim>
					<dim>128</dim>
					<dim>3</dim>
					<dim>3</dim>
				</port>
			</input>
			<output>
				<port id="1" precision="FP32">
					<dim>128</dim>
					<dim>128</dim>
					<dim>3</dim>
					<dim>3</dim>
				</port>
			</output>
		</layer>
		<layer id="331" name="Multiply_5872/fq_weights_1/mulpiply_by_scale" type="Multiply" version="opset1">
			<data auto_broadcast="numpy"/>
			<input>
				<port id="0">
					<dim>128</dim>
					<dim>128</dim>
					<dim>3</dim>
					<dim>3</dim>
				</port>
				<port id="1">
					<dim>128</dim>
					<dim>1</dim>
					<dim>1</dim>
					<dim>1</dim>
				</port>
			</input>
			<output>
				<port id="2" precision="FP32">
					<dim>128</dim>
					<dim>128</dim>
					<dim>3</dim>
					<dim>3</dim>
				</port>
			</output>
		</layer>
		<layer id="332" name="Multiply_5872" type="Convolution" version="opset1">
			<data auto_pad="explicit" strides="1,1" dilations="1,1" pads_begin="1,1" pads_end="1,1"/>
			<input>
				<port id="0">
					<dim>1</dim>
					<dim>128</dim>
					<dim>28</dim>
					<dim>28</dim>
				</port>
				<port id="1">
					<dim>128</dim>
					<dim>128</dim>
					<dim>3</dim>
					<dim>3</dim>
				</port>
			</input>
			<output>
				<port id="2" precision="FP32">
					<dim>1</dim>
					<dim>128</dim>
					<dim>28</dim>
					<dim>28</dim>
				</port>
			</output>
		</layer>
		<layer id="333" name="Constant_58773627785" type="Const" version="opset1">
			<data offset="761438" size="256" shape="1,128,1,1" element_type="f16"/>
			<output>
				<port id="0" precision="FP16">
					<dim>1</dim>
					<dim>128</dim>
					<dim>1</dim>
					<dim>1</dim>
				</port>
			</output>
		</layer>
		<layer id="334" name="Constant_58773624201/restored_convert" type="Convert" version="opset1">
			<data destination_type="f32"/>
			<rt_info>
				<attribute name="decompression" version="0"/>
			</rt_info>
			<input>
				<port id="0">
					<dim>1</dim>
					<dim>128</dim>
					<dim>1</dim>
					<dim>1</dim>
				</port>
			</input>
			<output>
				<port id="1" precision="FP32">
					<dim>1</dim>
					<dim>128</dim>
					<dim>1</dim>
					<dim>1</dim>
				</port>
			</output>
		</layer>
		<layer id="335" name="286" type="Add" version="opset1">
			<data auto_broadcast="numpy"/>
			<input>
				<port id="0">
					<dim>1</dim>
					<dim>128</dim>
					<dim>28</dim>
					<dim>28</dim>
				</port>
				<port id="1">
					<dim>1</dim>
					<dim>128</dim>
					<dim>1</dim>
					<dim>1</dim>
				</port>
			</input>
			<output>
				<port id="2" precision="FP32" names="286">
					<dim>1</dim>
					<dim>128</dim>
					<dim>28</dim>
					<dim>28</dim>
				</port>
			</output>
		</layer>
		<layer id="336" name="287/fq_input_0" type="FakeQuantize" version="opset1">
			<data levels="256" auto_broadcast="numpy"/>
			<input>
				<port id="0">
					<dim>1</dim>
					<dim>128</dim>
					<dim>28</dim>
					<dim>28</dim>
				</port>
				<port id="1"/>
				<port id="2"/>
				<port id="3"/>
				<port id="4"/>
			</input>
			<output>
				<port id="5" precision="FP32">
					<dim>1</dim>
					<dim>128</dim>
					<dim>28</dim>
					<dim>28</dim>
				</port>
			</output>
		</layer>
		<layer id="337" name="287" type="Add" version="opset1">
			<data auto_broadcast="numpy"/>
			<input>
				<port id="0">
					<dim>1</dim>
					<dim>128</dim>
					<dim>28</dim>
					<dim>28</dim>
				</port>
				<port id="1">
					<dim>1</dim>
					<dim>128</dim>
					<dim>28</dim>
					<dim>28</dim>
				</port>
			</input>
			<output>
				<port id="2" precision="FP32" names="287">
					<dim>1</dim>
					<dim>128</dim>
					<dim>28</dim>
					<dim>28</dim>
				</port>
			</output>
		</layer>
		<layer id="338" name="288" type="ReLU" version="opset1">
			<input>
				<port id="0">
					<dim>1</dim>
					<dim>128</dim>
					<dim>28</dim>
					<dim>28</dim>
				</port>
			</input>
			<output>
				<port id="1" precision="FP32" names="288">
					<dim>1</dim>
					<dim>128</dim>
					<dim>28</dim>
					<dim>28</dim>
				</port>
			</output>
		</layer>
		<layer id="339" name="294/fq_input_1" type="FakeQuantize" version="opset1">
			<data levels="256" auto_broadcast="numpy"/>
			<input>
				<port id="0">
					<dim>1</dim>
					<dim>128</dim>
					<dim>28</dim>
					<dim>28</dim>
				</port>
				<port id="1"/>
				<port id="2"/>
				<port id="3"/>
				<port id="4"/>
			</input>
			<output>
				<port id="5" precision="FP32">
					<dim>1</dim>
					<dim>128</dim>
					<dim>28</dim>
					<dim>28</dim>
				</port>
			</output>
		</layer>
		<layer id="340" name="encoder_Multiply_5879/fq_weights_1/scale50377596" type="Const" version="opset1">
			<data offset="761694" size="512" shape="128,1,1,1" element_type="f32"/>
			<output>
				<port id="0" precision="FP32">
					<dim>128</dim>
					<dim>1</dim>
					<dim>1</dim>
					<dim>1</dim>
				</port>
			</output>
		</layer>
		<layer id="341" name="Multiply_61683674202/restored_convert/quantized50298229" type="Const" version="opset1">
			<data offset="762206" size="147456" shape="128,128,3,3" element_type="i8"/>
			<output>
				<port id="0" precision="I8">
					<dim>128</dim>
					<dim>128</dim>
					<dim>3</dim>
					<dim>3</dim>
				</port>
			</output>
		</layer>
		<layer id="342" name="Multiply_61683674202/restored_convert/quantized/to_f32" type="Convert" version="opset1">
			<data destination_type="f32"/>
			<input>
				<port id="0">
					<dim>128</dim>
					<dim>128</dim>
					<dim>3</dim>
					<dim>3</dim>
				</port>
			</input>
			<output>
				<port id="1" precision="FP32">
					<dim>128</dim>
					<dim>128</dim>
					<dim>3</dim>
					<dim>3</dim>
				</port>
			</output>
		</layer>
		<layer id="343" name="Multiply_5879/fq_weights_1/mulpiply_by_scale" type="Multiply" version="opset1">
			<data auto_broadcast="numpy"/>
			<input>
				<port id="0">
					<dim>128</dim>
					<dim>128</dim>
					<dim>3</dim>
					<dim>3</dim>
				</port>
				<port id="1">
					<dim>128</dim>
					<dim>1</dim>
					<dim>1</dim>
					<dim>1</dim>
				</port>
			</input>
			<output>
				<port id="2" precision="FP32">
					<dim>128</dim>
					<dim>128</dim>
					<dim>3</dim>
					<dim>3</dim>
				</port>
			</output>
		</layer>
		<layer id="344" name="Multiply_5879" type="Convolution" version="opset1">
			<data auto_pad="explicit" strides="1,1" dilations="1,1" pads_begin="1,1" pads_end="1,1"/>
			<input>
				<port id="0">
					<dim>1</dim>
					<dim>128</dim>
					<dim>28</dim>
					<dim>28</dim>
				</port>
				<port id="1">
					<dim>128</dim>
					<dim>128</dim>
					<dim>3</dim>
					<dim>3</dim>
				</port>
			</input>
			<output>
				<port id="2" precision="FP32">
					<dim>1</dim>
					<dim>128</dim>
					<dim>28</dim>
					<dim>28</dim>
				</port>
			</output>
		</layer>
		<layer id="345" name="Constant_58843707983" type="Const" version="opset1">
			<data offset="909662" size="256" shape="1,128,1,1" element_type="f16"/>
			<output>
				<port id="0" precision="FP16">
					<dim>1</dim>
					<dim>128</dim>
					<dim>1</dim>
					<dim>1</dim>
				</port>
			</output>
		</layer>
		<layer id="346" name="Constant_58843704203/restored_convert" type="Convert" version="opset1">
			<data destination_type="f32"/>
			<rt_info>
				<attribute name="decompression" version="0"/>
			</rt_info>
			<input>
				<port id="0">
					<dim>1</dim>
					<dim>128</dim>
					<dim>1</dim>
					<dim>1</dim>
				</port>
			</input>
			<output>
				<port id="1" precision="FP32">
					<dim>1</dim>
					<dim>128</dim>
					<dim>1</dim>
					<dim>1</dim>
				</port>
			</output>
		</layer>
		<layer id="347" name="290" type="Add" version="opset1">
			<data auto_broadcast="numpy"/>
			<input>
				<port id="0">
					<dim>1</dim>
					<dim>128</dim>
					<dim>28</dim>
					<dim>28</dim>
				</port>
				<port id="1">
					<dim>1</dim>
					<dim>128</dim>
					<dim>1</dim>
					<dim>1</dim>
				</port>
			</input>
			<output>
				<port id="2" precision="FP32" names="290">
					<dim>1</dim>
					<dim>128</dim>
					<dim>28</dim>
					<dim>28</dim>
				</port>
			</output>
		</layer>
		<layer id="348" name="291" type="ReLU" version="opset1">
			<input>
				<port id="0">
					<dim>1</dim>
					<dim>128</dim>
					<dim>28</dim>
					<dim>28</dim>
				</port>
			</input>
			<output>
				<port id="1" precision="FP32" names="291">
					<dim>1</dim>
					<dim>128</dim>
					<dim>28</dim>
					<dim>28</dim>
				</port>
			</output>
		</layer>
		<layer id="349" name="Multiply_5886/fq_input_0" type="FakeQuantize" version="opset1">
			<data levels="256" auto_broadcast="numpy"/>
			<input>
				<port id="0">
					<dim>1</dim>
					<dim>128</dim>
					<dim>28</dim>
					<dim>28</dim>
				</port>
				<port id="1"/>
				<port id="2"/>
				<port id="3"/>
				<port id="4"/>
			</input>
			<output>
				<port id="5" precision="FP32">
					<dim>1</dim>
					<dim>128</dim>
					<dim>28</dim>
					<dim>28</dim>
				</port>
			</output>
		</layer>
		<layer id="350" name="encoder_Multiply_5886/fq_weights_1/scale47978178" type="Const" version="opset1">
			<data offset="909918" size="512" shape="128,1,1,1" element_type="f32"/>
			<output>
				<port id="0" precision="FP32">
					<dim>128</dim>
					<dim>1</dim>
					<dim>1</dim>
					<dim>1</dim>
				</port>
			</output>
		</layer>
		<layer id="351" name="Multiply_61773744204/restored_convert/quantized47898322" type="Const" version="opset1">
			<data offset="910430" size="147456" shape="128,128,3,3" element_type="i8"/>
			<output>
				<port id="0" precision="I8">
					<dim>128</dim>
					<dim>128</dim>
					<dim>3</dim>
					<dim>3</dim>
				</port>
			</output>
		</layer>
		<layer id="352" name="Multiply_61773744204/restored_convert/quantized/to_f32" type="Convert" version="opset1">
			<data destination_type="f32"/>
			<input>
				<port id="0">
					<dim>128</dim>
					<dim>128</dim>
					<dim>3</dim>
					<dim>3</dim>
				</port>
			</input>
			<output>
				<port id="1" precision="FP32">
					<dim>128</dim>
					<dim>128</dim>
					<dim>3</dim>
					<dim>3</dim>
				</port>
			</output>
		</layer>
		<layer id="353" name="Multiply_5886/fq_weights_1/mulpiply_by_scale" type="Multiply" version="opset1">
			<data auto_broadcast="numpy"/>
			<input>
				<port id="0">
					<dim>128</dim>
					<dim>128</dim>
					<dim>3</dim>
					<dim>3</dim>
				</port>
				<port id="1">
					<dim>128</dim>
					<dim>1</dim>
					<dim>1</dim>
					<dim>1</dim>
				</port>
			</input>
			<output>
				<port id="2" precision="FP32">
					<dim>128</dim>
					<dim>128</dim>
					<dim>3</dim>
					<dim>3</dim>
				</port>
			</output>
		</layer>
		<layer id="354" name="Multiply_5886" type="Convolution" version="opset1">
			<data auto_pad="explicit" strides="1,1" dilations="1,1" pads_begin="1,1" pads_end="1,1"/>
			<input>
				<port id="0">
					<dim>1</dim>
					<dim>128</dim>
					<dim>28</dim>
					<dim>28</dim>
				</port>
				<port id="1">
					<dim>128</dim>
					<dim>128</dim>
					<dim>3</dim>
					<dim>3</dim>
				</port>
			</input>
			<output>
				<port id="2" precision="FP32">
					<dim>1</dim>
					<dim>128</dim>
					<dim>28</dim>
					<dim>28</dim>
				</port>
			</output>
		</layer>
		<layer id="355" name="Constant_58913778181" type="Const" version="opset1">
			<data offset="1057886" size="256" shape="1,128,1,1" element_type="f16"/>
			<output>
				<port id="0" precision="FP16">
					<dim>1</dim>
					<dim>128</dim>
					<dim>1</dim>
					<dim>1</dim>
				</port>
			</output>
		</layer>
		<layer id="356" name="Constant_58913774205/restored_convert" type="Convert" version="opset1">
			<data destination_type="f32"/>
			<rt_info>
				<attribute name="decompression" version="0"/>
			</rt_info>
			<input>
				<port id="0">
					<dim>1</dim>
					<dim>128</dim>
					<dim>1</dim>
					<dim>1</dim>
				</port>
			</input>
			<output>
				<port id="1" precision="FP32">
					<dim>1</dim>
					<dim>128</dim>
					<dim>1</dim>
					<dim>1</dim>
				</port>
			</output>
		</layer>
		<layer id="357" name="293" type="Add" version="opset1">
			<data auto_broadcast="numpy"/>
			<input>
				<port id="0">
					<dim>1</dim>
					<dim>128</dim>
					<dim>28</dim>
					<dim>28</dim>
				</port>
				<port id="1">
					<dim>1</dim>
					<dim>128</dim>
					<dim>1</dim>
					<dim>1</dim>
				</port>
			</input>
			<output>
				<port id="2" precision="FP32" names="293">
					<dim>1</dim>
					<dim>128</dim>
					<dim>28</dim>
					<dim>28</dim>
				</port>
			</output>
		</layer>
		<layer id="358" name="294/fq_input_0" type="FakeQuantize" version="opset1">
			<data levels="256" auto_broadcast="numpy"/>
			<input>
				<port id="0">
					<dim>1</dim>
					<dim>128</dim>
					<dim>28</dim>
					<dim>28</dim>
				</port>
				<port id="1"/>
				<port id="2"/>
				<port id="3"/>
				<port id="4"/>
			</input>
			<output>
				<port id="5" precision="FP32">
					<dim>1</dim>
					<dim>128</dim>
					<dim>28</dim>
					<dim>28</dim>
				</port>
			</output>
		</layer>
		<layer id="359" name="294" type="Add" version="opset1">
			<data auto_broadcast="numpy"/>
			<input>
				<port id="0">
					<dim>1</dim>
					<dim>128</dim>
					<dim>28</dim>
					<dim>28</dim>
				</port>
				<port id="1">
					<dim>1</dim>
					<dim>128</dim>
					<dim>28</dim>
					<dim>28</dim>
				</port>
			</input>
			<output>
				<port id="2" precision="FP32" names="294">
					<dim>1</dim>
					<dim>128</dim>
					<dim>28</dim>
					<dim>28</dim>
				</port>
			</output>
		</layer>
		<layer id="360" name="295" type="ReLU" version="opset1">
			<input>
				<port id="0">
					<dim>1</dim>
					<dim>128</dim>
					<dim>28</dim>
					<dim>28</dim>
				</port>
			</input>
			<output>
				<port id="1" precision="FP32" names="295">
					<dim>1</dim>
					<dim>128</dim>
					<dim>28</dim>
					<dim>28</dim>
				</port>
			</output>
		</layer>
		<layer id="361" name="301/fq_input_1" type="FakeQuantize" version="opset1">
			<data levels="256" auto_broadcast="numpy"/>
			<input>
				<port id="0">
					<dim>1</dim>
					<dim>128</dim>
					<dim>28</dim>
					<dim>28</dim>
				</port>
				<port id="1"/>
				<port id="2"/>
				<port id="3"/>
				<port id="4"/>
			</input>
			<output>
				<port id="5" precision="FP32">
					<dim>1</dim>
					<dim>128</dim>
					<dim>28</dim>
					<dim>28</dim>
				</port>
			</output>
		</layer>
		<layer id="362" name="encoder_Multiply_5893/fq_weights_1/scale51277950" type="Const" version="opset1">
			<data offset="1058142" size="512" shape="128,1,1,1" element_type="f32"/>
			<output>
				<port id="0" precision="FP32">
					<dim>128</dim>
					<dim>1</dim>
					<dim>1</dim>
					<dim>1</dim>
				</port>
			</output>
		</layer>
		<layer id="363" name="Multiply_61863824206/restored_convert/quantized51197932" type="Const" version="opset1">
			<data offset="1058654" size="147456" shape="128,128,3,3" element_type="i8"/>
			<output>
				<port id="0" precision="I8">
					<dim>128</dim>
					<dim>128</dim>
					<dim>3</dim>
					<dim>3</dim>
				</port>
			</output>
		</layer>
		<layer id="364" name="Multiply_61863824206/restored_convert/quantized/to_f32" type="Convert" version="opset1">
			<data destination_type="f32"/>
			<input>
				<port id="0">
					<dim>128</dim>
					<dim>128</dim>
					<dim>3</dim>
					<dim>3</dim>
				</port>
			</input>
			<output>
				<port id="1" precision="FP32">
					<dim>128</dim>
					<dim>128</dim>
					<dim>3</dim>
					<dim>3</dim>
				</port>
			</output>
		</layer>
		<layer id="365" name="Multiply_5893/fq_weights_1/mulpiply_by_scale" type="Multiply" version="opset1">
			<data auto_broadcast="numpy"/>
			<input>
				<port id="0">
					<dim>128</dim>
					<dim>128</dim>
					<dim>3</dim>
					<dim>3</dim>
				</port>
				<port id="1">
					<dim>128</dim>
					<dim>1</dim>
					<dim>1</dim>
					<dim>1</dim>
				</port>
			</input>
			<output>
				<port id="2" precision="FP32">
					<dim>128</dim>
					<dim>128</dim>
					<dim>3</dim>
					<dim>3</dim>
				</port>
			</output>
		</layer>
		<layer id="366" name="Multiply_5893" type="Convolution" version="opset1">
			<data auto_pad="explicit" strides="1,1" dilations="1,1" pads_begin="1,1" pads_end="1,1"/>
			<input>
				<port id="0">
					<dim>1</dim>
					<dim>128</dim>
					<dim>28</dim>
					<dim>28</dim>
				</port>
				<port id="1">
					<dim>128</dim>
					<dim>128</dim>
					<dim>3</dim>
					<dim>3</dim>
				</port>
			</input>
			<output>
				<port id="2" precision="FP32">
					<dim>1</dim>
					<dim>128</dim>
					<dim>28</dim>
					<dim>28</dim>
				</port>
			</output>
		</layer>
		<layer id="367" name="Constant_58983857593" type="Const" version="opset1">
			<data offset="1206110" size="256" shape="1,128,1,1" element_type="f16"/>
			<output>
				<port id="0" precision="FP16">
					<dim>1</dim>
					<dim>128</dim>
					<dim>1</dim>
					<dim>1</dim>
				</port>
			</output>
		</layer>
		<layer id="368" name="Constant_58983854207/restored_convert" type="Convert" version="opset1">
			<data destination_type="f32"/>
			<rt_info>
				<attribute name="decompression" version="0"/>
			</rt_info>
			<input>
				<port id="0">
					<dim>1</dim>
					<dim>128</dim>
					<dim>1</dim>
					<dim>1</dim>
				</port>
			</input>
			<output>
				<port id="1" precision="FP32">
					<dim>1</dim>
					<dim>128</dim>
					<dim>1</dim>
					<dim>1</dim>
				</port>
			</output>
		</layer>
		<layer id="369" name="297" type="Add" version="opset1">
			<data auto_broadcast="numpy"/>
			<input>
				<port id="0">
					<dim>1</dim>
					<dim>128</dim>
					<dim>28</dim>
					<dim>28</dim>
				</port>
				<port id="1">
					<dim>1</dim>
					<dim>128</dim>
					<dim>1</dim>
					<dim>1</dim>
				</port>
			</input>
			<output>
				<port id="2" precision="FP32" names="297">
					<dim>1</dim>
					<dim>128</dim>
					<dim>28</dim>
					<dim>28</dim>
				</port>
			</output>
		</layer>
		<layer id="370" name="298" type="ReLU" version="opset1">
			<input>
				<port id="0">
					<dim>1</dim>
					<dim>128</dim>
					<dim>28</dim>
					<dim>28</dim>
				</port>
			</input>
			<output>
				<port id="1" precision="FP32" names="298">
					<dim>1</dim>
					<dim>128</dim>
					<dim>28</dim>
					<dim>28</dim>
				</port>
			</output>
		</layer>
		<layer id="371" name="Multiply_5900/fq_input_0" type="FakeQuantize" version="opset1">
			<data levels="256" auto_broadcast="numpy"/>
			<input>
				<port id="0">
					<dim>1</dim>
					<dim>128</dim>
					<dim>28</dim>
					<dim>28</dim>
				</port>
				<port id="1"/>
				<port id="2"/>
				<port id="3"/>
				<port id="4"/>
			</input>
			<output>
				<port id="5" precision="FP32">
					<dim>1</dim>
					<dim>128</dim>
					<dim>28</dim>
					<dim>28</dim>
				</port>
			</output>
		</layer>
		<layer id="372" name="encoder_Multiply_5900/fq_weights_1/scale57277650" type="Const" version="opset1">
			<data offset="1206366" size="512" shape="128,1,1,1" element_type="f32"/>
			<output>
				<port id="0" precision="FP32">
					<dim>128</dim>
					<dim>1</dim>
					<dim>1</dim>
					<dim>1</dim>
				</port>
			</output>
		</layer>
		<layer id="373" name="Multiply_61953894208/restored_convert/quantized57198103" type="Const" version="opset1">
			<data offset="1206878" size="147456" shape="128,128,3,3" element_type="i8"/>
			<output>
				<port id="0" precision="I8">
					<dim>128</dim>
					<dim>128</dim>
					<dim>3</dim>
					<dim>3</dim>
				</port>
			</output>
		</layer>
		<layer id="374" name="Multiply_61953894208/restored_convert/quantized/to_f32" type="Convert" version="opset1">
			<data destination_type="f32"/>
			<input>
				<port id="0">
					<dim>128</dim>
					<dim>128</dim>
					<dim>3</dim>
					<dim>3</dim>
				</port>
			</input>
			<output>
				<port id="1" precision="FP32">
					<dim>128</dim>
					<dim>128</dim>
					<dim>3</dim>
					<dim>3</dim>
				</port>
			</output>
		</layer>
		<layer id="375" name="Multiply_5900/fq_weights_1/mulpiply_by_scale" type="Multiply" version="opset1">
			<data auto_broadcast="numpy"/>
			<input>
				<port id="0">
					<dim>128</dim>
					<dim>128</dim>
					<dim>3</dim>
					<dim>3</dim>
				</port>
				<port id="1">
					<dim>128</dim>
					<dim>1</dim>
					<dim>1</dim>
					<dim>1</dim>
				</port>
			</input>
			<output>
				<port id="2" precision="FP32">
					<dim>128</dim>
					<dim>128</dim>
					<dim>3</dim>
					<dim>3</dim>
				</port>
			</output>
		</layer>
		<layer id="376" name="Multiply_5900" type="Convolution" version="opset1">
			<data auto_pad="explicit" strides="1,1" dilations="1,1" pads_begin="1,1" pads_end="1,1"/>
			<input>
				<port id="0">
					<dim>1</dim>
					<dim>128</dim>
					<dim>28</dim>
					<dim>28</dim>
				</port>
				<port id="1">
					<dim>128</dim>
					<dim>128</dim>
					<dim>3</dim>
					<dim>3</dim>
				</port>
			</input>
			<output>
				<port id="2" precision="FP32">
					<dim>1</dim>
					<dim>128</dim>
					<dim>28</dim>
					<dim>28</dim>
				</port>
			</output>
		</layer>
		<layer id="377" name="Constant_59053927824" type="Const" version="opset1">
			<data offset="1354334" size="256" shape="1,128,1,1" element_type="f16"/>
			<output>
				<port id="0" precision="FP16">
					<dim>1</dim>
					<dim>128</dim>
					<dim>1</dim>
					<dim>1</dim>
				</port>
			</output>
		</layer>
		<layer id="378" name="Constant_59053924209/restored_convert" type="Convert" version="opset1">
			<data destination_type="f32"/>
			<rt_info>
				<attribute name="decompression" version="0"/>
			</rt_info>
			<input>
				<port id="0">
					<dim>1</dim>
					<dim>128</dim>
					<dim>1</dim>
					<dim>1</dim>
				</port>
			</input>
			<output>
				<port id="1" precision="FP32">
					<dim>1</dim>
					<dim>128</dim>
					<dim>1</dim>
					<dim>1</dim>
				</port>
			</output>
		</layer>
		<layer id="379" name="300" type="Add" version="opset1">
			<data auto_broadcast="numpy"/>
			<input>
				<port id="0">
					<dim>1</dim>
					<dim>128</dim>
					<dim>28</dim>
					<dim>28</dim>
				</port>
				<port id="1">
					<dim>1</dim>
					<dim>128</dim>
					<dim>1</dim>
					<dim>1</dim>
				</port>
			</input>
			<output>
				<port id="2" precision="FP32" names="300">
					<dim>1</dim>
					<dim>128</dim>
					<dim>28</dim>
					<dim>28</dim>
				</port>
			</output>
		</layer>
		<layer id="380" name="301/fq_input_0" type="FakeQuantize" version="opset1">
			<data levels="256" auto_broadcast="numpy"/>
			<input>
				<port id="0">
					<dim>1</dim>
					<dim>128</dim>
					<dim>28</dim>
					<dim>28</dim>
				</port>
				<port id="1"/>
				<port id="2"/>
				<port id="3"/>
				<port id="4"/>
			</input>
			<output>
				<port id="5" precision="FP32">
					<dim>1</dim>
					<dim>128</dim>
					<dim>28</dim>
					<dim>28</dim>
				</port>
			</output>
		</layer>
		<layer id="381" name="301" type="Add" version="opset1">
			<data auto_broadcast="numpy"/>
			<input>
				<port id="0">
					<dim>1</dim>
					<dim>128</dim>
					<dim>28</dim>
					<dim>28</dim>
				</port>
				<port id="1">
					<dim>1</dim>
					<dim>128</dim>
					<dim>28</dim>
					<dim>28</dim>
				</port>
			</input>
			<output>
				<port id="2" precision="FP32" names="301">
					<dim>1</dim>
					<dim>128</dim>
					<dim>28</dim>
					<dim>28</dim>
				</port>
			</output>
		</layer>
		<layer id="382" name="302" type="ReLU" version="opset1">
			<input>
				<port id="0">
					<dim>1</dim>
					<dim>128</dim>
					<dim>28</dim>
					<dim>28</dim>
				</port>
			</input>
			<output>
				<port id="1" precision="FP32" names="302">
					<dim>1</dim>
					<dim>128</dim>
					<dim>28</dim>
					<dim>28</dim>
				</port>
			</output>
		</layer>
		<layer id="383" name="Multiply_5907/fq_input_0" type="FakeQuantize" version="opset1">
			<data levels="256" auto_broadcast="numpy"/>
			<input>
				<port id="0">
					<dim>1</dim>
					<dim>128</dim>
					<dim>28</dim>
					<dim>28</dim>
				</port>
				<port id="1"/>
				<port id="2"/>
				<port id="3"/>
				<port id="4"/>
			</input>
			<output>
				<port id="5" precision="FP32">
					<dim>1</dim>
					<dim>128</dim>
					<dim>28</dim>
					<dim>28</dim>
				</port>
			</output>
		</layer>
		<layer id="384" name="encoder_Multiply_5907/fq_weights_1/scale52777734" type="Const" version="opset1">
			<data offset="1354590" size="1024" shape="256,1,1,1" element_type="f32"/>
			<output>
				<port id="0" precision="FP32">
					<dim>256</dim>
					<dim>1</dim>
					<dim>1</dim>
					<dim>1</dim>
				</port>
			</output>
		</layer>
		<layer id="385" name="Multiply_62043974210/restored_convert/quantized52698373" type="Const" version="opset1">
			<data offset="1355614" size="294912" shape="256,128,3,3" element_type="i8"/>
			<output>
				<port id="0" precision="I8">
					<dim>256</dim>
					<dim>128</dim>
					<dim>3</dim>
					<dim>3</dim>
				</port>
			</output>
		</layer>
		<layer id="386" name="Multiply_62043974210/restored_convert/quantized/to_f32" type="Convert" version="opset1">
			<data destination_type="f32"/>
			<input>
				<port id="0">
					<dim>256</dim>
					<dim>128</dim>
					<dim>3</dim>
					<dim>3</dim>
				</port>
			</input>
			<output>
				<port id="1" precision="FP32">
					<dim>256</dim>
					<dim>128</dim>
					<dim>3</dim>
					<dim>3</dim>
				</port>
			</output>
		</layer>
		<layer id="387" name="Multiply_5907/fq_weights_1/mulpiply_by_scale" type="Multiply" version="opset1">
			<data auto_broadcast="numpy"/>
			<input>
				<port id="0">
					<dim>256</dim>
					<dim>128</dim>
					<dim>3</dim>
					<dim>3</dim>
				</port>
				<port id="1">
					<dim>256</dim>
					<dim>1</dim>
					<dim>1</dim>
					<dim>1</dim>
				</port>
			</input>
			<output>
				<port id="2" precision="FP32">
					<dim>256</dim>
					<dim>128</dim>
					<dim>3</dim>
					<dim>3</dim>
				</port>
			</output>
		</layer>
		<layer id="388" name="Multiply_5907" type="Convolution" version="opset1">
			<data auto_pad="explicit" strides="2,2" dilations="1,1" pads_begin="1,1" pads_end="1,1"/>
			<input>
				<port id="0">
					<dim>1</dim>
					<dim>128</dim>
					<dim>28</dim>
					<dim>28</dim>
				</port>
				<port id="1">
					<dim>256</dim>
					<dim>128</dim>
					<dim>3</dim>
					<dim>3</dim>
				</port>
			</input>
			<output>
				<port id="2" precision="FP32">
					<dim>1</dim>
					<dim>256</dim>
					<dim>14</dim>
					<dim>14</dim>
				</port>
			</output>
		</layer>
		<layer id="389" name="Constant_59124008427" type="Const" version="opset1">
			<data offset="1650526" size="512" shape="1,256,1,1" element_type="f16"/>
			<output>
				<port id="0" precision="FP16">
					<dim>1</dim>
					<dim>256</dim>
					<dim>1</dim>
					<dim>1</dim>
				</port>
			</output>
		</layer>
		<layer id="390" name="Constant_59124004211/restored_convert" type="Convert" version="opset1">
			<data destination_type="f32"/>
			<rt_info>
				<attribute name="decompression" version="0"/>
			</rt_info>
			<input>
				<port id="0">
					<dim>1</dim>
					<dim>256</dim>
					<dim>1</dim>
					<dim>1</dim>
				</port>
			</input>
			<output>
				<port id="1" precision="FP32">
					<dim>1</dim>
					<dim>256</dim>
					<dim>1</dim>
					<dim>1</dim>
				</port>
			</output>
		</layer>
		<layer id="391" name="304" type="Add" version="opset1">
			<data auto_broadcast="numpy"/>
			<input>
				<port id="0">
					<dim>1</dim>
					<dim>256</dim>
					<dim>14</dim>
					<dim>14</dim>
				</port>
				<port id="1">
					<dim>1</dim>
					<dim>256</dim>
					<dim>1</dim>
					<dim>1</dim>
				</port>
			</input>
			<output>
				<port id="2" precision="FP32" names="304">
					<dim>1</dim>
					<dim>256</dim>
					<dim>14</dim>
					<dim>14</dim>
				</port>
			</output>
		</layer>
		<layer id="392" name="305" type="ReLU" version="opset1">
			<input>
				<port id="0">
					<dim>1</dim>
					<dim>256</dim>
					<dim>14</dim>
					<dim>14</dim>
				</port>
			</input>
			<output>
				<port id="1" precision="FP32" names="305">
					<dim>1</dim>
					<dim>256</dim>
					<dim>14</dim>
					<dim>14</dim>
				</port>
			</output>
		</layer>
		<layer id="393" name="Multiply_5914/fq_input_0" type="FakeQuantize" version="opset1">
			<data levels="256" auto_broadcast="numpy"/>
			<input>
				<port id="0">
					<dim>1</dim>
					<dim>256</dim>
					<dim>14</dim>
					<dim>14</dim>
				</port>
				<port id="1"/>
				<port id="2"/>
				<port id="3"/>
				<port id="4"/>
			</input>
			<output>
				<port id="5" precision="FP32">
					<dim>1</dim>
					<dim>256</dim>
					<dim>14</dim>
					<dim>14</dim>
				</port>
			</output>
		</layer>
		<layer id="394" name="encoder_Multiply_5914/fq_weights_1/scale53077554" type="Const" version="opset1">
			<data offset="1651038" size="1024" shape="256,1,1,1" element_type="f32"/>
			<output>
				<port id="0" precision="FP32">
					<dim>256</dim>
					<dim>1</dim>
					<dim>1</dim>
					<dim>1</dim>
				</port>
			</output>
		</layer>
		<layer id="395" name="Multiply_62134044212/restored_convert/quantized52998058" type="Const" version="opset1">
			<data offset="1652062" size="589824" shape="256,256,3,3" element_type="i8"/>
			<output>
				<port id="0" precision="I8">
					<dim>256</dim>
					<dim>256</dim>
					<dim>3</dim>
					<dim>3</dim>
				</port>
			</output>
		</layer>
		<layer id="396" name="Multiply_62134044212/restored_convert/quantized/to_f32" type="Convert" version="opset1">
			<data destination_type="f32"/>
			<input>
				<port id="0">
					<dim>256</dim>
					<dim>256</dim>
					<dim>3</dim>
					<dim>3</dim>
				</port>
			</input>
			<output>
				<port id="1" precision="FP32">
					<dim>256</dim>
					<dim>256</dim>
					<dim>3</dim>
					<dim>3</dim>
				</port>
			</output>
		</layer>
		<layer id="397" name="Multiply_5914/fq_weights_1/mulpiply_by_scale" type="Multiply" version="opset1">
			<data auto_broadcast="numpy"/>
			<input>
				<port id="0">
					<dim>256</dim>
					<dim>256</dim>
					<dim>3</dim>
					<dim>3</dim>
				</port>
				<port id="1">
					<dim>256</dim>
					<dim>1</dim>
					<dim>1</dim>
					<dim>1</dim>
				</port>
			</input>
			<output>
				<port id="2" precision="FP32">
					<dim>256</dim>
					<dim>256</dim>
					<dim>3</dim>
					<dim>3</dim>
				</port>
			</output>
		</layer>
		<layer id="398" name="Multiply_5914" type="Convolution" version="opset1">
			<data auto_pad="explicit" strides="1,1" dilations="1,1" pads_begin="1,1" pads_end="1,1"/>
			<input>
				<port id="0">
					<dim>1</dim>
					<dim>256</dim>
					<dim>14</dim>
					<dim>14</dim>
				</port>
				<port id="1">
					<dim>256</dim>
					<dim>256</dim>
					<dim>3</dim>
					<dim>3</dim>
				</port>
			</input>
			<output>
				<port id="2" precision="FP32">
					<dim>1</dim>
					<dim>256</dim>
					<dim>14</dim>
					<dim>14</dim>
				</port>
			</output>
		</layer>
		<layer id="399" name="Constant_59194078094" type="Const" version="opset1">
			<data offset="2241886" size="512" shape="1,256,1,1" element_type="f16"/>
			<output>
				<port id="0" precision="FP16">
					<dim>1</dim>
					<dim>256</dim>
					<dim>1</dim>
					<dim>1</dim>
				</port>
			</output>
		</layer>
		<layer id="400" name="Constant_59194074213/restored_convert" type="Convert" version="opset1">
			<data destination_type="f32"/>
			<rt_info>
				<attribute name="decompression" version="0"/>
			</rt_info>
			<input>
				<port id="0">
					<dim>1</dim>
					<dim>256</dim>
					<dim>1</dim>
					<dim>1</dim>
				</port>
			</input>
			<output>
				<port id="1" precision="FP32">
					<dim>1</dim>
					<dim>256</dim>
					<dim>1</dim>
					<dim>1</dim>
				</port>
			</output>
		</layer>
		<layer id="401" name="307" type="Add" version="opset1">
			<data auto_broadcast="numpy"/>
			<input>
				<port id="0">
					<dim>1</dim>
					<dim>256</dim>
					<dim>14</dim>
					<dim>14</dim>
				</port>
				<port id="1">
					<dim>1</dim>
					<dim>256</dim>
					<dim>1</dim>
					<dim>1</dim>
				</port>
			</input>
			<output>
				<port id="2" precision="FP32" names="307">
					<dim>1</dim>
					<dim>256</dim>
					<dim>14</dim>
					<dim>14</dim>
				</port>
			</output>
		</layer>
		<layer id="402" name="310/fq_input_0" type="FakeQuantize" version="opset1">
			<data levels="256" auto_broadcast="numpy"/>
			<input>
				<port id="0">
					<dim>1</dim>
					<dim>256</dim>
					<dim>14</dim>
					<dim>14</dim>
				</port>
				<port id="1"/>
				<port id="2"/>
				<port id="3"/>
				<port id="4"/>
			</input>
			<output>
				<port id="5" precision="FP32">
					<dim>1</dim>
					<dim>256</dim>
					<dim>14</dim>
					<dim>14</dim>
				</port>
			</output>
		</layer>
		<layer id="403" name="104910537968" type="Const" version="opset1">
			<data offset="2242398" size="4" shape="" element_type="f32"/>
			<output>
				<port id="0" precision="FP32"/>
			</output>
		</layer>
		<layer id="404" name="105010548076" type="Const" version="opset1">
			<data offset="2242402" size="4" shape="" element_type="f32"/>
			<output>
				<port id="0" precision="FP32"/>
			</output>
		</layer>
		<layer id="405" name="105110558022" type="Const" version="opset1">
			<data offset="2242398" size="4" shape="" element_type="f32"/>
			<output>
				<port id="0" precision="FP32"/>
			</output>
		</layer>
		<layer id="406" name="105210567767" type="Const" version="opset1">
			<data offset="2242402" size="4" shape="" element_type="f32"/>
			<output>
				<port id="0" precision="FP32"/>
			</output>
		</layer>
		<layer id="407" name="encoder_Multiply_5921/fq_weights_1/scale50077773" type="Const" version="opset1">
			<data offset="2242406" size="1024" shape="256,1,1,1" element_type="f32"/>
			<output>
				<port id="0" precision="FP32">
					<dim>256</dim>
					<dim>1</dim>
					<dim>1</dim>
					<dim>1</dim>
				</port>
			</output>
		</layer>
		<layer id="408" name="Multiply_62224104214/restored_convert/quantized49998355" type="Const" version="opset1">
			<data offset="2243430" size="32768" shape="256,128,1,1" element_type="i8"/>
			<output>
				<port id="0" precision="I8">
					<dim>256</dim>
					<dim>128</dim>
					<dim>1</dim>
					<dim>1</dim>
				</port>
			</output>
		</layer>
		<layer id="409" name="Multiply_62224104214/restored_convert/quantized/to_f32" type="Convert" version="opset1">
			<data destination_type="f32"/>
			<input>
				<port id="0">
					<dim>256</dim>
					<dim>128</dim>
					<dim>1</dim>
					<dim>1</dim>
				</port>
			</input>
			<output>
				<port id="1" precision="FP32">
					<dim>256</dim>
					<dim>128</dim>
					<dim>1</dim>
					<dim>1</dim>
				</port>
			</output>
		</layer>
		<layer id="410" name="Multiply_5921/fq_weights_1/mulpiply_by_scale" type="Multiply" version="opset1">
			<data auto_broadcast="numpy"/>
			<input>
				<port id="0">
					<dim>256</dim>
					<dim>128</dim>
					<dim>1</dim>
					<dim>1</dim>
				</port>
				<port id="1">
					<dim>256</dim>
					<dim>1</dim>
					<dim>1</dim>
					<dim>1</dim>
				</port>
			</input>
			<output>
				<port id="2" precision="FP32">
					<dim>256</dim>
					<dim>128</dim>
					<dim>1</dim>
					<dim>1</dim>
				</port>
			</output>
		</layer>
		<layer id="411" name="Multiply_5921" type="Convolution" version="opset1">
			<data auto_pad="explicit" strides="2,2" dilations="1,1" pads_begin="0,0" pads_end="0,0"/>
			<input>
				<port id="0">
					<dim>1</dim>
					<dim>128</dim>
					<dim>28</dim>
					<dim>28</dim>
				</port>
				<port id="1">
					<dim>256</dim>
					<dim>128</dim>
					<dim>1</dim>
					<dim>1</dim>
				</port>
			</input>
			<output>
				<port id="2" precision="FP32">
					<dim>1</dim>
					<dim>256</dim>
					<dim>14</dim>
					<dim>14</dim>
				</port>
			</output>
		</layer>
		<layer id="412" name="Constant_59264137665" type="Const" version="opset1">
			<data offset="2276198" size="512" shape="1,256,1,1" element_type="f16"/>
			<output>
				<port id="0" precision="FP16">
					<dim>1</dim>
					<dim>256</dim>
					<dim>1</dim>
					<dim>1</dim>
				</port>
			</output>
		</layer>
		<layer id="413" name="Constant_59264134215/restored_convert" type="Convert" version="opset1">
			<data destination_type="f32"/>
			<rt_info>
				<attribute name="decompression" version="0"/>
			</rt_info>
			<input>
				<port id="0">
					<dim>1</dim>
					<dim>256</dim>
					<dim>1</dim>
					<dim>1</dim>
				</port>
			</input>
			<output>
				<port id="1" precision="FP32">
					<dim>1</dim>
					<dim>256</dim>
					<dim>1</dim>
					<dim>1</dim>
				</port>
			</output>
		</layer>
		<layer id="414" name="309" type="Add" version="opset1">
			<data auto_broadcast="numpy"/>
			<input>
				<port id="0">
					<dim>1</dim>
					<dim>256</dim>
					<dim>14</dim>
					<dim>14</dim>
				</port>
				<port id="1">
					<dim>1</dim>
					<dim>256</dim>
					<dim>1</dim>
					<dim>1</dim>
				</port>
			</input>
			<output>
				<port id="2" precision="FP32" names="309">
					<dim>1</dim>
					<dim>256</dim>
					<dim>14</dim>
					<dim>14</dim>
				</port>
			</output>
		</layer>
		<layer id="415" name="310/fq_input_1" type="FakeQuantize" version="opset1">
			<data levels="256" auto_broadcast="numpy"/>
			<input>
				<port id="0">
					<dim>1</dim>
					<dim>256</dim>
					<dim>14</dim>
					<dim>14</dim>
				</port>
				<port id="1"/>
				<port id="2"/>
				<port id="3"/>
				<port id="4"/>
			</input>
			<output>
				<port id="5" precision="FP32">
					<dim>1</dim>
					<dim>256</dim>
					<dim>14</dim>
					<dim>14</dim>
				</port>
			</output>
		</layer>
		<layer id="416" name="310" type="Add" version="opset1">
			<data auto_broadcast="numpy"/>
			<input>
				<port id="0">
					<dim>1</dim>
					<dim>256</dim>
					<dim>14</dim>
					<dim>14</dim>
				</port>
				<port id="1">
					<dim>1</dim>
					<dim>256</dim>
					<dim>14</dim>
					<dim>14</dim>
				</port>
			</input>
			<output>
				<port id="2" precision="FP32" names="310">
					<dim>1</dim>
					<dim>256</dim>
					<dim>14</dim>
					<dim>14</dim>
				</port>
			</output>
		</layer>
		<layer id="417" name="311" type="ReLU" version="opset1">
			<input>
				<port id="0">
					<dim>1</dim>
					<dim>256</dim>
					<dim>14</dim>
					<dim>14</dim>
				</port>
			</input>
			<output>
				<port id="1" precision="FP32" names="311">
					<dim>1</dim>
					<dim>256</dim>
					<dim>14</dim>
					<dim>14</dim>
				</port>
			</output>
		</layer>
		<layer id="418" name="317/fq_input_1" type="FakeQuantize" version="opset1">
			<data levels="256" auto_broadcast="numpy"/>
			<input>
				<port id="0">
					<dim>1</dim>
					<dim>256</dim>
					<dim>14</dim>
					<dim>14</dim>
				</port>
				<port id="1"/>
				<port id="2"/>
				<port id="3"/>
				<port id="4"/>
			</input>
			<output>
				<port id="5" precision="FP32">
					<dim>1</dim>
					<dim>256</dim>
					<dim>14</dim>
					<dim>14</dim>
				</port>
			</output>
		</layer>
		<layer id="419" name="encoder_Multiply_5928/fq_weights_1/scale49178289" type="Const" version="opset1">
			<data offset="2276710" size="1024" shape="256,1,1,1" element_type="f32"/>
			<output>
				<port id="0" precision="FP32">
					<dim>256</dim>
					<dim>1</dim>
					<dim>1</dim>
					<dim>1</dim>
				</port>
			</output>
		</layer>
		<layer id="420" name="Multiply_62314184216/restored_convert/quantized49098019" type="Const" version="opset1">
			<data offset="2277734" size="589824" shape="256,256,3,3" element_type="i8"/>
			<output>
				<port id="0" precision="I8">
					<dim>256</dim>
					<dim>256</dim>
					<dim>3</dim>
					<dim>3</dim>
				</port>
			</output>
		</layer>
		<layer id="421" name="Multiply_62314184216/restored_convert/quantized/to_f32" type="Convert" version="opset1">
			<data destination_type="f32"/>
			<input>
				<port id="0">
					<dim>256</dim>
					<dim>256</dim>
					<dim>3</dim>
					<dim>3</dim>
				</port>
			</input>
			<output>
				<port id="1" precision="FP32">
					<dim>256</dim>
					<dim>256</dim>
					<dim>3</dim>
					<dim>3</dim>
				</port>
			</output>
		</layer>
		<layer id="422" name="Multiply_5928/fq_weights_1/mulpiply_by_scale" type="Multiply" version="opset1">
			<data auto_broadcast="numpy"/>
			<input>
				<port id="0">
					<dim>256</dim>
					<dim>256</dim>
					<dim>3</dim>
					<dim>3</dim>
				</port>
				<port id="1">
					<dim>256</dim>
					<dim>1</dim>
					<dim>1</dim>
					<dim>1</dim>
				</port>
			</input>
			<output>
				<port id="2" precision="FP32">
					<dim>256</dim>
					<dim>256</dim>
					<dim>3</dim>
					<dim>3</dim>
				</port>
			</output>
		</layer>
		<layer id="423" name="Multiply_5928" type="Convolution" version="opset1">
			<data auto_pad="explicit" strides="1,1" dilations="1,1" pads_begin="1,1" pads_end="1,1"/>
			<input>
				<port id="0">
					<dim>1</dim>
					<dim>256</dim>
					<dim>14</dim>
					<dim>14</dim>
				</port>
				<port id="1">
					<dim>256</dim>
					<dim>256</dim>
					<dim>3</dim>
					<dim>3</dim>
				</port>
			</input>
			<output>
				<port id="2" precision="FP32">
					<dim>1</dim>
					<dim>256</dim>
					<dim>14</dim>
					<dim>14</dim>
				</port>
			</output>
		</layer>
		<layer id="424" name="Constant_59334218049" type="Const" version="opset1">
			<data offset="2867558" size="512" shape="1,256,1,1" element_type="f16"/>
			<output>
				<port id="0" precision="FP16">
					<dim>1</dim>
					<dim>256</dim>
					<dim>1</dim>
					<dim>1</dim>
				</port>
			</output>
		</layer>
		<layer id="425" name="Constant_59334214217/restored_convert" type="Convert" version="opset1">
			<data destination_type="f32"/>
			<rt_info>
				<attribute name="decompression" version="0"/>
			</rt_info>
			<input>
				<port id="0">
					<dim>1</dim>
					<dim>256</dim>
					<dim>1</dim>
					<dim>1</dim>
				</port>
			</input>
			<output>
				<port id="1" precision="FP32">
					<dim>1</dim>
					<dim>256</dim>
					<dim>1</dim>
					<dim>1</dim>
				</port>
			</output>
		</layer>
		<layer id="426" name="313" type="Add" version="opset1">
			<data auto_broadcast="numpy"/>
			<input>
				<port id="0">
					<dim>1</dim>
					<dim>256</dim>
					<dim>14</dim>
					<dim>14</dim>
				</port>
				<port id="1">
					<dim>1</dim>
					<dim>256</dim>
					<dim>1</dim>
					<dim>1</dim>
				</port>
			</input>
			<output>
				<port id="2" precision="FP32" names="313">
					<dim>1</dim>
					<dim>256</dim>
					<dim>14</dim>
					<dim>14</dim>
				</port>
			</output>
		</layer>
		<layer id="427" name="314" type="ReLU" version="opset1">
			<input>
				<port id="0">
					<dim>1</dim>
					<dim>256</dim>
					<dim>14</dim>
					<dim>14</dim>
				</port>
			</input>
			<output>
				<port id="1" precision="FP32" names="314">
					<dim>1</dim>
					<dim>256</dim>
					<dim>14</dim>
					<dim>14</dim>
				</port>
			</output>
		</layer>
		<layer id="428" name="Multiply_5935/fq_input_0" type="FakeQuantize" version="opset1">
			<data levels="256" auto_broadcast="numpy"/>
			<input>
				<port id="0">
					<dim>1</dim>
					<dim>256</dim>
					<dim>14</dim>
					<dim>14</dim>
				</port>
				<port id="1"/>
				<port id="2"/>
				<port id="3"/>
				<port id="4"/>
			</input>
			<output>
				<port id="5" precision="FP32">
					<dim>1</dim>
					<dim>256</dim>
					<dim>14</dim>
					<dim>14</dim>
				</port>
			</output>
		</layer>
		<layer id="429" name="encoder_Multiply_5935/fq_weights_1/scale52177998" type="Const" version="opset1">
			<data offset="2868070" size="1024" shape="256,1,1,1" element_type="f32"/>
			<output>
				<port id="0" precision="FP32">
					<dim>256</dim>
					<dim>1</dim>
					<dim>1</dim>
					<dim>1</dim>
				</port>
			</output>
		</layer>
		<layer id="430" name="Multiply_62404254218/restored_convert/quantized52097743" type="Const" version="opset1">
			<data offset="2869094" size="589824" shape="256,256,3,3" element_type="i8"/>
			<output>
				<port id="0" precision="I8">
					<dim>256</dim>
					<dim>256</dim>
					<dim>3</dim>
					<dim>3</dim>
				</port>
			</output>
		</layer>
		<layer id="431" name="Multiply_62404254218/restored_convert/quantized/to_f32" type="Convert" version="opset1">
			<data destination_type="f32"/>
			<input>
				<port id="0">
					<dim>256</dim>
					<dim>256</dim>
					<dim>3</dim>
					<dim>3</dim>
				</port>
			</input>
			<output>
				<port id="1" precision="FP32">
					<dim>256</dim>
					<dim>256</dim>
					<dim>3</dim>
					<dim>3</dim>
				</port>
			</output>
		</layer>
		<layer id="432" name="Multiply_5935/fq_weights_1/mulpiply_by_scale" type="Multiply" version="opset1">
			<data auto_broadcast="numpy"/>
			<input>
				<port id="0">
					<dim>256</dim>
					<dim>256</dim>
					<dim>3</dim>
					<dim>3</dim>
				</port>
				<port id="1">
					<dim>256</dim>
					<dim>1</dim>
					<dim>1</dim>
					<dim>1</dim>
				</port>
			</input>
			<output>
				<port id="2" precision="FP32">
					<dim>256</dim>
					<dim>256</dim>
					<dim>3</dim>
					<dim>3</dim>
				</port>
			</output>
		</layer>
		<layer id="433" name="Multiply_5935" type="Convolution" version="opset1">
			<data auto_pad="explicit" strides="1,1" dilations="1,1" pads_begin="1,1" pads_end="1,1"/>
			<input>
				<port id="0">
					<dim>1</dim>
					<dim>256</dim>
					<dim>14</dim>
					<dim>14</dim>
				</port>
				<port id="1">
					<dim>256</dim>
					<dim>256</dim>
					<dim>3</dim>
					<dim>3</dim>
				</port>
			</input>
			<output>
				<port id="2" precision="FP32">
					<dim>1</dim>
					<dim>256</dim>
					<dim>14</dim>
					<dim>14</dim>
				</port>
			</output>
		</layer>
		<layer id="434" name="Constant_59404287566" type="Const" version="opset1">
			<data offset="3458918" size="512" shape="1,256,1,1" element_type="f16"/>
			<output>
				<port id="0" precision="FP16">
					<dim>1</dim>
					<dim>256</dim>
					<dim>1</dim>
					<dim>1</dim>
				</port>
			</output>
		</layer>
		<layer id="435" name="Constant_59404284219/restored_convert" type="Convert" version="opset1">
			<data destination_type="f32"/>
			<rt_info>
				<attribute name="decompression" version="0"/>
			</rt_info>
			<input>
				<port id="0">
					<dim>1</dim>
					<dim>256</dim>
					<dim>1</dim>
					<dim>1</dim>
				</port>
			</input>
			<output>
				<port id="1" precision="FP32">
					<dim>1</dim>
					<dim>256</dim>
					<dim>1</dim>
					<dim>1</dim>
				</port>
			</output>
		</layer>
		<layer id="436" name="316" type="Add" version="opset1">
			<data auto_broadcast="numpy"/>
			<input>
				<port id="0">
					<dim>1</dim>
					<dim>256</dim>
					<dim>14</dim>
					<dim>14</dim>
				</port>
				<port id="1">
					<dim>1</dim>
					<dim>256</dim>
					<dim>1</dim>
					<dim>1</dim>
				</port>
			</input>
			<output>
				<port id="2" precision="FP32" names="316">
					<dim>1</dim>
					<dim>256</dim>
					<dim>14</dim>
					<dim>14</dim>
				</port>
			</output>
		</layer>
		<layer id="437" name="317/fq_input_0" type="FakeQuantize" version="opset1">
			<data levels="256" auto_broadcast="numpy"/>
			<input>
				<port id="0">
					<dim>1</dim>
					<dim>256</dim>
					<dim>14</dim>
					<dim>14</dim>
				</port>
				<port id="1"/>
				<port id="2"/>
				<port id="3"/>
				<port id="4"/>
			</input>
			<output>
				<port id="5" precision="FP32">
					<dim>1</dim>
					<dim>256</dim>
					<dim>14</dim>
					<dim>14</dim>
				</port>
			</output>
		</layer>
		<layer id="438" name="317" type="Add" version="opset1">
			<data auto_broadcast="numpy"/>
			<input>
				<port id="0">
					<dim>1</dim>
					<dim>256</dim>
					<dim>14</dim>
					<dim>14</dim>
				</port>
				<port id="1">
					<dim>1</dim>
					<dim>256</dim>
					<dim>14</dim>
					<dim>14</dim>
				</port>
			</input>
			<output>
				<port id="2" precision="FP32" names="317">
					<dim>1</dim>
					<dim>256</dim>
					<dim>14</dim>
					<dim>14</dim>
				</port>
			</output>
		</layer>
		<layer id="439" name="318" type="ReLU" version="opset1">
			<input>
				<port id="0">
					<dim>1</dim>
					<dim>256</dim>
					<dim>14</dim>
					<dim>14</dim>
				</port>
			</input>
			<output>
				<port id="1" precision="FP32" names="318">
					<dim>1</dim>
					<dim>256</dim>
					<dim>14</dim>
					<dim>14</dim>
				</port>
			</output>
		</layer>
		<layer id="440" name="324/fq_input_1" type="FakeQuantize" version="opset1">
			<data levels="256" auto_broadcast="numpy"/>
			<input>
				<port id="0">
					<dim>1</dim>
					<dim>256</dim>
					<dim>14</dim>
					<dim>14</dim>
				</port>
				<port id="1"/>
				<port id="2"/>
				<port id="3"/>
				<port id="4"/>
			</input>
			<output>
				<port id="5" precision="FP32">
					<dim>1</dim>
					<dim>256</dim>
					<dim>14</dim>
					<dim>14</dim>
				</port>
			</output>
		</layer>
		<layer id="441" name="encoder_Multiply_5942/fq_weights_1/scale53677635" type="Const" version="opset1">
			<data offset="3459430" size="1024" shape="256,1,1,1" element_type="f32"/>
			<output>
				<port id="0" precision="FP32">
					<dim>256</dim>
					<dim>1</dim>
					<dim>1</dim>
					<dim>1</dim>
				</port>
			</output>
		</layer>
		<layer id="442" name="Multiply_62494334220/restored_convert/quantized53597947" type="Const" version="opset1">
			<data offset="3460454" size="589824" shape="256,256,3,3" element_type="i8"/>
			<output>
				<port id="0" precision="I8">
					<dim>256</dim>
					<dim>256</dim>
					<dim>3</dim>
					<dim>3</dim>
				</port>
			</output>
		</layer>
		<layer id="443" name="Multiply_62494334220/restored_convert/quantized/to_f32" type="Convert" version="opset1">
			<data destination_type="f32"/>
			<input>
				<port id="0">
					<dim>256</dim>
					<dim>256</dim>
					<dim>3</dim>
					<dim>3</dim>
				</port>
			</input>
			<output>
				<port id="1" precision="FP32">
					<dim>256</dim>
					<dim>256</dim>
					<dim>3</dim>
					<dim>3</dim>
				</port>
			</output>
		</layer>
		<layer id="444" name="Multiply_5942/fq_weights_1/mulpiply_by_scale" type="Multiply" version="opset1">
			<data auto_broadcast="numpy"/>
			<input>
				<port id="0">
					<dim>256</dim>
					<dim>256</dim>
					<dim>3</dim>
					<dim>3</dim>
				</port>
				<port id="1">
					<dim>256</dim>
					<dim>1</dim>
					<dim>1</dim>
					<dim>1</dim>
				</port>
			</input>
			<output>
				<port id="2" precision="FP32">
					<dim>256</dim>
					<dim>256</dim>
					<dim>3</dim>
					<dim>3</dim>
				</port>
			</output>
		</layer>
		<layer id="445" name="Multiply_5942" type="Convolution" version="opset1">
			<data auto_pad="explicit" strides="1,1" dilations="1,1" pads_begin="1,1" pads_end="1,1"/>
			<input>
				<port id="0">
					<dim>1</dim>
					<dim>256</dim>
					<dim>14</dim>
					<dim>14</dim>
				</port>
				<port id="1">
					<dim>256</dim>
					<dim>256</dim>
					<dim>3</dim>
					<dim>3</dim>
				</port>
			</input>
			<output>
				<port id="2" precision="FP32">
					<dim>1</dim>
					<dim>256</dim>
					<dim>14</dim>
					<dim>14</dim>
				</port>
			</output>
		</layer>
		<layer id="446" name="Constant_59474368277" type="Const" version="opset1">
			<data offset="4050278" size="512" shape="1,256,1,1" element_type="f16"/>
			<output>
				<port id="0" precision="FP16">
					<dim>1</dim>
					<dim>256</dim>
					<dim>1</dim>
					<dim>1</dim>
				</port>
			</output>
		</layer>
		<layer id="447" name="Constant_59474364221/restored_convert" type="Convert" version="opset1">
			<data destination_type="f32"/>
			<rt_info>
				<attribute name="decompression" version="0"/>
			</rt_info>
			<input>
				<port id="0">
					<dim>1</dim>
					<dim>256</dim>
					<dim>1</dim>
					<dim>1</dim>
				</port>
			</input>
			<output>
				<port id="1" precision="FP32">
					<dim>1</dim>
					<dim>256</dim>
					<dim>1</dim>
					<dim>1</dim>
				</port>
			</output>
		</layer>
		<layer id="448" name="320" type="Add" version="opset1">
			<data auto_broadcast="numpy"/>
			<input>
				<port id="0">
					<dim>1</dim>
					<dim>256</dim>
					<dim>14</dim>
					<dim>14</dim>
				</port>
				<port id="1">
					<dim>1</dim>
					<dim>256</dim>
					<dim>1</dim>
					<dim>1</dim>
				</port>
			</input>
			<output>
				<port id="2" precision="FP32" names="320">
					<dim>1</dim>
					<dim>256</dim>
					<dim>14</dim>
					<dim>14</dim>
				</port>
			</output>
		</layer>
		<layer id="449" name="321" type="ReLU" version="opset1">
			<input>
				<port id="0">
					<dim>1</dim>
					<dim>256</dim>
					<dim>14</dim>
					<dim>14</dim>
				</port>
			</input>
			<output>
				<port id="1" precision="FP32" names="321">
					<dim>1</dim>
					<dim>256</dim>
					<dim>14</dim>
					<dim>14</dim>
				</port>
			</output>
		</layer>
		<layer id="450" name="Multiply_5949/fq_input_0" type="FakeQuantize" version="opset1">
			<data levels="256" auto_broadcast="numpy"/>
			<input>
				<port id="0">
					<dim>1</dim>
					<dim>256</dim>
					<dim>14</dim>
					<dim>14</dim>
				</port>
				<port id="1"/>
				<port id="2"/>
				<port id="3"/>
				<port id="4"/>
			</input>
			<output>
				<port id="5" precision="FP32">
					<dim>1</dim>
					<dim>256</dim>
					<dim>14</dim>
					<dim>14</dim>
				</port>
			</output>
		</layer>
		<layer id="451" name="encoder_Multiply_5949/fq_weights_1/scale51877671" type="Const" version="opset1">
			<data offset="4050790" size="1024" shape="256,1,1,1" element_type="f32"/>
			<output>
				<port id="0" precision="FP32">
					<dim>256</dim>
					<dim>1</dim>
					<dim>1</dim>
					<dim>1</dim>
				</port>
			</output>
		</layer>
		<layer id="452" name="Multiply_62584404222/restored_convert/quantized51797971" type="Const" version="opset1">
			<data offset="4051814" size="589824" shape="256,256,3,3" element_type="i8"/>
			<output>
				<port id="0" precision="I8">
					<dim>256</dim>
					<dim>256</dim>
					<dim>3</dim>
					<dim>3</dim>
				</port>
			</output>
		</layer>
		<layer id="453" name="Multiply_62584404222/restored_convert/quantized/to_f32" type="Convert" version="opset1">
			<data destination_type="f32"/>
			<input>
				<port id="0">
					<dim>256</dim>
					<dim>256</dim>
					<dim>3</dim>
					<dim>3</dim>
				</port>
			</input>
			<output>
				<port id="1" precision="FP32">
					<dim>256</dim>
					<dim>256</dim>
…
				<port id="1" precision="FP32">
					<dim>1</dim>
					<dim>512</dim>
					<dim>1</dim>
					<dim>1</dim>
				</port>
			</output>
		</layer>
		<layer id="603" name="367" type="Add" version="opset1">
			<data auto_broadcast="numpy"/>
			<input>
				<port id="0">
					<dim>1</dim>
					<dim>512</dim>
					<dim>7</dim>
					<dim>7</dim>
				</port>
				<port id="1">
					<dim>1</dim>
					<dim>512</dim>
					<dim>1</dim>
					<dim>1</dim>
				</port>
			</input>
			<output>
				<port id="2" precision="FP32" names="367">
					<dim>1</dim>
					<dim>512</dim>
					<dim>7</dim>
					<dim>7</dim>
				</port>
			</output>
		</layer>
		<layer id="604" name="368/fq_input_0" type="FakeQuantize" version="opset1">
			<data levels="256" auto_broadcast="numpy"/>
			<input>
				<port id="0">
					<dim>1</dim>
					<dim>512</dim>
					<dim>7</dim>
					<dim>7</dim>
				</port>
				<port id="1"/>
				<port id="2"/>
				<port id="3"/>
				<port id="4"/>
			</input>
			<output>
				<port id="5" precision="FP32">
					<dim>1</dim>
					<dim>512</dim>
					<dim>7</dim>
					<dim>7</dim>
				</port>
			</output>
		</layer>
		<layer id="605" name="368" type="Add" version="opset1">
			<data auto_broadcast="numpy"/>
			<input>
				<port id="0">
					<dim>1</dim>
					<dim>512</dim>
					<dim>7</dim>
					<dim>7</dim>
				</port>
				<port id="1">
					<dim>1</dim>
					<dim>512</dim>
					<dim>7</dim>
					<dim>7</dim>
				</port>
			</input>
			<output>
				<port id="2" precision="FP32" names="368">
					<dim>1</dim>
					<dim>512</dim>
					<dim>7</dim>
					<dim>7</dim>
				</port>
			</output>
		</layer>
		<layer id="606" name="369" type="ReLU" version="opset1">
			<input>
				<port id="0">
					<dim>1</dim>
					<dim>512</dim>
					<dim>7</dim>
					<dim>7</dim>
				</port>
			</input>
			<output>
				<port id="1" precision="FP32" names="369,370">
					<dim>1</dim>
					<dim>512</dim>
					<dim>7</dim>
					<dim>7</dim>
				</port>
			</output>
		</layer>
		<layer id="607" name="371/fq_input_0" type="FakeQuantize" version="opset1">
			<data levels="256" auto_broadcast="numpy"/>
			<input>
				<port id="0">
					<dim>1</dim>
					<dim>512</dim>
					<dim>7</dim>
					<dim>7</dim>
				</port>
				<port id="1"/>
				<port id="2"/>
				<port id="3"/>
				<port id="4"/>
			</input>
			<output>
				<port id="5" precision="FP32">
					<dim>1</dim>
					<dim>512</dim>
					<dim>7</dim>
					<dim>7</dim>
				</port>
			</output>
		</layer>
		<layer id="608" name="371" type="AvgPool" version="opset1">
			<data strides="7,7" kernel="7,7" pads_begin="0,0" pads_end="0,0" exclude-pad="true" rounding_type="floor" auto_pad="explicit"/>
			<input>
				<port id="0">
					<dim>1</dim>
					<dim>512</dim>
					<dim>7</dim>
					<dim>7</dim>
				</port>
			</input>
			<output>
				<port id="1" precision="FP32" names="371">
					<dim>1</dim>
					<dim>512</dim>
					<dim>1</dim>
					<dim>1</dim>
				</port>
			</output>
		</layer>
		<layer id="609" name="371/sink_port_0" type="Result" version="opset1">
			<input>
				<port id="0">
					<dim>1</dim>
					<dim>512</dim>
					<dim>1</dim>
					<dim>1</dim>
				</port>
			</input>
		</layer>
	</layers>
	<edges>
		<edge from-layer="9" from-port="0" to-layer="10" to-port="0"/>
		<edge from-layer="8" from-port="0" to-layer="11" to-port="0"/>
		<edge from-layer="10" from-port="1" to-layer="11" to-port="1"/>
		<edge from-layer="11" from-port="2" to-layer="12" to-port="0"/>
		<edge from-layer="4" from-port="0" to-layer="12" to-port="1"/>
		<edge from-layer="5" from-port="0" to-layer="12" to-port="2"/>
		<edge from-layer="6" from-port="0" to-layer="12" to-port="3"/>
		<edge from-layer="7" from-port="0" to-layer="12" to-port="4"/>
		<edge from-layer="14" from-port="0" to-layer="15" to-port="0"/>
		<edge from-layer="15" from-port="1" to-layer="16" to-port="0"/>
		<edge from-layer="13" from-port="0" to-layer="16" to-port="1"/>
		<edge from-layer="12" from-port="5" to-layer="17" to-port="0"/>
		<edge from-layer="16" from-port="2" to-layer="17" to-port="1"/>
		<edge from-layer="18" from-port="0" to-layer="19" to-port="0"/>
		<edge from-layer="17" from-port="2" to-layer="20" to-port="0"/>
		<edge from-layer="19" from-port="1" to-layer="20" to-port="1"/>
		<edge from-layer="20" from-port="2" to-layer="21" to-port="0"/>
		<edge from-layer="21" from-port="1" to-layer="22" to-port="0"/>
		<edge from-layer="0" from-port="0" to-layer="22" to-port="1"/>
		<edge from-layer="1" from-port="0" to-layer="22" to-port="2"/>
		<edge from-layer="2" from-port="0" to-layer="22" to-port="3"/>
		<edge from-layer="3" from-port="0" to-layer="22" to-port="4"/>
		<edge from-layer="22" from-port="5" to-layer="23" to-port="0"/>
		<edge from-layer="218" from-port="0" to-layer="219" to-port="0"/>
		<edge from-layer="219" from-port="1" to-layer="220" to-port="0"/>
		<edge from-layer="217" from-port="0" to-layer="220" to-port="1"/>
		<edge from-layer="23" from-port="1" to-layer="221" to-port="0"/>
		<edge from-layer="220" from-port="2" to-layer="221" to-port="1"/>
		<edge from-layer="222" from-port="0" to-layer="223" to-port="0"/>
		<edge from-layer="221" from-port="2" to-layer="224" to-port="0"/>
		<edge from-layer="223" from-port="1" to-layer="224" to-port="1"/>
		<edge from-layer="224" from-port="2" to-layer="225" to-port="0"/>
		<edge from-layer="225" from-port="1" to-layer="226" to-port="0"/>
		<edge from-layer="213" from-port="0" to-layer="226" to-port="1"/>
		<edge from-layer="214" from-port="0" to-layer="226" to-port="2"/>
		<edge from-layer="215" from-port="0" to-layer="226" to-port="3"/>
		<edge from-layer="216" from-port="0" to-layer="226" to-port="4"/>
		<edge from-layer="228" from-port="0" to-layer="229" to-port="0"/>
		<edge from-layer="229" from-port="1" to-layer="230" to-port="0"/>
		<edge from-layer="227" from-port="0" to-layer="230" to-port="1"/>
		<edge from-layer="226" from-port="5" to-layer="231" to-port="0"/>
		<edge from-layer="230" from-port="2" to-layer="231" to-port="1"/>
		<edge from-layer="232" from-port="0" to-layer="233" to-port="0"/>
		<edge from-layer="231" from-port="2" to-layer="234" to-port="0"/>
		<edge from-layer="233" from-port="1" to-layer="234" to-port="1"/>
		<edge from-layer="234" from-port="2" to-layer="235" to-port="0"/>
		<edge from-layer="209" from-port="0" to-layer="235" to-port="1"/>
		<edge from-layer="210" from-port="0" to-layer="235" to-port="2"/>
		<edge from-layer="211" from-port="0" to-layer="235" to-port="3"/>
		<edge from-layer="212" from-port="0" to-layer="235" to-port="4"/>
		<edge from-layer="235" from-port="5" to-layer="236" to-port="0"/>
		<edge from-layer="23" from-port="1" to-layer="236" to-port="1"/>
		<edge from-layer="236" from-port="2" to-layer="237" to-port="0"/>
		<edge from-layer="237" from-port="1" to-layer="238" to-port="0"/>
		<edge from-layer="205" from-port="0" to-layer="238" to-port="1"/>
		<edge from-layer="206" from-port="0" to-layer="238" to-port="2"/>
		<edge from-layer="207" from-port="0" to-layer="238" to-port="3"/>
		<edge from-layer="208" from-port="0" to-layer="238" to-port="4"/>
		<edge from-layer="240" from-port="0" to-layer="241" to-port="0"/>
		<edge from-layer="241" from-port="1" to-layer="242" to-port="0"/>
		<edge from-layer="239" from-port="0" to-layer="242" to-port="1"/>
		<edge from-layer="238" from-port="5" to-layer="243" to-port="0"/>
		<edge from-layer="242" from-port="2" to-layer="243" to-port="1"/>
		<edge from-layer="244" from-port="0" to-layer="245" to-port="0"/>
		<edge from-layer="243" from-port="2" to-layer="246" to-port="0"/>
		<edge from-layer="245" from-port="1" to-layer="246" to-port="1"/>
		<edge from-layer="246" from-port="2" to-layer="247" to-port="0"/>
		<edge from-layer="247" from-port="1" to-layer="248" to-port="0"/>
		<edge from-layer="201" from-port="0" to-layer="248" to-port="1"/>
		<edge from-layer="202" from-port="0" to-layer="248" to-port="2"/>
		<edge from-layer="203" from-port="0" to-layer="248" to-port="3"/>
		<edge from-layer="204" from-port="0" to-layer="248" to-port="4"/>
		<edge from-layer="250" from-port="0" to-layer="251" to-port="0"/>
		<edge from-layer="251" from-port="1" to-layer="252" to-port="0"/>
		<edge from-layer="249" from-port="0" to-layer="252" to-port="1"/>
		<edge from-layer="248" from-port="5" to-layer="253" to-port="0"/>
		<edge from-layer="252" from-port="2" to-layer="253" to-port="1"/>
		<edge from-layer="254" from-port="0" to-layer="255" to-port="0"/>
		<edge from-layer="253" from-port="2" to-layer="256" to-port="0"/>
		<edge from-layer="255" from-port="1" to-layer="256" to-port="1"/>
		<edge from-layer="256" from-port="2" to-layer="257" to-port="0"/>
		<edge from-layer="197" from-port="0" to-layer="257" to-port="1"/>
		<edge from-layer="198" from-port="0" to-layer="257" to-port="2"/>
		<edge from-layer="199" from-port="0" to-layer="257" to-port="3"/>
		<edge from-layer="200" from-port="0" to-layer="257" to-port="4"/>
		<edge from-layer="257" from-port="5" to-layer="258" to-port="0"/>
		<edge from-layer="238" from-port="5" to-layer="258" to-port="1"/>
		<edge from-layer="258" from-port="2" to-layer="259" to-port="0"/>
		<edge from-layer="259" from-port="1" to-layer="260" to-port="0"/>
		<edge from-layer="193" from-port="0" to-layer="260" to-port="1"/>
		<edge from-layer="194" from-port="0" to-layer="260" to-port="2"/>
		<edge from-layer="195" from-port="0" to-layer="260" to-port="3"/>
		<edge from-layer="196" from-port="0" to-layer="260" to-port="4"/>
		<edge from-layer="262" from-port="0" to-layer="263" to-port="0"/>
		<edge from-layer="263" from-port="1" to-layer="264" to-port="0"/>
		<edge from-layer="261" from-port="0" to-layer="264" to-port="1"/>
		<edge from-layer="260" from-port="5" to-layer="265" to-port="0"/>
		<edge from-layer="264" from-port="2" to-layer="265" to-port="1"/>
		<edge from-layer="266" from-port="0" to-layer="267" to-port="0"/>
		<edge from-layer="265" from-port="2" to-layer="268" to-port="0"/>
		<edge from-layer="267" from-port="1" to-layer="268" to-port="1"/>
		<edge from-layer="268" from-port="2" to-layer="269" to-port="0"/>
		<edge from-layer="269" from-port="1" to-layer="270" to-port="0"/>
		<edge from-layer="189" from-port="0" to-layer="270" to-port="1"/>
		<edge from-layer="190" from-port="0" to-layer="270" to-port="2"/>
		<edge from-layer="191" from-port="0" to-layer="270" to-port="3"/>
		<edge from-layer="192" from-port="0" to-layer="270" to-port="4"/>
		<edge from-layer="272" from-port="0" to-layer="273" to-port="0"/>
		<edge from-layer="273" from-port="1" to-layer="274" to-port="0"/>
		<edge from-layer="271" from-port="0" to-layer="274" to-port="1"/>
		<edge from-layer="270" from-port="5" to-layer="275" to-port="0"/>
		<edge from-layer="274" from-port="2" to-layer="275" to-port="1"/>
		<edge from-layer="276" from-port="0" to-layer="277" to-port="0"/>
		<edge from-layer="275" from-port="2" to-layer="278" to-port="0"/>
		<edge from-layer="277" from-port="1" to-layer="278" to-port="1"/>
		<edge from-layer="278" from-port="2" to-layer="279" to-port="0"/>
		<edge from-layer="185" from-port="0" to-layer="279" to-port="1"/>
		<edge from-layer="186" from-port="0" to-layer="279" to-port="2"/>
		<edge from-layer="187" from-port="0" to-layer="279" to-port="3"/>
		<edge from-layer="188" from-port="0" to-layer="279" to-port="4"/>
		<edge from-layer="279" from-port="5" to-layer="280" to-port="0"/>
		<edge from-layer="260" from-port="5" to-layer="280" to-port="1"/>
		<edge from-layer="280" from-port="2" to-layer="281" to-port="0"/>
		<edge from-layer="281" from-port="1" to-layer="282" to-port="0"/>
		<edge from-layer="181" from-port="0" to-layer="282" to-port="1"/>
		<edge from-layer="182" from-port="0" to-layer="282" to-port="2"/>
		<edge from-layer="183" from-port="0" to-layer="282" to-port="3"/>
		<edge from-layer="184" from-port="0" to-layer="282" to-port="4"/>
		<edge from-layer="284" from-port="0" to-layer="285" to-port="0"/>
		<edge from-layer="285" from-port="1" to-layer="286" to-port="0"/>
		<edge from-layer="283" from-port="0" to-layer="286" to-port="1"/>
		<edge from-layer="282" from-port="5" to-layer="287" to-port="0"/>
		<edge from-layer="286" from-port="2" to-layer="287" to-port="1"/>
		<edge from-layer="288" from-port="0" to-layer="289" to-port="0"/>
		<edge from-layer="287" from-port="2" to-layer="290" to-port="0"/>
		<edge from-layer="289" from-port="1" to-layer="290" to-port="1"/>
		<edge from-layer="290" from-port="2" to-layer="291" to-port="0"/>
		<edge from-layer="291" from-port="1" to-layer="292" to-port="0"/>
		<edge from-layer="177" from-port="0" to-layer="292" to-port="1"/>
		<edge from-layer="178" from-port="0" to-layer="292" to-port="2"/>
		<edge from-layer="179" from-port="0" to-layer="292" to-port="3"/>
		<edge from-layer="180" from-port="0" to-layer="292" to-port="4"/>
		<edge from-layer="294" from-port="0" to-layer="295" to-port="0"/>
		<edge from-layer="295" from-port="1" to-layer="296" to-port="0"/>
		<edge from-layer="293" from-port="0" to-layer="296" to-port="1"/>
		<edge from-layer="292" from-port="5" to-layer="297" to-port="0"/>
		<edge from-layer="296" from-port="2" to-layer="297" to-port="1"/>
		<edge from-layer="298" from-port="0" to-layer="299" to-port="0"/>
		<edge from-layer="297" from-port="2" to-layer="300" to-port="0"/>
		<edge from-layer="299" from-port="1" to-layer="300" to-port="1"/>
		<edge from-layer="300" from-port="2" to-layer="301" to-port="0"/>
		<edge from-layer="173" from-port="0" to-layer="301" to-port="1"/>
		<edge from-layer="174" from-port="0" to-layer="301" to-port="2"/>
		<edge from-layer="175" from-port="0" to-layer="301" to-port="3"/>
		<edge from-layer="176" from-port="0" to-layer="301" to-port="4"/>
		<edge from-layer="307" from-port="0" to-layer="308" to-port="0"/>
		<edge from-layer="308" from-port="1" to-layer="309" to-port="0"/>
		<edge from-layer="306" from-port="0" to-layer="309" to-port="1"/>
		<edge from-layer="282" from-port="5" to-layer="310" to-port="0"/>
		<edge from-layer="309" from-port="2" to-layer="310" to-port="1"/>
		<edge from-layer="311" from-port="0" to-layer="312" to-port="0"/>
		<edge from-layer="310" from-port="2" to-layer="313" to-port="0"/>
		<edge from-layer="312" from-port="1" to-layer="313" to-port="1"/>
		<edge from-layer="313" from-port="2" to-layer="314" to-port="0"/>
		<edge from-layer="302" from-port="0" to-layer="314" to-port="1"/>
		<edge from-layer="303" from-port="0" to-layer="314" to-port="2"/>
		<edge from-layer="304" from-port="0" to-layer="314" to-port="3"/>
		<edge from-layer="305" from-port="0" to-layer="314" to-port="4"/>
		<edge from-layer="301" from-port="5" to-layer="315" to-port="0"/>
		<edge from-layer="314" from-port="5" to-layer="315" to-port="1"/>
		<edge from-layer="315" from-port="2" to-layer="316" to-port="0"/>
		<edge from-layer="316" from-port="1" to-layer="317" to-port="0"/>
		<edge from-layer="169" from-port="0" to-layer="317" to-port="1"/>
		<edge from-layer="170" from-port="0" to-layer="317" to-port="2"/>
		<edge from-layer="171" from-port="0" to-layer="317" to-port="3"/>
		<edge from-layer="172" from-port="0" to-layer="317" to-port="4"/>
		<edge from-layer="319" from-port="0" to-layer="320" to-port="0"/>
		<edge from-layer="320" from-port="1" to-layer="321" to-port="0"/>
		<edge from-layer="318" from-port="0" to-layer="321" to-port="1"/>
		<edge from-layer="317" from-port="5" to-layer="322" to-port="0"/>
		<edge from-layer="321" from-port="2" to-layer="322" to-port="1"/>
		<edge from-layer="323" from-port="0" to-layer="324" to-port="0"/>
		<edge from-layer="322" from-port="2" to-layer="325" to-port="0"/>
		<edge from-layer="324" from-port="1" to-layer="325" to-port="1"/>
		<edge from-layer="325" from-port="2" to-layer="326" to-port="0"/>
		<edge from-layer="326" from-port="1" to-layer="327" to-port="0"/>
		<edge from-layer="165" from-port="0" to-layer="327" to-port="1"/>
		<edge from-layer="166" from-port="0" to-layer="327" to-port="2"/>
		<edge from-layer="167" from-port="0" to-layer="327" to-port="3"/>
		<edge from-layer="168" from-port="0" to-layer="327" to-port="4"/>
		<edge from-layer="329" from-port="0" to-layer="330" to-port="0"/>
		<edge from-layer="330" from-port="1" to-layer="331" to-port="0"/>
		<edge from-layer="328" from-port="0" to-layer="331" to-port="1"/>
		<edge from-layer="327" from-port="5" to-layer="332" to-port="0"/>
		<edge from-layer="331" from-port="2" to-layer="332" to-port="1"/>
		<edge from-layer="333" from-port="0" to-layer="334" to-port="0"/>
		<edge from-layer="332" from-port="2" to-layer="335" to-port="0"/>
		<edge from-layer="334" from-port="1" to-layer="335" to-port="1"/>
		<edge from-layer="335" from-port="2" to-layer="336" to-port="0"/>
		<edge from-layer="161" from-port="0" to-layer="336" to-port="1"/>
		<edge from-layer="162" from-port="0" to-layer="336" to-port="2"/>
		<edge from-layer="163" from-port="0" to-layer="336" to-port="3"/>
		<edge from-layer="164" from-port="0" to-layer="336" to-port="4"/>
		<edge from-layer="336" from-port="5" to-layer="337" to-port="0"/>
		<edge from-layer="317" from-port="5" to-layer="337" to-port="1"/>
		<edge from-layer="337" from-port="2" to-layer="338" to-port="0"/>
		<edge from-layer="338" from-port="1" to-layer="339" to-port="0"/>
		<edge from-layer="157" from-port="0" to-layer="339" to-port="1"/>
		<edge from-layer="158" from-port="0" to-layer="339" to-port="2"/>
		<edge from-layer="159" from-port="0" to-layer="339" to-port="3"/>
		<edge from-layer="160" from-port="0" to-layer="339" to-port="4"/>
		<edge from-layer="341" from-port="0" to-layer="342" to-port="0"/>
		<edge from-layer="342" from-port="1" to-layer="343" to-port="0"/>
		<edge from-layer="340" from-port="0" to-layer="343" to-port="1"/>
		<edge from-layer="339" from-port="5" to-layer="344" to-port="0"/>
		<edge from-layer="343" from-port="2" to-layer="344" to-port="1"/>
		<edge from-layer="345" from-port="0" to-layer="346" to-port="0"/>
		<edge from-layer="344" from-port="2" to-layer="347" to-port="0"/>
		<edge from-layer="346" from-port="1" to-layer="347" to-port="1"/>
		<edge from-layer="347" from-port="2" to-layer="348" to-port="0"/>
		<edge from-layer="348" from-port="1" to-layer="349" to-port="0"/>
		<edge from-layer="153" from-port="0" to-layer="349" to-port="1"/>
		<edge from-layer="154" from-port="0" to-layer="349" to-port="2"/>
		<edge from-layer="155" from-port="0" to-layer="349" to-port="3"/>
		<edge from-layer="156" from-port="0" to-layer="349" to-port="4"/>
		<edge from-layer="351" from-port="0" to-layer="352" to-port="0"/>
		<edge from-layer="352" from-port="1" to-layer="353" to-port="0"/>
		<edge from-layer="350" from-port="0" to-layer="353" to-port="1"/>
		<edge from-layer="349" from-port="5" to-layer="354" to-port="0"/>
		<edge from-layer="353" from-port="2" to-layer="354" to-port="1"/>
		<edge from-layer="355" from-port="0" to-layer="356" to-port="0"/>
		<edge from-layer="354" from-port="2" to-layer="357" to-port="0"/>
		<edge from-layer="356" from-port="1" to-layer="357" to-port="1"/>
		<edge from-layer="357" from-port="2" to-layer="358" to-port="0"/>
		<edge from-layer="149" from-port="0" to-layer="358" to-port="1"/>
		<edge from-layer="150" from-port="0" to-layer="358" to-port="2"/>
		<edge from-layer="151" from-port="0" to-layer="358" to-port="3"/>
		<edge from-layer="152" from-port="0" to-layer="358" to-port="4"/>
		<edge from-layer="358" from-port="5" to-layer="359" to-port="0"/>
		<edge from-layer="339" from-port="5" to-layer="359" to-port="1"/>
		<edge from-layer="359" from-port="2" to-layer="360" to-port="0"/>
		<edge from-layer="360" from-port="1" to-layer="361" to-port="0"/>
		<edge from-layer="145" from-port="0" to-layer="361" to-port="1"/>
		<edge from-layer="146" from-port="0" to-layer="361" to-port="2"/>
		<edge from-layer="147" from-port="0" to-layer="361" to-port="3"/>
		<edge from-layer="148" from-port="0" to-layer="361" to-port="4"/>
		<edge from-layer="363" from-port="0" to-layer="364" to-port="0"/>
		<edge from-layer="364" from-port="1" to-layer="365" to-port="0"/>
		<edge from-layer="362" from-port="0" to-layer="365" to-port="1"/>
		<edge from-layer="361" from-port="5" to-layer="366" to-port="0"/>
		<edge from-layer="365" from-port="2" to-layer="366" to-port="1"/>
		<edge from-layer="367" from-port="0" to-layer="368" to-port="0"/>
		<edge from-layer="366" from-port="2" to-layer="369" to-port="0"/>
		<edge from-layer="368" from-port="1" to-layer="369" to-port="1"/>
		<edge from-layer="369" from-port="2" to-layer="370" to-port="0"/>
		<edge from-layer="370" from-port="1" to-layer="371" to-port="0"/>
		<edge from-layer="141" from-port="0" to-layer="371" to-port="1"/>
		<edge from-layer="142" from-port="0" to-layer="371" to-port="2"/>
		<edge from-layer="143" from-port="0" to-layer="371" to-port="3"/>
		<edge from-layer="144" from-port="0" to-layer="371" to-port="4"/>
		<edge from-layer="373" from-port="0" to-layer="374" to-port="0"/>
		<edge from-layer="374" from-port="1" to-layer="375" to-port="0"/>
		<edge from-layer="372" from-port="0" to-layer="375" to-port="1"/>
		<edge from-layer="371" from-port="5" to-layer="376" to-port="0"/>
		<edge from-layer="375" from-port="2" to-layer="376" to-port="1"/>
		<edge from-layer="377" from-port="0" to-layer="378" to-port="0"/>
		<edge from-layer="376" from-port="2" to-layer="379" to-port="0"/>
		<edge from-layer="378" from-port="1" to-layer="379" to-port="1"/>
		<edge from-layer="379" from-port="2" to-layer="380" to-port="0"/>
		<edge from-layer="137" from-port="0" to-layer="380" to-port="1"/>
		<edge from-layer="138" from-port="0" to-layer="380" to-port="2"/>
		<edge from-layer="139" from-port="0" to-layer="380" to-port="3"/>
		<edge from-layer="140" from-port="0" to-layer="380" to-port="4"/>
		<edge from-layer="380" from-port="5" to-layer="381" to-port="0"/>
		<edge from-layer="361" from-port="5" to-layer="381" to-port="1"/>
		<edge from-layer="381" from-port="2" to-layer="382" to-port="0"/>
		<edge from-layer="382" from-port="1" to-layer="383" to-port="0"/>
		<edge from-layer="133" from-port="0" to-layer="383" to-port="1"/>
		<edge from-layer="134" from-port="0" to-layer="383" to-port="2"/>
		<edge from-layer="135" from-port="0" to-layer="383" to-port="3"/>
		<edge from-layer="136" from-port="0" to-layer="383" to-port="4"/>
		<edge from-layer="385" from-port="0" to-layer="386" to-port="0"/>
		<edge from-layer="386" from-port="1" to-layer="387" to-port="0"/>
		<edge from-layer="384" from-port="0" to-layer="387" to-port="1"/>
		<edge from-layer="383" from-port="5" to-layer="388" to-port="0"/>
		<edge from-layer="387" from-port="2" to-layer="388" to-port="1"/>
		<edge from-layer="389" from-port="0" to-layer="390" to-port="0"/>
		<edge from-layer="388" from-port="2" to-layer="391" to-port="0"/>
		<edge from-layer="390" from-port="1" to-layer="391" to-port="1"/>
		<edge from-layer="391" from-port="2" to-layer="392" to-port="0"/>
		<edge from-layer="392" from-port="1" to-layer="393" to-port="0"/>
		<edge from-layer="129" from-port="0" to-layer="393" to-port="1"/>
		<edge from-layer="130" from-port="0" to-layer="393" to-port="2"/>
		<edge from-layer="131" from-port="0" to-layer="393" to-port="3"/>
		<edge from-layer="132" from-port="0" to-layer="393" to-port="4"/>
		<edge from-layer="395" from-port="0" to-layer="396" to-port="0"/>
		<edge from-layer="396" from-port="1" to-layer="397" to-port="0"/>
		<edge from-layer="394" from-port="0" to-layer="397" to-port="1"/>
		<edge from-layer="393" from-port="5" to-layer="398" to-port="0"/>
		<edge from-layer="397" from-port="2" to-layer="398" to-port="1"/>
		<edge from-layer="399" from-port="0" to-layer="400" to-port="0"/>
		<edge from-layer="398" from-port="2" to-layer="401" to-port="0"/>
		<edge from-layer="400" from-port="1" to-layer="401" to-port="1"/>
		<edge from-layer="401" from-port="2" to-layer="402" to-port="0"/>
		<edge from-layer="125" from-port="0" to-layer="402" to-port="1"/>
		<edge from-layer="126" from-port="0" to-layer="402" to-port="2"/>
		<edge from-layer="127" from-port="0" to-layer="402" to-port="3"/>
		<edge from-layer="128" from-port="0" to-layer="402" to-port="4"/>
		<edge from-layer="408" from-port="0" to-layer="409" to-port="0"/>
		<edge from-layer="409" from-port="1" to-layer="410" to-port="0"/>
		<edge from-layer="407" from-port="0" to-layer="410" to-port="1"/>
		<edge from-layer="383" from-port="5" to-layer="411" to-port="0"/>
		<edge from-layer="410" from-port="2" to-layer="411" to-port="1"/>
		<edge from-layer="412" from-port="0" to-layer="413" to-port="0"/>
		<edge from-layer="411" from-port="2" to-layer="414" to-port="0"/>
		<edge from-layer="413" from-port="1" to-layer="414" to-port="1"/>
		<edge from-layer="414" from-port="2" to-layer="415" to-port="0"/>
		<edge from-layer="403" from-port="0" to-layer="415" to-port="1"/>
		<edge from-layer="404" from-port="0" to-layer="415" to-port="2"/>
		<edge from-layer="405" from-port="0" to-layer="415" to-port="3"/>
		<edge from-layer="406" from-port="0" to-layer="415" to-port="4"/>
		<edge from-layer="402" from-port="5" to-layer="416" to-port="0"/>
		<edge from-layer="415" from-port="5" to-layer="416" to-port="1"/>
		<edge from-layer="416" from-port="2" to-layer="417" to-port="0"/>
		<edge from-layer="417" from-port="1" to-layer="418" to-port="0"/>
		<edge from-layer="121" from-port="0" to-layer="418" to-port="1"/>
		<edge from-layer="122" from-port="0" to-layer="418" to-port="2"/>
		<edge from-layer="123" from-port="0" to-layer="418" to-port="3"/>
		<edge from-layer="124" from-port="0" to-layer="418" to-port="4"/>
		<edge from-layer="420" from-port="0" to-layer="421" to-port="0"/>
		<edge from-layer="421" from-port="1" to-layer="422" to-port="0"/>
		<edge from-layer="419" from-port="0" to-layer="422" to-port="1"/>
		<edge from-layer="418" from-port="5" to-layer="423" to-port="0"/>
		<edge from-layer="422" from-port="2" to-layer="423" to-port="1"/>
		<edge from-layer="424" from-port="0" to-layer="425" to-port="0"/>
		<edge from-layer="423" from-port="2" to-layer="426" to-port="0"/>
		<edge from-layer="425" from-port="1" to-layer="426" to-port="1"/>
		<edge from-layer="426" from-port="2" to-layer="427" to-port="0"/>
		<edge from-layer="427" from-port="1" to-layer="428" to-port="0"/>
		<edge from-layer="117" from-port="0" to-layer="428" to-port="1"/>
		<edge from-layer="118" from-port="0" to-layer="428" to-port="2"/>
		<edge from-layer="119" from-port="0" to-layer="428" to-port="3"/>
		<edge from-layer="120" from-port="0" to-layer="428" to-port="4"/>
		<edge from-layer="430" from-port="0" to-layer="431" to-port="0"/>
		<edge from-layer="431" from-port="1" to-layer="432" to-port="0"/>
		<edge from-layer="429" from-port="0" to-layer="432" to-port="1"/>
		<edge from-layer="428" from-port="5" to-layer="433" to-port="0"/>
		<edge from-layer="432" from-port="2" to-layer="433" to-port="1"/>
		<edge from-layer="434" from-port="0" to-layer="435" to-port="0"/>
		<edge from-layer="433" from-port="2" to-layer="436" to-port="0"/>
		<edge from-layer="435" from-port="1" to-layer="436" to-port="1"/>
		<edge from-layer="436" from-port="2" to-layer="437" to-port="0"/>
		<edge from-layer="113" from-port="0" to-layer="437" to-port="1"/>
		<edge from-layer="114" from-port="0" to-layer="437" to-port="2"/>
		<edge from-layer="115" from-port="0" to-layer="437" to-port="3"/>
		<edge from-layer="116" from-port="0" to-layer="437" to-port="4"/>
		<edge from-layer="437" from-port="5" to-layer="438" to-port="0"/>
		<edge from-layer="418" from-port="5" to-layer="438" to-port="1"/>
		<edge from-layer="438" from-port="2" to-layer="439" to-port="0"/>
		<edge from-layer="439" from-port="1" to-layer="440" to-port="0"/>
		<edge from-layer="109" from-port="0" to-layer="440" to-port="1"/>
		<edge from-layer="110" from-port="0" to-layer="440" to-port="2"/>
		<edge from-layer="111" from-port="0" to-layer="440" to-port="3"/>
		<edge from-layer="112" from-port="0" to-layer="440" to-port="4"/>
		<edge from-layer="442" from-port="0" to-layer="443" to-port="0"/>
		<edge from-layer="443" from-port="1" to-layer="444" to-port="0"/>
		<edge from-layer="441" from-port="0" to-layer="444" to-port="1"/>
		<edge from-layer="440" from-port="5" to-layer="445" to-port="0"/>
		<edge from-layer="444" from-port="2" to-layer="445" to-port="1"/>
		<edge from-layer="446" from-port="0" to-layer="447" to-port="0"/>
		<edge from-layer="445" from-port="2" to-layer="448" to-port="0"/>
		<edge from-layer="447" from-port="1" to-layer="448" to-port="1"/>
		<edge from-layer="448" from-port="2" to-layer="449" to-port="0"/>
		<edge from-layer="449" from-port="1" to-layer="450" to-port="0"/>
		<edge from-layer="105" from-port="0" to-layer="450" to-port="1"/>
		<edge from-layer="106" from-port="0" to-layer="450" to-port="2"/>
		<edge from-layer="107" from-port="0" to-layer="450" to-port="3"/>
		<edge from-layer="108" from-port="0" to-layer="450" to-port="4"/>
		<edge from-layer="452" from-port="0" to-layer="453" to-port="0"/>
		<edge from-layer="453" from-port="1" to-layer="454" to-port="0"/>
		<edge from-layer="451" from-port="0" to-layer="454" to-port="1"/>
		<edge from-layer="450" from-port="5" to-layer="455" to-port="0"/>
		<edge from-layer="454" from-port="2" to-layer="455" to-port="1"/>
		<edge from-layer="456" from-port="0" to-layer="457" to-port="0"/>
		<edge from-layer="455" from-port="2" to-layer="458" to-port="0"/>
		<edge from-layer="457" from-port="1" to-layer="458" to-port="1"/>
		<edge from-layer="458" from-port="2" to-layer="459" to-port="0"/>
		<edge from-layer="101" from-port="0" to-layer="459" to-port="1"/>
		<edge from-layer="102" from-port="0" to-layer="459" to-port="2"/>
		<edge from-layer="103" from-port="0" to-layer="459" to-port="3"/>
		<edge from-layer="104" from-port="0" to-layer="459" to-port="4"/>
		<edge from-layer="459" from-port="5" to-layer="460" to-port="0"/>
		<edge from-layer="440" from-port="5" to-layer="460" to-port="1"/>
		<edge from-layer="460" from-port="2" to-layer="461" to-port="0"/>
		<edge from-layer="461" from-port="1" to-layer="462" to-port="0"/>
		<edge from-layer="97" from-port="0" to-layer="462" to-port="1"/>
		<edge from-layer="98" from-port="0" to-layer="462" to-port="2"/>
		<edge from-layer="99" from-port="0" to-layer="462" to-port="3"/>
		<edge from-layer="100" from-port="0" to-layer="462" to-port="4"/>
		<edge from-layer="464" from-port="0" to-layer="465" to-port="0"/>
		<edge from-layer="465" from-port="1" to-layer="466" to-port="0"/>
		<edge from-layer="463" from-port="0" to-layer="466" to-port="1"/>
		<edge from-layer="462" from-port="5" to-layer="467" to-port="0"/>
		<edge from-layer="466" from-port="2" to-layer="467" to-port="1"/>
		<edge from-layer="468" from-port="0" to-layer="469" to-port="0"/>
		<edge from-layer="467" from-port="2" to-layer="470" to-port="0"/>
		<edge from-layer="469" from-port="1" to-layer="470" to-port="1"/>
		<edge from-layer="470" from-port="2" to-layer="471" to-port="0"/>
		<edge from-layer="471" from-port="1" to-layer="472" to-port="0"/>
		<edge from-layer="93" from-port="0" to-layer="472" to-port="1"/>
		<edge from-layer="94" from-port="0" to-layer="472" to-port="2"/>
		<edge from-layer="95" from-port="0" to-layer="472" to-port="3"/>
		<edge from-layer="96" from-port="0" to-layer="472" to-port="4"/>
		<edge from-layer="474" from-port="0" to-layer="475" to-port="0"/>
		<edge from-layer="475" from-port="1" to-layer="476" to-port="0"/>
		<edge from-layer="473" from-port="0" to-layer="476" to-port="1"/>
		<edge from-layer="472" from-port="5" to-layer="477" to-port="0"/>
		<edge from-layer="476" from-port="2" to-layer="477" to-port="1"/>
		<edge from-layer="478" from-port="0" to-layer="479" to-port="0"/>
		<edge from-layer="477" from-port="2" to-layer="480" to-port="0"/>
		<edge from-layer="479" from-port="1" to-layer="480" to-port="1"/>
		<edge from-layer="480" from-port="2" to-layer="481" to-port="0"/>
		<edge from-layer="89" from-port="0" to-layer="481" to-port="1"/>
		<edge from-layer="90" from-port="0" to-layer="481" to-port="2"/>
		<edge from-layer="91" from-port="0" to-layer="481" to-port="3"/>
		<edge from-layer="92" from-port="0" to-layer="481" to-port="4"/>
		<edge from-layer="481" from-port="5" to-layer="482" to-port="0"/>
		<edge from-layer="462" from-port="5" to-layer="482" to-port="1"/>
		<edge from-layer="482" from-port="2" to-layer="483" to-port="0"/>
		<edge from-layer="483" from-port="1" to-layer="484" to-port="0"/>
		<edge from-layer="85" from-port="0" to-layer="484" to-port="1"/>
		<edge from-layer="86" from-port="0" to-layer="484" to-port="2"/>
		<edge from-layer="87" from-port="0" to-layer="484" to-port="3"/>
		<edge from-layer="88" from-port="0" to-layer="484" to-port="4"/>
		<edge from-layer="486" from-port="0" to-layer="487" to-port="0"/>
		<edge from-layer="487" from-port="1" to-layer="488" to-port="0"/>
		<edge from-layer="485" from-port="0" to-layer="488" to-port="1"/>
		<edge from-layer="484" from-port="5" to-layer="489" to-port="0"/>
		<edge from-layer="488" from-port="2" to-layer="489" to-port="1"/>
		<edge from-layer="490" from-port="0" to-layer="491" to-port="0"/>
		<edge from-layer="489" from-port="2" to-layer="492" to-port="0"/>
		<edge from-layer="491" from-port="1" to-layer="492" to-port="1"/>
		<edge from-layer="492" from-port="2" to-layer="493" to-port="0"/>
		<edge from-layer="493" from-port="1" to-layer="494" to-port="0"/>
		<edge from-layer="81" from-port="0" to-layer="494" to-port="1"/>
		<edge from-layer="82" from-port="0" to-layer="494" to-port="2"/>
		<edge from-layer="83" from-port="0" to-layer="494" to-port="3"/>
		<edge from-layer="84" from-port="0" to-layer="494" to-port="4"/>
		<edge from-layer="496" from-port="0" to-layer="497" to-port="0"/>
		<edge from-layer="497" from-port="1" to-layer="498" to-port="0"/>
		<edge from-layer="495" from-port="0" to-layer="498" to-port="1"/>
		<edge from-layer="494" from-port="5" to-layer="499" to-port="0"/>
		<edge from-layer="498" from-port="2" to-layer="499" to-port="1"/>
		<edge from-layer="500" from-port="0" to-layer="501" to-port="0"/>
		<edge from-layer="499" from-port="2" to-layer="502" to-port="0"/>
		<edge from-layer="501" from-port="1" to-layer="502" to-port="1"/>
		<edge from-layer="502" from-port="2" to-layer="503" to-port="0"/>
		<edge from-layer="77" from-port="0" to-layer="503" to-port="1"/>
		<edge from-layer="78" from-port="0" to-layer="503" to-port="2"/>
		<edge from-layer="79" from-port="0" to-layer="503" to-port="3"/>
		<edge from-layer="80" from-port="0" to-layer="503" to-port="4"/>
		<edge from-layer="503" from-port="5" to-layer="504" to-port="0"/>
		<edge from-layer="484" from-port="5" to-layer="504" to-port="1"/>
		<edge from-layer="504" from-port="2" to-layer="505" to-port="0"/>
		<edge from-layer="505" from-port="1" to-layer="506" to-port="0"/>
		<edge from-layer="73" from-port="0" to-layer="506" to-port="1"/>
		<edge from-layer="74" from-port="0" to-layer="506" to-port="2"/>
		<edge from-layer="75" from-port="0" to-layer="506" to-port="3"/>
		<edge from-layer="76" from-port="0" to-layer="506" to-port="4"/>
		<edge from-layer="508" from-port="0" to-layer="509" to-port="0"/>
		<edge from-layer="509" from-port="1" to-layer="510" to-port="0"/>
		<edge from-layer="507" from-port="0" to-layer="510" to-port="1"/>
		<edge from-layer="506" from-port="5" to-layer="511" to-port="0"/>
		<edge from-layer="510" from-port="2" to-layer="511" to-port="1"/>
		<edge from-layer="512" from-port="0" to-layer="513" to-port="0"/>
		<edge from-layer="511" from-port="2" to-layer="514" to-port="0"/>
		<edge from-layer="513" from-port="1" to-layer="514" to-port="1"/>
		<edge from-layer="514" from-port="2" to-layer="515" to-port="0"/>
		<edge from-layer="515" from-port="1" to-layer="516" to-port="0"/>
		<edge from-layer="69" from-port="0" to-layer="516" to-port="1"/>
		<edge from-layer="70" from-port="0" to-layer="516" to-port="2"/>
		<edge from-layer="71" from-port="0" to-layer="516" to-port="3"/>
		<edge from-layer="72" from-port="0" to-layer="516" to-port="4"/>
		<edge from-layer="518" from-port="0" to-layer="519" to-port="0"/>
		<edge from-layer="519" from-port="1" to-layer="520" to-port="0"/>
		<edge from-layer="517" from-port="0" to-layer="520" to-port="1"/>
		<edge from-layer="516" from-port="5" to-layer="521" to-port="0"/>
		<edge from-layer="520" from-port="2" to-layer="521" to-port="1"/>
		<edge from-layer="522" from-port="0" to-layer="523" to-port="0"/>
		<edge from-layer="521" from-port="2" to-layer="524" to-port="0"/>
		<edge from-layer="523" from-port="1" to-layer="524" to-port="1"/>
		<edge from-layer="524" from-port="2" to-layer="525" to-port="0"/>
		<edge from-layer="65" from-port="0" to-layer="525" to-port="1"/>
		<edge from-layer="66" from-port="0" to-layer="525" to-port="2"/>
		<edge from-layer="67" from-port="0" to-layer="525" to-port="3"/>
		<edge from-layer="68" from-port="0" to-layer="525" to-port="4"/>
		<edge from-layer="525" from-port="5" to-layer="526" to-port="0"/>
		<edge from-layer="506" from-port="5" to-layer="526" to-port="1"/>
		<edge from-layer="526" from-port="2" to-layer="527" to-port="0"/>
		<edge from-layer="527" from-port="1" to-layer="528" to-port="0"/>
		<edge from-layer="61" from-port="0" to-layer="528" to-port="1"/>
		<edge from-layer="62" from-port="0" to-layer="528" to-port="2"/>
		<edge from-layer="63" from-port="0" to-layer="528" to-port="3"/>
		<edge from-layer="64" from-port="0" to-layer="528" to-port="4"/>
		<edge from-layer="530" from-port="0" to-layer="531" to-port="0"/>
		<edge from-layer="531" from-port="1" to-layer="532" to-port="0"/>
		<edge from-layer="529" from-port="0" to-layer="532" to-port="1"/>
		<edge from-layer="528" from-port="5" to-layer="533" to-port="0"/>
		<edge from-layer="532" from-port="2" to-layer="533" to-port="1"/>
		<edge from-layer="534" from-port="0" to-layer="535" to-port="0"/>
		<edge from-layer="533" from-port="2" to-layer="536" to-port="0"/>
		<edge from-layer="535" from-port="1" to-layer="536" to-port="1"/>
		<edge from-layer="536" from-port="2" to-layer="537" to-port="0"/>
		<edge from-layer="537" from-port="1" to-layer="538" to-port="0"/>
		<edge from-layer="57" from-port="0" to-layer="538" to-port="1"/>
		<edge from-layer="58" from-port="0" to-layer="538" to-port="2"/>
		<edge from-layer="59" from-port="0" to-layer="538" to-port="3"/>
		<edge from-layer="60" from-port="0" to-layer="538" to-port="4"/>
		<edge from-layer="540" from-port="0" to-layer="541" to-port="0"/>
		<edge from-layer="541" from-port="1" to-layer="542" to-port="0"/>
		<edge from-layer="539" from-port="0" to-layer="542" to-port="1"/>
		<edge from-layer="538" from-port="5" to-layer="543" to-port="0"/>
		<edge from-layer="542" from-port="2" to-layer="543" to-port="1"/>
		<edge from-layer="544" from-port="0" to-layer="545" to-port="0"/>
		<edge from-layer="543" from-port="2" to-layer="546" to-port="0"/>
		<edge from-layer="545" from-port="1" to-layer="546" to-port="1"/>
		<edge from-layer="546" from-port="2" to-layer="547" to-port="0"/>
		<edge from-layer="53" from-port="0" to-layer="547" to-port="1"/>
		<edge from-layer="54" from-port="0" to-layer="547" to-port="2"/>
		<edge from-layer="55" from-port="0" to-layer="547" to-port="3"/>
		<edge from-layer="56" from-port="0" to-layer="547" to-port="4"/>
		<edge from-layer="553" from-port="0" to-layer="554" to-port="0"/>
		<edge from-layer="554" from-port="1" to-layer="555" to-port="0"/>
		<edge from-layer="552" from-port="0" to-layer="555" to-port="1"/>
		<edge from-layer="528" from-port="5" to-layer="556" to-port="0"/>
		<edge from-layer="555" from-port="2" to-layer="556" to-port="1"/>
		<edge from-layer="557" from-port="0" to-layer="558" to-port="0"/>
		<edge from-layer="556" from-port="2" to-layer="559" to-port="0"/>
		<edge from-layer="558" from-port="1" to-layer="559" to-port="1"/>
		<edge from-layer="559" from-port="2" to-layer="560" to-port="0"/>
		<edge from-layer="548" from-port="0" to-layer="560" to-port="1"/>
		<edge from-layer="549" from-port="0" to-layer="560" to-port="2"/>
		<edge from-layer="550" from-port="0" to-layer="560" to-port="3"/>
		<edge from-layer="551" from-port="0" to-layer="560" to-port="4"/>
		<edge from-layer="547" from-port="5" to-layer="561" to-port="0"/>
		<edge from-layer="560" from-port="5" to-layer="561" to-port="1"/>
		<edge from-layer="561" from-port="2" to-layer="562" to-port="0"/>
		<edge from-layer="562" from-port="1" to-layer="563" to-port="0"/>
		<edge from-layer="49" from-port="0" to-layer="563" to-port="1"/>
		<edge from-layer="50" from-port="0" to-layer="563" to-port="2"/>
		<edge from-layer="51" from-port="0" to-layer="563" to-port="3"/>
		<edge from-layer="52" from-port="0" to-layer="563" to-port="4"/>
		<edge from-layer="565" from-port="0" to-layer="566" to-port="0"/>
		<edge from-layer="566" from-port="1" to-layer="567" to-port="0"/>
		<edge from-layer="564" from-port="0" to-layer="567" to-port="1"/>
		<edge from-layer="563" from-port="5" to-layer="568" to-port="0"/>
		<edge from-layer="567" from-port="2" to-layer="568" to-port="1"/>
		<edge from-layer="569" from-port="0" to-layer="570" to-port="0"/>
		<edge from-layer="568" from-port="2" to-layer="571" to-port="0"/>
		<edge from-layer="570" from-port="1" to-layer="571" to-port="1"/>
		<edge from-layer="571" from-port="2" to-layer="572" to-port="0"/>
		<edge from-layer="572" from-port="1" to-layer="573" to-port="0"/>
		<edge from-layer="45" from-port="0" to-layer="573" to-port="1"/>
		<edge from-layer="46" from-port="0" to-layer="573" to-port="2"/>
		<edge from-layer="47" from-port="0" to-layer="573" to-port="3"/>
		<edge from-layer="48" from-port="0" to-layer="573" to-port="4"/>
		<edge from-layer="575" from-port="0" to-layer="576" to-port="0"/>
		<edge from-layer="576" from-port="1" to-layer="577" to-port="0"/>
		<edge from-layer="574" from-port="0" to-layer="577" to-port="1"/>
		<edge from-layer="573" from-port="5" to-layer="578" to-port="0"/>
		<edge from-layer="577" from-port="2" to-layer="578" to-port="1"/>
		<edge from-layer="579" from-port="0" to-layer="580" to-port="0"/>
		<edge from-layer="578" from-port="2" to-layer="581" to-port="0"/>
		<edge from-layer="580" from-port="1" to-layer="581" to-port="1"/>
		<edge from-layer="581" from-port="2" to-layer="582" to-port="0"/>
		<edge from-layer="41" from-port="0" to-layer="582" to-port="1"/>
		<edge from-layer="42" from-port="0" to-layer="582" to-port="2"/>
		<edge from-layer="43" from-port="0" to-layer="582" to-port="3"/>
		<edge from-layer="44" from-port="0" to-layer="582" to-port="4"/>
		<edge from-layer="582" from-port="5" to-layer="583" to-port="0"/>
		<edge from-layer="563" from-port="5" to-layer="583" to-port="1"/>
		<edge from-layer="583" from-port="2" to-layer="584" to-port="0"/>
		<edge from-layer="584" from-port="1" to-layer="585" to-port="0"/>
		<edge from-layer="37" from-port="0" to-layer="585" to-port="1"/>
		<edge from-layer="38" from-port="0" to-layer="585" to-port="2"/>
		<edge from-layer="39" from-port="0" to-layer="585" to-port="3"/>
		<edge from-layer="40" from-port="0" to-layer="585" to-port="4"/>
		<edge from-layer="587" from-port="0" to-layer="588" to-port="0"/>
		<edge from-layer="588" from-port="1" to-layer="589" to-port="0"/>
		<edge from-layer="586" from-port="0" to-layer="589" to-port="1"/>
		<edge from-layer="585" from-port="5" to-layer="590" to-port="0"/>
		<edge from-layer="589" from-port="2" to-layer="590" to-port="1"/>
		<edge from-layer="591" from-port="0" to-layer="592" to-port="0"/>
		<edge from-layer="590" from-port="2" to-layer="593" to-port="0"/>
		<edge from-layer="592" from-port="1" to-layer="593" to-port="1"/>
		<edge from-layer="593" from-port="2" to-layer="594" to-port="0"/>
		<edge from-layer="594" from-port="1" to-layer="595" to-port="0"/>
		<edge from-layer="33" from-port="0" to-layer="595" to-port="1"/>
		<edge from-layer="34" from-port="0" to-layer="595" to-port="2"/>
		<edge from-layer="35" from-port="0" to-layer="595" to-port="3"/>
		<edge from-layer="36" from-port="0" to-layer="595" to-port="4"/>
		<edge from-layer="597" from-port="0" to-layer="598" to-port="0"/>
		<edge from-layer="598" from-port="1" to-layer="599" to-port="0"/>
		<edge from-layer="596" from-port="0" to-layer="599" to-port="1"/>
		<edge from-layer="595" from-port="5" to-layer="600" to-port="0"/>
		<edge from-layer="599" from-port="2" to-layer="600" to-port="1"/>
		<edge from-layer="601" from-port="0" to-layer="602" to-port="0"/>
		<edge from-layer="600" from-port="2" to-layer="603" to-port="0"/>
		<edge from-layer="602" from-port="1" to-layer="603" to-port="1"/>
		<edge from-layer="603" from-port="2" to-layer="604" to-port="0"/>
		<edge from-layer="29" from-port="0" to-layer="604" to-port="1"/>
		<edge from-layer="30" from-port="0" to-layer="604" to-port="2"/>
		<edge from-layer="31" from-port="0" to-layer="604" to-port="3"/>
		<edge from-layer="32" from-port="0" to-layer="604" to-port="4"/>
		<edge from-layer="604" from-port="5" to-layer="605" to-port="0"/>
		<edge from-layer="585" from-port="5" to-layer="605" to-port="1"/>
		<edge from-layer="605" from-port="2" to-layer="606" to-port="0"/>
		<edge from-layer="606" from-port="1" to-layer="607" to-port="0"/>
		<edge from-layer="25" from-port="0" to-layer="607" to-port="1"/>
		<edge from-layer="26" from-port="0" to-layer="607" to-port="2"/>
		<edge from-layer="27" from-port="0" to-layer="607" to-port="3"/>
		<edge from-layer="28" from-port="0" to-layer="607" to-port="4"/>
		<edge from-layer="607" from-port="5" to-layer="608" to-port="0"/>
		<edge from-layer="608" from-port="1" to-layer="609" to-port="0"/>
	</edges>
	<meta_data>
		<MO_version value="custom_HEAD_0e242b324458ed332f0907ac6d88fc24b610d9b9"/>
		<Runtime_version value="2022.3.0-000-0e242b32445-HEAD"/>
		<legacy_path value="True"/>
		<cli_parameters>
			<caffe_parser_path value="DIR"/>
			<data_type value="FP16"/>
			<disable_nhwc_to_nchw value="False"/>
			<disable_omitting_optional value="False"/>
			<disable_resnet_optimization value="False"/>
			<disable_weights_compression value="False"/>
			<enable_concat_optimization value="False"/>
			<enable_flattening_nested_params value="False"/>
			<enable_ssd_gluoncv value="False"/>
			<extensions value="['/opt/home/sys_k8sworker/workspace/DL-Benchmark/try/convert']"/>
			<framework value="onnx"/>
			<input value="0"/>
			<input_model value="DIR/action_recognition_0001_encoder.onnx"/>
			<input_model_is_text value="False"/>
			<input_shape value="[1,3,224,224]"/>
			<k value="DIR/CustomLayersMapping.xml"/>
			<layout value="0(nchw)"/>
			<legacy_mxnet_model value="False"/>
			<log_level value="ERROR"/>
			<mean_values value="0[123.675,116.28,103.53]"/>
			<model_name value="action-recognition-0001-encoder"/>
			<output value="371"/>
			<output_dir value="DIR"/>
			<progress value="False"/>
			<remove_memory value="False"/>
			<remove_output_softmax value="False"/>
			<reverse_input_channels value="True"/>
			<save_params_from_nd value="False"/>
			<scale_values value="0[58.395,57.12,57.375]"/>
			<silent value="True"/>
			<source_layout value="()"/>
			<static_shape value="False"/>
			<stream_output value="False"/>
			<target_layout value="()"/>
			<transform value=""/>
			<use_legacy_frontend value="False"/>
			<use_new_frontend value="False"/>
			<unset unset_cli_parameters="batch, counts, disable_fusing, finegrain_fusing, freeze_placeholder_with_value, input_checkpoint, input_meta_graph, input_proto, input_symbol, mean_file, mean_file_offsets, nd_prefix_name, pretrained_model_name, saved_model_dir, saved_model_tags, scale, tensorboard_logdir, tensorflow_custom_layer_libraries, tensorflow_custom_operations_config_update, tensorflow_object_detection_api_pipeline_config, tensorflow_use_custom_operations_config, transformations_config"/>
		</cli_parameters>
	</meta_data>
	<quantization_parameters>
		<config>{
		'compression': {
			'algorithms': [
				{
					'name': 'DefaultQuantization',
					'params': {
						'ignored': {
							'decoder': {
								'scope': [
									'674'
								]
							}
						},
						'stat_subset_size': 300
					}
				}
			],
			'dump_intermediate_model': true
		},
		'engine': {
			'evaluations': [
				{
					'name': 'action-recognition-0001',
					'module': 'custom_evaluators.sequential_action_recognition_evaluator.SequentialActionRecognitionEvaluator',
					'module_config': {
						'network_info': {
							'encoder': {},
							'decoder': {
								'num_processing_frames': 16,
								'adapter': 'classification'
							}
						},
						'launchers': [
							{
								'framework': 'openvino',
								'device': 'cpu'
							}
						],
						'datasets': [
							{
								'name': 'kinetics-400',
								'data_source': 'PATH',
								'annotation_conversion': {
									'converter': 'clip_action_recognition',
									'annotation_file': 'PATH',
									'data_dir': 'PATH'
								},
								'annotation': 'PATH',
								'dataset_meta': 'PATH',
								'preprocessing': [
									{
										'type': 'resize',
										'size': 224,
										'aspect_ratio_scale': 'fit_to_window'
									},
									{
										'type': 'crop',
										'size': 224
									}
								],
								'metrics': [
									{
										'type': 'clip_accuracy',
										'presenter': 'print_vector',
										'reference': {
											'clip_accuracy': 0.565,
											'video_accuracy': 0.565283,
											'mean': 0.565141
										}
									}
								],
								'_command_line_mapping': {
									'annotation_file': 'PATH',
									'data_dir': 'PATH'
								},
								'_profile': false,
								'_report_type': 'csv'
							}
						]
					}
				}
			],
			'stat_requests_number': null,
			'eval_requests_number': null,
			'type': 'accuracy_checker'
		}
	}</config>
		<version value="invalid version"/>
		<cli_params value="{'quantize': None, 'preset': None, 'model': None, 'weights': None, 'name': None, 'engine': None, 'ac_config': None, 'max_drop': None, 'evaluate': False, 'output_dir': 'PATH', 'direct_dump': True, 'log_level': 'INFO', 'pbar': False, 'stream_output': False, 'keep_uncompressed_weights': False, 'data_source': None}"/>
	</quantization_parameters>
</net>
