<?xml version="1.0"?>
<net name="i3d-rgb-tf" version="11">
	<layers>
		<layer id="0" name="Placeholder" type="Parameter" version="opset1">
			<data shape="1,79,224,224,3" element_type="f32" />
			<rt_info>
				<attribute name="old_api_map_order" version="0" value="0, 2, 3, 4, 1" />
			</rt_info>
			<output>
				<port id="0" precision="FP32" names="Placeholder,Placeholder:0">
					<dim>1</dim>
					<dim>79</dim>
					<dim>224</dim>
					<dim>224</dim>
					<dim>3</dim>
					<rt_info>
						<attribute name="layout" version="0" layout="[N,D,H,W,C]" />
					</rt_info>
				</port>
			</output>
		</layer>
		<layer id="1" name="Placeholder/Transpose([0 4 1 2 3])/value939112693" type="Const" version="opset1">
			<data element_type="i64" shape="5" offset="0" size="40" />
			<output>
				<port id="0" precision="I64">
					<dim>5</dim>
				</port>
			</output>
		</layer>
		<layer id="2" name="Subtract_648" type="Transpose" version="opset1">
			<input>
				<port id="0" precision="FP32">
					<dim>1</dim>
					<dim>79</dim>
					<dim>224</dim>
					<dim>224</dim>
					<dim>3</dim>
				</port>
				<port id="1" precision="I64">
					<dim>5</dim>
				</port>
			</input>
			<output>
				<port id="2" precision="FP32">
					<dim>1</dim>
					<dim>3</dim>
					<dim>79</dim>
					<dim>224</dim>
					<dim>224</dim>
				</port>
			</output>
		</layer>
		<layer id="3" name="Constant_1730" type="Const" version="opset1">
			<data element_type="f32" shape="1, 1, 1, 1, 1" offset="40" size="4" />
			<output>
				<port id="0" precision="FP32">
					<dim>1</dim>
					<dim>1</dim>
					<dim>1</dim>
					<dim>1</dim>
					<dim>1</dim>
				</port>
			</output>
		</layer>
		<layer id="4" name="Subtract_1636" type="Subtract" version="opset1">
			<data auto_broadcast="numpy" />
			<input>
				<port id="0" precision="FP32">
					<dim>1</dim>
					<dim>3</dim>
					<dim>79</dim>
					<dim>224</dim>
					<dim>224</dim>
				</port>
				<port id="1" precision="FP32">
					<dim>1</dim>
					<dim>1</dim>
					<dim>1</dim>
					<dim>1</dim>
					<dim>1</dim>
				</port>
			</input>
			<output>
				<port id="2" precision="FP32">
					<dim>1</dim>
					<dim>3</dim>
					<dim>79</dim>
					<dim>224</dim>
					<dim>224</dim>
				</port>
			</output>
		</layer>
		<layer id="5" name="Constant_1668" type="Const" version="opset1">
			<data element_type="f32" shape="64, 3, 7, 7, 7" offset="44" size="263424" />
			<rt_info>
				<attribute name="preprocessing" version="0" />
			</rt_info>
			<output>
				<port id="0" precision="FP32">
					<dim>64</dim>
					<dim>3</dim>
					<dim>7</dim>
					<dim>7</dim>
					<dim>7</dim>
				</port>
			</output>
		</layer>
		<layer id="6" name="RGB/inception_i3d/Conv3d_1a_7x7/conv_3d/convolution" type="Convolution" version="opset1">
			<data strides="2, 2, 2" dilations="1, 1, 1" pads_begin="0, 0, 0" pads_end="0, 0, 0" auto_pad="same_upper" />
			<rt_info>
				<attribute name="preprocessing" version="0" />
			</rt_info>
			<input>
				<port id="0" precision="FP32">
					<dim>1</dim>
					<dim>3</dim>
					<dim>79</dim>
					<dim>224</dim>
					<dim>224</dim>
				</port>
				<port id="1" precision="FP32">
					<dim>64</dim>
					<dim>3</dim>
					<dim>7</dim>
					<dim>7</dim>
					<dim>7</dim>
				</port>
			</input>
			<output>
				<port id="2" precision="FP32" names="RGB/inception_i3d/Conv3d_1a_7x7/batch_norm/batch_norm/mul:0">
					<dim>1</dim>
					<dim>64</dim>
					<dim>40</dim>
					<dim>112</dim>
					<dim>112</dim>
				</port>
			</output>
		</layer>
		<layer id="7" name="RGB/inception_i3d/Conv3d_1a_7x7/batch_norm/batch_norm/sub" type="Const" version="opset1">
			<data element_type="f32" shape="1, 64, 1, 1, 1" offset="263468" size="256" />
			<output>
				<port id="0" precision="FP32" names="RGB/inception_i3d/Conv3d_1a_7x7/batch_norm/batch_norm/sub:0">
					<dim>1</dim>
					<dim>64</dim>
					<dim>1</dim>
					<dim>1</dim>
					<dim>1</dim>
				</port>
			</output>
		</layer>
		<layer id="8" name="RGB/inception_i3d/Conv3d_1a_7x7/batch_norm/batch_norm/add_1" type="Add" version="opset1">
			<data auto_broadcast="numpy" />
			<input>
				<port id="0" precision="FP32">
					<dim>1</dim>
					<dim>64</dim>
					<dim>40</dim>
					<dim>112</dim>
					<dim>112</dim>
				</port>
				<port id="1" precision="FP32">
					<dim>1</dim>
					<dim>64</dim>
					<dim>1</dim>
					<dim>1</dim>
					<dim>1</dim>
				</port>
			</input>
			<output>
				<port id="2" precision="FP32" names="RGB/inception_i3d/Conv3d_1a_7x7/batch_norm/batch_norm/add_1:0">
					<dim>1</dim>
					<dim>64</dim>
					<dim>40</dim>
					<dim>112</dim>
					<dim>112</dim>
				</port>
			</output>
		</layer>
		<layer id="9" name="RGB/inception_i3d/Conv3d_1a_7x7/Relu" type="ReLU" version="opset1">
			<input>
				<port id="0" precision="FP32">
					<dim>1</dim>
					<dim>64</dim>
					<dim>40</dim>
					<dim>112</dim>
					<dim>112</dim>
				</port>
			</input>
			<output>
				<port id="1" precision="FP32" names="RGB/inception_i3d/Conv3d_1a_7x7/Relu:0">
					<dim>1</dim>
					<dim>64</dim>
					<dim>40</dim>
					<dim>112</dim>
					<dim>112</dim>
				</port>
			</output>
		</layer>
		<layer id="10" name="RGB/inception_i3d/MaxPool3d_2a_3x3" type="MaxPool" version="opset8">
			<data strides="1, 2, 2" dilations="1, 1, 1" pads_begin="0, 0, 0" pads_end="0, 0, 0" kernel="1, 3, 3" rounding_type="floor" auto_pad="same_upper" index_element_type="i64" axis="0" />
			<input>
				<port id="0" precision="FP32">
					<dim>1</dim>
					<dim>64</dim>
					<dim>40</dim>
					<dim>112</dim>
					<dim>112</dim>
				</port>
			</input>
			<output>
				<port id="1" precision="FP32" names="RGB/inception_i3d/MaxPool3d_2a_3x3:0">
					<dim>1</dim>
					<dim>64</dim>
					<dim>40</dim>
					<dim>56</dim>
					<dim>56</dim>
				</port>
				<port id="2" precision="I64">
					<dim>1</dim>
					<dim>64</dim>
					<dim>40</dim>
					<dim>56</dim>
					<dim>56</dim>
				</port>
			</output>
		</layer>
		<layer id="11" name="RGB/inception_i3d/Conv3d_2b_1x1/batch_norm/batch_norm/mul_copy" type="Const" version="opset1">
			<data element_type="f32" shape="64, 64, 1, 1, 1" offset="263724" size="16384" />
			<output>
				<port id="0" precision="FP32" names="RGB/inception_i3d/Conv3d_2b_1x1/conv_3d/w/read:0">
					<dim>64</dim>
					<dim>64</dim>
					<dim>1</dim>
					<dim>1</dim>
					<dim>1</dim>
				</port>
			</output>
		</layer>
		<layer id="12" name="RGB/inception_i3d/Conv3d_2b_1x1/conv_3d/convolution" type="Convolution" version="opset1">
			<data strides="1, 1, 1" dilations="1, 1, 1" pads_begin="0, 0, 0" pads_end="0, 0, 0" auto_pad="same_upper" />
			<input>
				<port id="0" precision="FP32">
					<dim>1</dim>
					<dim>64</dim>
					<dim>40</dim>
					<dim>56</dim>
					<dim>56</dim>
				</port>
				<port id="1" precision="FP32">
					<dim>64</dim>
					<dim>64</dim>
					<dim>1</dim>
					<dim>1</dim>
					<dim>1</dim>
				</port>
			</input>
			<output>
				<port id="2" precision="FP32" names="RGB/inception_i3d/Conv3d_2b_1x1/batch_norm/batch_norm/mul:0">
					<dim>1</dim>
					<dim>64</dim>
					<dim>40</dim>
					<dim>56</dim>
					<dim>56</dim>
				</port>
			</output>
		</layer>
		<layer id="13" name="RGB/inception_i3d/Conv3d_2b_1x1/batch_norm/batch_norm/sub" type="Const" version="opset1">
			<data element_type="f32" shape="1, 64, 1, 1, 1" offset="280108" size="256" />
			<output>
				<port id="0" precision="FP32" names="RGB/inception_i3d/Conv3d_2b_1x1/batch_norm/batch_norm/sub:0">
					<dim>1</dim>
					<dim>64</dim>
					<dim>1</dim>
					<dim>1</dim>
					<dim>1</dim>
				</port>
			</output>
		</layer>
		<layer id="14" name="RGB/inception_i3d/Conv3d_2b_1x1/batch_norm/batch_norm/add_1" type="Add" version="opset1">
			<data auto_broadcast="numpy" />
			<input>
				<port id="0" precision="FP32">
					<dim>1</dim>
					<dim>64</dim>
					<dim>40</dim>
					<dim>56</dim>
					<dim>56</dim>
				</port>
				<port id="1" precision="FP32">
					<dim>1</dim>
					<dim>64</dim>
					<dim>1</dim>
					<dim>1</dim>
					<dim>1</dim>
				</port>
			</input>
			<output>
				<port id="2" precision="FP32" names="RGB/inception_i3d/Conv3d_2b_1x1/batch_norm/batch_norm/add_1:0">
					<dim>1</dim>
					<dim>64</dim>
					<dim>40</dim>
					<dim>56</dim>
					<dim>56</dim>
				</port>
			</output>
		</layer>
		<layer id="15" name="RGB/inception_i3d/Conv3d_2b_1x1/Relu" type="ReLU" version="opset1">
			<input>
				<port id="0" precision="FP32">
					<dim>1</dim>
					<dim>64</dim>
					<dim>40</dim>
					<dim>56</dim>
					<dim>56</dim>
				</port>
			</input>
			<output>
				<port id="1" precision="FP32" names="RGB/inception_i3d/Conv3d_2b_1x1/Relu:0">
					<dim>1</dim>
					<dim>64</dim>
					<dim>40</dim>
					<dim>56</dim>
					<dim>56</dim>
				</port>
			</output>
		</layer>
		<layer id="16" name="RGB/inception_i3d/Conv3d_2c_3x3/batch_norm/batch_norm/mul_copy" type="Const" version="opset1">
			<data element_type="f32" shape="192, 64, 3, 3, 3" offset="280364" size="1327104" />
			<output>
				<port id="0" precision="FP32" names="RGB/inception_i3d/Conv3d_2c_3x3/conv_3d/w/read:0">
					<dim>192</dim>
					<dim>64</dim>
					<dim>3</dim>
					<dim>3</dim>
					<dim>3</dim>
				</port>
			</output>
		</layer>
		<layer id="17" name="RGB/inception_i3d/Conv3d_2c_3x3/conv_3d/convolution" type="Convolution" version="opset1">
			<data strides="1, 1, 1" dilations="1, 1, 1" pads_begin="0, 0, 0" pads_end="0, 0, 0" auto_pad="same_upper" />
			<input>
				<port id="0" precision="FP32">
					<dim>1</dim>
					<dim>64</dim>
					<dim>40</dim>
					<dim>56</dim>
					<dim>56</dim>
				</port>
				<port id="1" precision="FP32">
					<dim>192</dim>
					<dim>64</dim>
					<dim>3</dim>
					<dim>3</dim>
					<dim>3</dim>
				</port>
			</input>
			<output>
				<port id="2" precision="FP32" names="RGB/inception_i3d/Conv3d_2c_3x3/batch_norm/batch_norm/mul:0">
					<dim>1</dim>
					<dim>192</dim>
					<dim>40</dim>
					<dim>56</dim>
					<dim>56</dim>
				</port>
			</output>
		</layer>
		<layer id="18" name="RGB/inception_i3d/Conv3d_2c_3x3/batch_norm/batch_norm/sub" type="Const" version="opset1">
			<data element_type="f32" shape="1, 192, 1, 1, 1" offset="1607468" size="768" />
			<output>
				<port id="0" precision="FP32" names="RGB/inception_i3d/Conv3d_2c_3x3/batch_norm/batch_norm/sub:0">
					<dim>1</dim>
					<dim>192</dim>
					<dim>1</dim>
					<dim>1</dim>
					<dim>1</dim>
				</port>
			</output>
		</layer>
		<layer id="19" name="RGB/inception_i3d/Conv3d_2c_3x3/batch_norm/batch_norm/add_1" type="Add" version="opset1">
			<data auto_broadcast="numpy" />
			<input>
				<port id="0" precision="FP32">
					<dim>1</dim>
					<dim>192</dim>
					<dim>40</dim>
					<dim>56</dim>
					<dim>56</dim>
				</port>
				<port id="1" precision="FP32">
					<dim>1</dim>
					<dim>192</dim>
					<dim>1</dim>
					<dim>1</dim>
					<dim>1</dim>
				</port>
			</input>
			<output>
				<port id="2" precision="FP32" names="RGB/inception_i3d/Conv3d_2c_3x3/batch_norm/batch_norm/add_1:0">
					<dim>1</dim>
					<dim>192</dim>
					<dim>40</dim>
					<dim>56</dim>
					<dim>56</dim>
				</port>
			</output>
		</layer>
		<layer id="20" name="RGB/inception_i3d/Conv3d_2c_3x3/Relu" type="ReLU" version="opset1">
			<input>
				<port id="0" precision="FP32">
					<dim>1</dim>
					<dim>192</dim>
					<dim>40</dim>
					<dim>56</dim>
					<dim>56</dim>
				</port>
			</input>
			<output>
				<port id="1" precision="FP32" names="RGB/inception_i3d/Conv3d_2c_3x3/Relu:0">
					<dim>1</dim>
					<dim>192</dim>
					<dim>40</dim>
					<dim>56</dim>
					<dim>56</dim>
				</port>
			</output>
		</layer>
		<layer id="21" name="RGB/inception_i3d/MaxPool3d_3a_3x3" type="MaxPool" version="opset8">
			<data strides="1, 2, 2" dilations="1, 1, 1" pads_begin="0, 0, 0" pads_end="0, 0, 0" kernel="1, 3, 3" rounding_type="floor" auto_pad="same_upper" index_element_type="i64" axis="0" />
			<input>
				<port id="0" precision="FP32">
					<dim>1</dim>
					<dim>192</dim>
					<dim>40</dim>
					<dim>56</dim>
					<dim>56</dim>
				</port>
			</input>
			<output>
				<port id="1" precision="FP32" names="RGB/inception_i3d/MaxPool3d_3a_3x3:0">
					<dim>1</dim>
					<dim>192</dim>
					<dim>40</dim>
					<dim>28</dim>
					<dim>28</dim>
				</port>
				<port id="2" precision="I64">
					<dim>1</dim>
					<dim>192</dim>
					<dim>40</dim>
					<dim>28</dim>
					<dim>28</dim>
				</port>
			</output>
		</layer>
		<layer id="22" name="RGB/inception_i3d/Mixed_3b/Branch_0/Conv3d_0a_1x1/batch_norm/batch_norm/mul_copy" type="Const" version="opset1">
			<data element_type="f32" shape="64, 192, 1, 1, 1" offset="1608236" size="49152" />
			<output>
				<port id="0" precision="FP32" names="RGB/inception_i3d/Mixed_3b/Branch_0/Conv3d_0a_1x1/conv_3d/w/read:0">
					<dim>64</dim>
					<dim>192</dim>
					<dim>1</dim>
					<dim>1</dim>
					<dim>1</dim>
				</port>
			</output>
		</layer>
		<layer id="23" name="RGB/inception_i3d/Mixed_3b/Branch_0/Conv3d_0a_1x1/conv_3d/convolution" type="Convolution" version="opset1">
			<data strides="1, 1, 1" dilations="1, 1, 1" pads_begin="0, 0, 0" pads_end="0, 0, 0" auto_pad="same_upper" />
			<input>
				<port id="0" precision="FP32">
					<dim>1</dim>
					<dim>192</dim>
					<dim>40</dim>
					<dim>28</dim>
					<dim>28</dim>
				</port>
				<port id="1" precision="FP32">
					<dim>64</dim>
					<dim>192</dim>
					<dim>1</dim>
					<dim>1</dim>
					<dim>1</dim>
				</port>
			</input>
			<output>
				<port id="2" precision="FP32" names="RGB/inception_i3d/Mixed_3b/Branch_0/Conv3d_0a_1x1/batch_norm/batch_norm/mul:0">
					<dim>1</dim>
					<dim>64</dim>
					<dim>40</dim>
					<dim>28</dim>
					<dim>28</dim>
				</port>
			</output>
		</layer>
		<layer id="24" name="RGB/inception_i3d/Mixed_3b/Branch_0/Conv3d_0a_1x1/batch_norm/batch_norm/sub" type="Const" version="opset1">
			<data element_type="f32" shape="1, 64, 1, 1, 1" offset="1657388" size="256" />
			<output>
				<port id="0" precision="FP32" names="RGB/inception_i3d/Mixed_3b/Branch_0/Conv3d_0a_1x1/batch_norm/batch_norm/sub:0">
					<dim>1</dim>
					<dim>64</dim>
					<dim>1</dim>
					<dim>1</dim>
					<dim>1</dim>
				</port>
			</output>
		</layer>
		<layer id="25" name="RGB/inception_i3d/Mixed_3b/Branch_0/Conv3d_0a_1x1/batch_norm/batch_norm/add_1" type="Add" version="opset1">
			<data auto_broadcast="numpy" />
			<input>
				<port id="0" precision="FP32">
					<dim>1</dim>
					<dim>64</dim>
					<dim>40</dim>
					<dim>28</dim>
					<dim>28</dim>
				</port>
				<port id="1" precision="FP32">
					<dim>1</dim>
					<dim>64</dim>
					<dim>1</dim>
					<dim>1</dim>
					<dim>1</dim>
				</port>
			</input>
			<output>
				<port id="2" precision="FP32" names="RGB/inception_i3d/Mixed_3b/Branch_0/Conv3d_0a_1x1/batch_norm/batch_norm/add_1:0">
					<dim>1</dim>
					<dim>64</dim>
					<dim>40</dim>
					<dim>28</dim>
					<dim>28</dim>
				</port>
			</output>
		</layer>
		<layer id="26" name="RGB/inception_i3d/Mixed_3b/Branch_0/Conv3d_0a_1x1/Relu" type="ReLU" version="opset1">
			<input>
				<port id="0" precision="FP32">
					<dim>1</dim>
					<dim>64</dim>
					<dim>40</dim>
					<dim>28</dim>
					<dim>28</dim>
				</port>
			</input>
			<output>
				<port id="1" precision="FP32" names="RGB/inception_i3d/Mixed_3b/Branch_0/Conv3d_0a_1x1/Relu:0">
					<dim>1</dim>
					<dim>64</dim>
					<dim>40</dim>
					<dim>28</dim>
					<dim>28</dim>
				</port>
			</output>
		</layer>
		<layer id="27" name="RGB/inception_i3d/Mixed_3b/Branch_1/Conv3d_0a_1x1/batch_norm/batch_norm/mul_copy" type="Const" version="opset1">
			<data element_type="f32" shape="96, 192, 1, 1, 1" offset="1657644" size="73728" />
			<output>
				<port id="0" precision="FP32" names="RGB/inception_i3d/Mixed_3b/Branch_1/Conv3d_0a_1x1/conv_3d/w/read:0">
					<dim>96</dim>
					<dim>192</dim>
					<dim>1</dim>
					<dim>1</dim>
					<dim>1</dim>
				</port>
			</output>
		</layer>
		<layer id="28" name="RGB/inception_i3d/Mixed_3b/Branch_1/Conv3d_0a_1x1/conv_3d/convolution" type="Convolution" version="opset1">
			<data strides="1, 1, 1" dilations="1, 1, 1" pads_begin="0, 0, 0" pads_end="0, 0, 0" auto_pad="same_upper" />
			<input>
				<port id="0" precision="FP32">
					<dim>1</dim>
					<dim>192</dim>
					<dim>40</dim>
					<dim>28</dim>
					<dim>28</dim>
				</port>
				<port id="1" precision="FP32">
					<dim>96</dim>
					<dim>192</dim>
					<dim>1</dim>
					<dim>1</dim>
					<dim>1</dim>
				</port>
			</input>
			<output>
				<port id="2" precision="FP32" names="RGB/inception_i3d/Mixed_3b/Branch_1/Conv3d_0a_1x1/batch_norm/batch_norm/mul:0">
					<dim>1</dim>
					<dim>96</dim>
					<dim>40</dim>
					<dim>28</dim>
					<dim>28</dim>
				</port>
			</output>
		</layer>
		<layer id="29" name="RGB/inception_i3d/Mixed_3b/Branch_1/Conv3d_0a_1x1/batch_norm/batch_norm/sub" type="Const" version="opset1">
			<data element_type="f32" shape="1, 96, 1, 1, 1" offset="1731372" size="384" />
			<output>
				<port id="0" precision="FP32" names="RGB/inception_i3d/Mixed_3b/Branch_1/Conv3d_0a_1x1/batch_norm/batch_norm/sub:0">
					<dim>1</dim>
					<dim>96</dim>
					<dim>1</dim>
					<dim>1</dim>
					<dim>1</dim>
				</port>
			</output>
		</layer>
		<layer id="30" name="RGB/inception_i3d/Mixed_3b/Branch_1/Conv3d_0a_1x1/batch_norm/batch_norm/add_1" type="Add" version="opset1">
			<data auto_broadcast="numpy" />
			<input>
				<port id="0" precision="FP32">
					<dim>1</dim>
					<dim>96</dim>
					<dim>40</dim>
					<dim>28</dim>
					<dim>28</dim>
				</port>
				<port id="1" precision="FP32">
					<dim>1</dim>
					<dim>96</dim>
					<dim>1</dim>
					<dim>1</dim>
					<dim>1</dim>
				</port>
			</input>
			<output>
				<port id="2" precision="FP32" names="RGB/inception_i3d/Mixed_3b/Branch_1/Conv3d_0a_1x1/batch_norm/batch_norm/add_1:0">
					<dim>1</dim>
					<dim>96</dim>
					<dim>40</dim>
					<dim>28</dim>
					<dim>28</dim>
				</port>
			</output>
		</layer>
		<layer id="31" name="RGB/inception_i3d/Mixed_3b/Branch_1/Conv3d_0a_1x1/Relu" type="ReLU" version="opset1">
			<input>
				<port id="0" precision="FP32">
					<dim>1</dim>
					<dim>96</dim>
					<dim>40</dim>
					<dim>28</dim>
					<dim>28</dim>
				</port>
			</input>
			<output>
				<port id="1" precision="FP32" names="RGB/inception_i3d/Mixed_3b/Branch_1/Conv3d_0a_1x1/Relu:0">
					<dim>1</dim>
					<dim>96</dim>
					<dim>40</dim>
					<dim>28</dim>
					<dim>28</dim>
				</port>
			</output>
		</layer>
		<layer id="32" name="RGB/inception_i3d/Mixed_3b/Branch_1/Conv3d_0b_3x3/batch_norm/batch_norm/mul_copy" type="Const" version="opset1">
			<data element_type="f32" shape="128, 96, 3, 3, 3" offset="1731756" size="1327104" />
			<output>
				<port id="0" precision="FP32" names="RGB/inception_i3d/Mixed_3b/Branch_1/Conv3d_0b_3x3/conv_3d/w/read:0">
					<dim>128</dim>
					<dim>96</dim>
					<dim>3</dim>
					<dim>3</dim>
					<dim>3</dim>
				</port>
			</output>
		</layer>
		<layer id="33" name="RGB/inception_i3d/Mixed_3b/Branch_1/Conv3d_0b_3x3/conv_3d/convolution" type="Convolution" version="opset1">
			<data strides="1, 1, 1" dilations="1, 1, 1" pads_begin="0, 0, 0" pads_end="0, 0, 0" auto_pad="same_upper" />
			<input>
				<port id="0" precision="FP32">
					<dim>1</dim>
					<dim>96</dim>
					<dim>40</dim>
					<dim>28</dim>
					<dim>28</dim>
				</port>
				<port id="1" precision="FP32">
					<dim>128</dim>
					<dim>96</dim>
					<dim>3</dim>
					<dim>3</dim>
					<dim>3</dim>
				</port>
			</input>
			<output>
				<port id="2" precision="FP32" names="RGB/inception_i3d/Mixed_3b/Branch_1/Conv3d_0b_3x3/batch_norm/batch_norm/mul:0">
					<dim>1</dim>
					<dim>128</dim>
					<dim>40</dim>
					<dim>28</dim>
					<dim>28</dim>
				</port>
			</output>
		</layer>
		<layer id="34" name="RGB/inception_i3d/Mixed_3b/Branch_1/Conv3d_0b_3x3/batch_norm/batch_norm/sub" type="Const" version="opset1">
			<data element_type="f32" shape="1, 128, 1, 1, 1" offset="3058860" size="512" />
			<output>
				<port id="0" precision="FP32" names="RGB/inception_i3d/Mixed_3b/Branch_1/Conv3d_0b_3x3/batch_norm/batch_norm/sub:0">
					<dim>1</dim>
					<dim>128</dim>
					<dim>1</dim>
					<dim>1</dim>
					<dim>1</dim>
				</port>
			</output>
		</layer>
		<layer id="35" name="RGB/inception_i3d/Mixed_3b/Branch_1/Conv3d_0b_3x3/batch_norm/batch_norm/add_1" type="Add" version="opset1">
			<data auto_broadcast="numpy" />
			<input>
				<port id="0" precision="FP32">
					<dim>1</dim>
					<dim>128</dim>
					<dim>40</dim>
					<dim>28</dim>
					<dim>28</dim>
				</port>
				<port id="1" precision="FP32">
					<dim>1</dim>
					<dim>128</dim>
					<dim>1</dim>
					<dim>1</dim>
					<dim>1</dim>
				</port>
			</input>
			<output>
				<port id="2" precision="FP32" names="RGB/inception_i3d/Mixed_3b/Branch_1/Conv3d_0b_3x3/batch_norm/batch_norm/add_1:0">
					<dim>1</dim>
					<dim>128</dim>
					<dim>40</dim>
					<dim>28</dim>
					<dim>28</dim>
				</port>
			</output>
		</layer>
		<layer id="36" name="RGB/inception_i3d/Mixed_3b/Branch_1/Conv3d_0b_3x3/Relu" type="ReLU" version="opset1">
			<input>
				<port id="0" precision="FP32">
					<dim>1</dim>
					<dim>128</dim>
					<dim>40</dim>
					<dim>28</dim>
					<dim>28</dim>
				</port>
			</input>
			<output>
				<port id="1" precision="FP32" names="RGB/inception_i3d/Mixed_3b/Branch_1/Conv3d_0b_3x3/Relu:0">
					<dim>1</dim>
					<dim>128</dim>
					<dim>40</dim>
					<dim>28</dim>
					<dim>28</dim>
				</port>
			</output>
		</layer>
		<layer id="37" name="RGB/inception_i3d/Mixed_3b/Branch_2/Conv3d_0a_1x1/batch_norm/batch_norm/mul_copy" type="Const" version="opset1">
			<data element_type="f32" shape="16, 192, 1, 1, 1" offset="3059372" size="12288" />
			<output>
				<port id="0" precision="FP32" names="RGB/inception_i3d/Mixed_3b/Branch_2/Conv3d_0a_1x1/conv_3d/w/read:0">
					<dim>16</dim>
					<dim>192</dim>
					<dim>1</dim>
					<dim>1</dim>
					<dim>1</dim>
				</port>
			</output>
		</layer>
		<layer id="38" name="RGB/inception_i3d/Mixed_3b/Branch_2/Conv3d_0a_1x1/conv_3d/convolution" type="Convolution" version="opset1">
			<data strides="1, 1, 1" dilations="1, 1, 1" pads_begin="0, 0, 0" pads_end="0, 0, 0" auto_pad="same_upper" />
			<input>
				<port id="0" precision="FP32">
					<dim>1</dim>
					<dim>192</dim>
					<dim>40</dim>
					<dim>28</dim>
					<dim>28</dim>
				</port>
				<port id="1" precision="FP32">
					<dim>16</dim>
					<dim>192</dim>
					<dim>1</dim>
					<dim>1</dim>
					<dim>1</dim>
				</port>
			</input>
			<output>
				<port id="2" precision="FP32" names="RGB/inception_i3d/Mixed_3b/Branch_2/Conv3d_0a_1x1/batch_norm/batch_norm/mul:0">
					<dim>1</dim>
					<dim>16</dim>
					<dim>40</dim>
					<dim>28</dim>
					<dim>28</dim>
				</port>
			</output>
		</layer>
		<layer id="39" name="RGB/inception_i3d/Mixed_3b/Branch_2/Conv3d_0a_1x1/batch_norm/batch_norm/sub" type="Const" version="opset1">
			<data element_type="f32" shape="1, 16, 1, 1, 1" offset="3071660" size="64" />
			<output>
				<port id="0" precision="FP32" names="RGB/inception_i3d/Mixed_3b/Branch_2/Conv3d_0a_1x1/batch_norm/batch_norm/sub:0">
					<dim>1</dim>
					<dim>16</dim>
					<dim>1</dim>
					<dim>1</dim>
					<dim>1</dim>
				</port>
			</output>
		</layer>
		<layer id="40" name="RGB/inception_i3d/Mixed_3b/Branch_2/Conv3d_0a_1x1/batch_norm/batch_norm/add_1" type="Add" version="opset1">
			<data auto_broadcast="numpy" />
			<input>
				<port id="0" precision="FP32">
					<dim>1</dim>
					<dim>16</dim>
					<dim>40</dim>
					<dim>28</dim>
					<dim>28</dim>
				</port>
				<port id="1" precision="FP32">
					<dim>1</dim>
					<dim>16</dim>
					<dim>1</dim>
					<dim>1</dim>
					<dim>1</dim>
				</port>
			</input>
			<output>
				<port id="2" precision="FP32" names="RGB/inception_i3d/Mixed_3b/Branch_2/Conv3d_0a_1x1/batch_norm/batch_norm/add_1:0">
					<dim>1</dim>
					<dim>16</dim>
					<dim>40</dim>
					<dim>28</dim>
					<dim>28</dim>
				</port>
			</output>
		</layer>
		<layer id="41" name="RGB/inception_i3d/Mixed_3b/Branch_2/Conv3d_0a_1x1/Relu" type="ReLU" version="opset1">
			<input>
				<port id="0" precision="FP32">
					<dim>1</dim>
					<dim>16</dim>
					<dim>40</dim>
					<dim>28</dim>
					<dim>28</dim>
				</port>
			</input>
			<output>
				<port id="1" precision="FP32" names="RGB/inception_i3d/Mixed_3b/Branch_2/Conv3d_0a_1x1/Relu:0">
					<dim>1</dim>
					<dim>16</dim>
					<dim>40</dim>
					<dim>28</dim>
					<dim>28</dim>
				</port>
			</output>
		</layer>
		<layer id="42" name="RGB/inception_i3d/Mixed_3b/Branch_2/Conv3d_0b_3x3/batch_norm/batch_norm/mul_copy" type="Const" version="opset1">
			<data element_type="f32" shape="32, 16, 3, 3, 3" offset="3071724" size="55296" />
			<output>
				<port id="0" precision="FP32" names="RGB/inception_i3d/Mixed_3b/Branch_2/Conv3d_0b_3x3/conv_3d/w/read:0">
					<dim>32</dim>
					<dim>16</dim>
					<dim>3</dim>
					<dim>3</dim>
					<dim>3</dim>
				</port>
			</output>
		</layer>
		<layer id="43" name="RGB/inception_i3d/Mixed_3b/Branch_2/Conv3d_0b_3x3/conv_3d/convolution" type="Convolution" version="opset1">
			<data strides="1, 1, 1" dilations="1, 1, 1" pads_begin="0, 0, 0" pads_end="0, 0, 0" auto_pad="same_upper" />
			<input>
				<port id="0" precision="FP32">
					<dim>1</dim>
					<dim>16</dim>
					<dim>40</dim>
					<dim>28</dim>
					<dim>28</dim>
				</port>
				<port id="1" precision="FP32">
					<dim>32</dim>
					<dim>16</dim>
					<dim>3</dim>
					<dim>3</dim>
					<dim>3</dim>
				</port>
			</input>
			<output>
				<port id="2" precision="FP32" names="RGB/inception_i3d/Mixed_3b/Branch_2/Conv3d_0b_3x3/batch_norm/batch_norm/mul:0">
					<dim>1</dim>
					<dim>32</dim>
					<dim>40</dim>
					<dim>28</dim>
					<dim>28</dim>
				</port>
			</output>
		</layer>
		<layer id="44" name="RGB/inception_i3d/Mixed_3b/Branch_2/Conv3d_0b_3x3/batch_norm/batch_norm/sub" type="Const" version="opset1">
			<data element_type="f32" shape="1, 32, 1, 1, 1" offset="3127020" size="128" />
			<output>
				<port id="0" precision="FP32" names="RGB/inception_i3d/Mixed_3b/Branch_2/Conv3d_0b_3x3/batch_norm/batch_norm/sub:0">
					<dim>1</dim>
					<dim>32</dim>
					<dim>1</dim>
					<dim>1</dim>
					<dim>1</dim>
				</port>
			</output>
		</layer>
		<layer id="45" name="RGB/inception_i3d/Mixed_3b/Branch_2/Conv3d_0b_3x3/batch_norm/batch_norm/add_1" type="Add" version="opset1">
			<data auto_broadcast="numpy" />
			<input>
				<port id="0" precision="FP32">
					<dim>1</dim>
					<dim>32</dim>
					<dim>40</dim>
					<dim>28</dim>
					<dim>28</dim>
				</port>
				<port id="1" precision="FP32">
					<dim>1</dim>
					<dim>32</dim>
					<dim>1</dim>
					<dim>1</dim>
					<dim>1</dim>
				</port>
			</input>
			<output>
				<port id="2" precision="FP32" names="RGB/inception_i3d/Mixed_3b/Branch_2/Conv3d_0b_3x3/batch_norm/batch_norm/add_1:0">
					<dim>1</dim>
					<dim>32</dim>
					<dim>40</dim>
					<dim>28</dim>
					<dim>28</dim>
				</port>
			</output>
		</layer>
		<layer id="46" name="RGB/inception_i3d/Mixed_3b/Branch_2/Conv3d_0b_3x3/Relu" type="ReLU" version="opset1">
			<input>
				<port id="0" precision="FP32">
					<dim>1</dim>
					<dim>32</dim>
					<dim>40</dim>
					<dim>28</dim>
					<dim>28</dim>
				</port>
			</input>
			<output>
				<port id="1" precision="FP32" names="RGB/inception_i3d/Mixed_3b/Branch_2/Conv3d_0b_3x3/Relu:0">
					<dim>1</dim>
					<dim>32</dim>
					<dim>40</dim>
					<dim>28</dim>
					<dim>28</dim>
				</port>
			</output>
		</layer>
		<layer id="47" name="RGB/inception_i3d/Mixed_3b/Branch_3/MaxPool3d_0a_3x3" type="MaxPool" version="opset8">
			<data strides="1, 1, 1" dilations="1, 1, 1" pads_begin="0, 0, 0" pads_end="0, 0, 0" kernel="3, 3, 3" rounding_type="floor" auto_pad="same_upper" index_element_type="i64" axis="0" />
			<input>
				<port id="0" precision="FP32">
					<dim>1</dim>
					<dim>192</dim>
					<dim>40</dim>
					<dim>28</dim>
					<dim>28</dim>
				</port>
			</input>
			<output>
				<port id="1" precision="FP32" names="RGB/inception_i3d/Mixed_3b/Branch_3/MaxPool3d_0a_3x3:0">
					<dim>1</dim>
					<dim>192</dim>
					<dim>40</dim>
					<dim>28</dim>
					<dim>28</dim>
				</port>
				<port id="2" precision="I64">
					<dim>1</dim>
					<dim>192</dim>
					<dim>40</dim>
					<dim>28</dim>
					<dim>28</dim>
				</port>
			</output>
		</layer>
		<layer id="48" name="RGB/inception_i3d/Mixed_3b/Branch_3/Conv3d_0b_1x1/batch_norm/batch_norm/mul_copy" type="Const" version="opset1">
			<data element_type="f32" shape="32, 192, 1, 1, 1" offset="3127148" size="24576" />
			<output>
				<port id="0" precision="FP32" names="RGB/inception_i3d/Mixed_3b/Branch_3/Conv3d_0b_1x1/conv_3d/w/read:0">
					<dim>32</dim>
					<dim>192</dim>
					<dim>1</dim>
					<dim>1</dim>
					<dim>1</dim>
				</port>
			</output>
		</layer>
		<layer id="49" name="RGB/inception_i3d/Mixed_3b/Branch_3/Conv3d_0b_1x1/conv_3d/convolution" type="Convolution" version="opset1">
			<data strides="1, 1, 1" dilations="1, 1, 1" pads_begin="0, 0, 0" pads_end="0, 0, 0" auto_pad="same_upper" />
			<input>
				<port id="0" precision="FP32">
					<dim>1</dim>
					<dim>192</dim>
					<dim>40</dim>
					<dim>28</dim>
					<dim>28</dim>
				</port>
				<port id="1" precision="FP32">
					<dim>32</dim>
					<dim>192</dim>
					<dim>1</dim>
					<dim>1</dim>
					<dim>1</dim>
				</port>
			</input>
			<output>
				<port id="2" precision="FP32" names="RGB/inception_i3d/Mixed_3b/Branch_3/Conv3d_0b_1x1/batch_norm/batch_norm/mul:0">
					<dim>1</dim>
					<dim>32</dim>
					<dim>40</dim>
					<dim>28</dim>
					<dim>28</dim>
				</port>
			</output>
		</layer>
		<layer id="50" name="RGB/inception_i3d/Mixed_3b/Branch_3/Conv3d_0b_1x1/batch_norm/batch_norm/sub" type="Const" version="opset1">
			<data element_type="f32" shape="1, 32, 1, 1, 1" offset="3151724" size="128" />
			<output>
				<port id="0" precision="FP32" names="RGB/inception_i3d/Mixed_3b/Branch_3/Conv3d_0b_1x1/batch_norm/batch_norm/sub:0">
					<dim>1</dim>
					<dim>32</dim>
					<dim>1</dim>
					<dim>1</dim>
					<dim>1</dim>
				</port>
			</output>
		</layer>
		<layer id="51" name="RGB/inception_i3d/Mixed_3b/Branch_3/Conv3d_0b_1x1/batch_norm/batch_norm/add_1" type="Add" version="opset1">
			<data auto_broadcast="numpy" />
			<input>
				<port id="0" precision="FP32">
					<dim>1</dim>
					<dim>32</dim>
					<dim>40</dim>
					<dim>28</dim>
					<dim>28</dim>
				</port>
				<port id="1" precision="FP32">
					<dim>1</dim>
					<dim>32</dim>
					<dim>1</dim>
					<dim>1</dim>
					<dim>1</dim>
				</port>
			</input>
			<output>
				<port id="2" precision="FP32" names="RGB/inception_i3d/Mixed_3b/Branch_3/Conv3d_0b_1x1/batch_norm/batch_norm/add_1:0">
					<dim>1</dim>
					<dim>32</dim>
					<dim>40</dim>
					<dim>28</dim>
					<dim>28</dim>
				</port>
			</output>
		</layer>
		<layer id="52" name="RGB/inception_i3d/Mixed_3b/Branch_3/Conv3d_0b_1x1/Relu" type="ReLU" version="opset1">
			<input>
				<port id="0" precision="FP32">
					<dim>1</dim>
					<dim>32</dim>
					<dim>40</dim>
					<dim>28</dim>
					<dim>28</dim>
				</port>
			</input>
			<output>
				<port id="1" precision="FP32" names="RGB/inception_i3d/Mixed_3b/Branch_3/Conv3d_0b_1x1/Relu:0">
					<dim>1</dim>
					<dim>32</dim>
					<dim>40</dim>
					<dim>28</dim>
					<dim>28</dim>
				</port>
			</output>
		</layer>
		<layer id="53" name="RGB/inception_i3d/Mixed_3b/concat" type="Concat" version="opset1">
			<data axis="1" />
			<input>
				<port id="0" precision="FP32">
					<dim>1</dim>
					<dim>64</dim>
					<dim>40</dim>
					<dim>28</dim>
					<dim>28</dim>
				</port>
				<port id="1" precision="FP32">
					<dim>1</dim>
					<dim>128</dim>
					<dim>40</dim>
					<dim>28</dim>
					<dim>28</dim>
				</port>
				<port id="2" precision="FP32">
					<dim>1</dim>
					<dim>32</dim>
					<dim>40</dim>
					<dim>28</dim>
					<dim>28</dim>
				</port>
				<port id="3" precision="FP32">
					<dim>1</dim>
					<dim>32</dim>
					<dim>40</dim>
					<dim>28</dim>
					<dim>28</dim>
				</port>
			</input>
			<output>
				<port id="4" precision="FP32" names="RGB/inception_i3d/Mixed_3b/concat:0">
					<dim>1</dim>
					<dim>256</dim>
					<dim>40</dim>
					<dim>28</dim>
					<dim>28</dim>
				</port>
			</output>
		</layer>
		<layer id="54" name="RGB/inception_i3d/Mixed_3c/Branch_0/Conv3d_0a_1x1/batch_norm/batch_norm/mul_copy" type="Const" version="opset1">
			<data element_type="f32" shape="128, 256, 1, 1, 1" offset="3151852" size="131072" />
			<output>
				<port id="0" precision="FP32" names="RGB/inception_i3d/Mixed_3c/Branch_0/Conv3d_0a_1x1/conv_3d/w/read:0">
					<dim>128</dim>
					<dim>256</dim>
					<dim>1</dim>
					<dim>1</dim>
					<dim>1</dim>
				</port>
			</output>
		</layer>
		<layer id="55" name="RGB/inception_i3d/Mixed_3c/Branch_0/Conv3d_0a_1x1/conv_3d/convolution" type="Convolution" version="opset1">
			<data strides="1, 1, 1" dilations="1, 1, 1" pads_begin="0, 0, 0" pads_end="0, 0, 0" auto_pad="same_upper" />
			<input>
				<port id="0" precision="FP32">
					<dim>1</dim>
					<dim>256</dim>
					<dim>40</dim>
					<dim>28</dim>
					<dim>28</dim>
				</port>
				<port id="1" precision="FP32">
					<dim>128</dim>
					<dim>256</dim>
					<dim>1</dim>
					<dim>1</dim>
					<dim>1</dim>
				</port>
			</input>
			<output>
				<port id="2" precision="FP32" names="RGB/inception_i3d/Mixed_3c/Branch_0/Conv3d_0a_1x1/batch_norm/batch_norm/mul:0">
					<dim>1</dim>
					<dim>128</dim>
					<dim>40</dim>
					<dim>28</dim>
					<dim>28</dim>
				</port>
			</output>
		</layer>
		<layer id="56" name="RGB/inception_i3d/Mixed_3c/Branch_0/Conv3d_0a_1x1/batch_norm/batch_norm/sub" type="Const" version="opset1">
			<data element_type="f32" shape="1, 128, 1, 1, 1" offset="3282924" size="512" />
			<output>
				<port id="0" precision="FP32" names="RGB/inception_i3d/Mixed_3c/Branch_0/Conv3d_0a_1x1/batch_norm/batch_norm/sub:0">
					<dim>1</dim>
					<dim>128</dim>
					<dim>1</dim>
					<dim>1</dim>
					<dim>1</dim>
				</port>
			</output>
		</layer>
		<layer id="57" name="RGB/inception_i3d/Mixed_3c/Branch_0/Conv3d_0a_1x1/batch_norm/batch_norm/add_1" type="Add" version="opset1">
			<data auto_broadcast="numpy" />
			<input>
				<port id="0" precision="FP32">
					<dim>1</dim>
					<dim>128</dim>
					<dim>40</dim>
					<dim>28</dim>
					<dim>28</dim>
				</port>
				<port id="1" precision="FP32">
					<dim>1</dim>
					<dim>128</dim>
					<dim>1</dim>
					<dim>1</dim>
					<dim>1</dim>
				</port>
			</input>
			<output>
				<port id="2" precision="FP32" names="RGB/inception_i3d/Mixed_3c/Branch_0/Conv3d_0a_1x1/batch_norm/batch_norm/add_1:0">
					<dim>1</dim>
					<dim>128</dim>
					<dim>40</dim>
					<dim>28</dim>
					<dim>28</dim>
				</port>
			</output>
		</layer>
		<layer id="58" name="RGB/inception_i3d/Mixed_3c/Branch_0/Conv3d_0a_1x1/Relu" type="ReLU" version="opset1">
			<input>
				<port id="0" precision="FP32">
					<dim>1</dim>
					<dim>128</dim>
					<dim>40</dim>
					<dim>28</dim>
					<dim>28</dim>
				</port>
			</input>
			<output>
				<port id="1" precision="FP32" names="RGB/inception_i3d/Mixed_3c/Branch_0/Conv3d_0a_1x1/Relu:0">
					<dim>1</dim>
					<dim>128</dim>
					<dim>40</dim>
					<dim>28</dim>
					<dim>28</dim>
				</port>
			</output>
		</layer>
		<layer id="59" name="RGB/inception_i3d/Mixed_3c/Branch_1/Conv3d_0a_1x1/batch_norm/batch_norm/mul_copy" type="Const" version="opset1">
			<data element_type="f32" shape="128, 256, 1, 1, 1" offset="3283436" size="131072" />
			<output>
				<port id="0" precision="FP32" names="RGB/inception_i3d/Mixed_3c/Branch_1/Conv3d_0a_1x1/conv_3d/w/read:0">
					<dim>128</dim>
					<dim>256</dim>
					<dim>1</dim>
					<dim>1</dim>
					<dim>1</dim>
				</port>
			</output>
		</layer>
		<layer id="60" name="RGB/inception_i3d/Mixed_3c/Branch_1/Conv3d_0a_1x1/conv_3d/convolution" type="Convolution" version="opset1">
			<data strides="1, 1, 1" dilations="1, 1, 1" pads_begin="0, 0, 0" pads_end="0, 0, 0" auto_pad="same_upper" />
			<input>
				<port id="0" precision="FP32">
					<dim>1</dim>
					<dim>256</dim>
					<dim>40</dim>
					<dim>28</dim>
					<dim>28</dim>
				</port>
				<port id="1" precision="FP32">
					<dim>128</dim>
					<dim>256</dim>
					<dim>1</dim>
					<dim>1</dim>
					<dim>1</dim>
				</port>
			</input>
			<output>
				<port id="2" precision="FP32" names="RGB/inception_i3d/Mixed_3c/Branch_1/Conv3d_0a_1x1/batch_norm/batch_norm/mul:0">
					<dim>1</dim>
					<dim>128</dim>
					<dim>40</dim>
					<dim>28</dim>
					<dim>28</dim>
				</port>
			</output>
		</layer>
		<layer id="61" name="RGB/inception_i3d/Mixed_3c/Branch_1/Conv3d_0a_1x1/batch_norm/batch_norm/sub" type="Const" version="opset1">
			<data element_type="f32" shape="1, 128, 1, 1, 1" offset="3414508" size="512" />
			<output>
				<port id="0" precision="FP32" names="RGB/inception_i3d/Mixed_3c/Branch_1/Conv3d_0a_1x1/batch_norm/batch_norm/sub:0">
					<dim>1</dim>
					<dim>128</dim>
					<dim>1</dim>
					<dim>1</dim>
					<dim>1</dim>
				</port>
			</output>
		</layer>
		<layer id="62" name="RGB/inception_i3d/Mixed_3c/Branch_1/Conv3d_0a_1x1/batch_norm/batch_norm/add_1" type="Add" version="opset1">
			<data auto_broadcast="numpy" />
			<input>
				<port id="0" precision="FP32">
					<dim>1</dim>
					<dim>128</dim>
					<dim>40</dim>
					<dim>28</dim>
					<dim>28</dim>
				</port>
				<port id="1" precision="FP32">
					<dim>1</dim>
					<dim>128</dim>
					<dim>1</dim>
					<dim>1</dim>
					<dim>1</dim>
				</port>
			</input>
			<output>
				<port id="2" precision="FP32" names="RGB/inception_i3d/Mixed_3c/Branch_1/Conv3d_0a_1x1/batch_norm/batch_norm/add_1:0">
					<dim>1</dim>
					<dim>128</dim>
					<dim>40</dim>
					<dim>28</dim>
					<dim>28</dim>
				</port>
			</output>
		</layer>
		<layer id="63" name="RGB/inception_i3d/Mixed_3c/Branch_1/Conv3d_0a_1x1/Relu" type="ReLU" version="opset1">
			<input>
				<port id="0" precision="FP32">
					<dim>1</dim>
					<dim>128</dim>
					<dim>40</dim>
					<dim>28</dim>
					<dim>28</dim>
				</port>
			</input>
			<output>
				<port id="1" precision="FP32" names="RGB/inception_i3d/Mixed_3c/Branch_1/Conv3d_0a_1x1/Relu:0">
					<dim>1</dim>
					<dim>128</dim>
					<dim>40</dim>
					<dim>28</dim>
					<dim>28</dim>
				</port>
			</output>
		</layer>
		<layer id="64" name="RGB/inception_i3d/Mixed_3c/Branch_1/Conv3d_0b_3x3/batch_norm/batch_norm/mul_copy" type="Const" version="opset1">
			<data element_type="f32" shape="192, 128, 3, 3, 3" offset="3415020" size="2654208" />
			<output>
				<port id="0" precision="FP32" names="RGB/inception_i3d/Mixed_3c/Branch_1/Conv3d_0b_3x3/conv_3d/w/read:0">
					<dim>192</dim>
					<dim>128</dim>
					<dim>3</dim>
					<dim>3</dim>
					<dim>3</dim>
				</port>
			</output>
		</layer>
		<layer id="65" name="RGB/inception_i3d/Mixed_3c/Branch_1/Conv3d_0b_3x3/conv_3d/convolution" type="Convolution" version="opset1">
			<data strides="1, 1, 1" dilations="1, 1, 1" pads_begin="0, 0, 0" pads_end="0, 0, 0" auto_pad="same_upper" />
			<input>
				<port id="0" precision="FP32">
					<dim>1</dim>
					<dim>128</dim>
					<dim>40</dim>
					<dim>28</dim>
					<dim>28</dim>
				</port>
				<port id="1" precision="FP32">
					<dim>192</dim>
					<dim>128</dim>
					<dim>3</dim>
					<dim>3</dim>
					<dim>3</dim>
				</port>
			</input>
			<output>
				<port id="2" precision="FP32" names="RGB/inception_i3d/Mixed_3c/Branch_1/Conv3d_0b_3x3/batch_norm/batch_norm/mul:0">
					<dim>1</dim>
					<dim>192</dim>
					<dim>40</dim>
					<dim>28</dim>
					<dim>28</dim>
				</port>
			</output>
		</layer>
		<layer id="66" name="RGB/inception_i3d/Mixed_3c/Branch_1/Conv3d_0b_3x3/batch_norm/batch_norm/sub" type="Const" version="opset1">
			<data element_type="f32" shape="1, 192, 1, 1, 1" offset="6069228" size="768" />
			<output>
				<port id="0" precision="FP32" names="RGB/inception_i3d/Mixed_3c/Branch_1/Conv3d_0b_3x3/batch_norm/batch_norm/sub:0">
					<dim>1</dim>
					<dim>192</dim>
					<dim>1</dim>
					<dim>1</dim>
					<dim>1</dim>
				</port>
			</output>
		</layer>
		<layer id="67" name="RGB/inception_i3d/Mixed_3c/Branch_1/Conv3d_0b_3x3/batch_norm/batch_norm/add_1" type="Add" version="opset1">
			<data auto_broadcast="numpy" />
			<input>
				<port id="0" precision="FP32">
					<dim>1</dim>
					<dim>192</dim>
					<dim>40</dim>
					<dim>28</dim>
					<dim>28</dim>
				</port>
				<port id="1" precision="FP32">
					<dim>1</dim>
					<dim>192</dim>
					<dim>1</dim>
					<dim>1</dim>
					<dim>1</dim>
				</port>
			</input>
			<output>
				<port id="2" precision="FP32" names="RGB/inception_i3d/Mixed_3c/Branch_1/Conv3d_0b_3x3/batch_norm/batch_norm/add_1:0">
					<dim>1</dim>
					<dim>192</dim>
					<dim>40</dim>
					<dim>28</dim>
					<dim>28</dim>
				</port>
			</output>
		</layer>
		<layer id="68" name="RGB/inception_i3d/Mixed_3c/Branch_1/Conv3d_0b_3x3/Relu" type="ReLU" version="opset1">
			<input>
				<port id="0" precision="FP32">
					<dim>1</dim>
					<dim>192</dim>
					<dim>40</dim>
					<dim>28</dim>
					<dim>28</dim>
				</port>
			</input>
			<output>
				<port id="1" precision="FP32" names="RGB/inception_i3d/Mixed_3c/Branch_1/Conv3d_0b_3x3/Relu:0">
					<dim>1</dim>
					<dim>192</dim>
					<dim>40</dim>
					<dim>28</dim>
					<dim>28</dim>
				</port>
			</output>
		</layer>
		<layer id="69" name="RGB/inception_i3d/Mixed_3c/Branch_2/Conv3d_0a_1x1/batch_norm/batch_norm/mul_copy" type="Const" version="opset1">
			<data element_type="f32" shape="32, 256, 1, 1, 1" offset="6069996" size="32768" />
			<output>
				<port id="0" precision="FP32" names="RGB/inception_i3d/Mixed_3c/Branch_2/Conv3d_0a_1x1/conv_3d/w/read:0">
					<dim>32</dim>
					<dim>256</dim>
					<dim>1</dim>
					<dim>1</dim>
					<dim>1</dim>
				</port>
			</output>
		</layer>
		<layer id="70" name="RGB/inception_i3d/Mixed_3c/Branch_2/Conv3d_0a_1x1/conv_3d/convolution" type="Convolution" version="opset1">
			<data strides="1, 1, 1" dilations="1, 1, 1" pads_begin="0, 0, 0" pads_end="0, 0, 0" auto_pad="same_upper" />
			<input>
				<port id="0" precision="FP32">
					<dim>1</dim>
					<dim>256</dim>
					<dim>40</dim>
					<dim>28</dim>
					<dim>28</dim>
				</port>
				<port id="1" precision="FP32">
					<dim>32</dim>
					<dim>256</dim>
					<dim>1</dim>
					<dim>1</dim>
					<dim>1</dim>
				</port>
			</input>
			<output>
				<port id="2" precision="FP32" names="RGB/inception_i3d/Mixed_3c/Branch_2/Conv3d_0a_1x1/batch_norm/batch_norm/mul:0">
					<dim>1</dim>
					<dim>32</dim>
					<dim>40</dim>
					<dim>28</dim>
					<dim>28</dim>
				</port>
			</output>
		</layer>
		<layer id="71" name="RGB/inception_i3d/Mixed_3c/Branch_2/Conv3d_0a_1x1/batch_norm/batch_norm/sub" type="Const" version="opset1">
			<data element_type="f32" shape="1, 32, 1, 1, 1" offset="6102764" size="128" />
			<output>
				<port id="0" precision="FP32" names="RGB/inception_i3d/Mixed_3c/Branch_2/Conv3d_0a_1x1/batch_norm/batch_norm/sub:0">
					<dim>1</dim>
					<dim>32</dim>
					<dim>1</dim>
					<dim>1</dim>
					<dim>1</dim>
				</port>
			</output>
		</layer>
		<layer id="72" name="RGB/inception_i3d/Mixed_3c/Branch_2/Conv3d_0a_1x1/batch_norm/batch_norm/add_1" type="Add" version="opset1">
			<data auto_broadcast="numpy" />
			<input>
				<port id="0" precision="FP32">
					<dim>1</dim>
					<dim>32</dim>
					<dim>40</dim>
					<dim>28</dim>
					<dim>28</dim>
				</port>
				<port id="1" precision="FP32">
					<dim>1</dim>
					<dim>32</dim>
					<dim>1</dim>
					<dim>1</dim>
					<dim>1</dim>
				</port>
			</input>
			<output>
				<port id="2" precision="FP32" names="RGB/inception_i3d/Mixed_3c/Branch_2/Conv3d_0a_1x1/batch_norm/batch_norm/add_1:0">
					<dim>1</dim>
					<dim>32</dim>
					<dim>40</dim>
					<dim>28</dim>
					<dim>28</dim>
				</port>
			</output>
		</layer>
		<layer id="73" name="RGB/inception_i3d/Mixed_3c/Branch_2/Conv3d_0a_1x1/Relu" type="ReLU" version="opset1">
			<input>
				<port id="0" precision="FP32">
					<dim>1</dim>
					<dim>32</dim>
					<dim>40</dim>
					<dim>28</dim>
					<dim>28</dim>
				</port>
			</input>
			<output>
				<port id="1" precision="FP32" names="RGB/inception_i3d/Mixed_3c/Branch_2/Conv3d_0a_1x1/Relu:0">
					<dim>1</dim>
					<dim>32</dim>
					<dim>40</dim>
					<dim>28</dim>
					<dim>28</dim>
				</port>
			</output>
		</layer>
		<layer id="74" name="RGB/inception_i3d/Mixed_3c/Branch_2/Conv3d_0b_3x3/batch_norm/batch_norm/mul_copy" type="Const" version="opset1">
			<data element_type="f32" shape="96, 32, 3, 3, 3" offset="6102892" size="331776" />
			<output>
				<port id="0" precision="FP32" names="RGB/inception_i3d/Mixed_3c/Branch_2/Conv3d_0b_3x3/conv_3d/w/read:0">
					<dim>96</dim>
					<dim>32</dim>
					<dim>3</dim>
					<dim>3</dim>
					<dim>3</dim>
				</port>
			</output>
		</layer>
		<layer id="75" name="RGB/inception_i3d/Mixed_3c/Branch_2/Conv3d_0b_3x3/conv_3d/convolution" type="Convolution" version="opset1">
			<data strides="1, 1, 1" dilations="1, 1, 1" pads_begin="0, 0, 0" pads_end="0, 0, 0" auto_pad="same_upper" />
			<input>
				<port id="0" precision="FP32">
					<dim>1</dim>
					<dim>32</dim>
					<dim>40</dim>
					<dim>28</dim>
					<dim>28</dim>
				</port>
				<port id="1" precision="FP32">
					<dim>96</dim>
					<dim>32</dim>
					<dim>3</dim>
					<dim>3</dim>
					<dim>3</dim>
				</port>
			</input>
			<output>
				<port id="2" precision="FP32" names="RGB/inception_i3d/Mixed_3c/Branch_2/Conv3d_0b_3x3/batch_norm/batch_norm/mul:0">
					<dim>1</dim>
					<dim>96</dim>
					<dim>40</dim>
					<dim>28</dim>
					<dim>28</dim>
				</port>
			</output>
		</layer>
		<layer id="76" name="RGB/inception_i3d/Mixed_3c/Branch_2/Conv3d_0b_3x3/batch_norm/batch_norm/sub" type="Const" version="opset1">
			<data element_type="f32" shape="1, 96, 1, 1, 1" offset="6434668" size="384" />
			<output>
				<port id="0" precision="FP32" names="RGB/inception_i3d/Mixed_3c/Branch_2/Conv3d_0b_3x3/batch_norm/batch_norm/sub:0">
					<dim>1</dim>
					<dim>96</dim>
					<dim>1</dim>
					<dim>1</dim>
					<dim>1</dim>
				</port>
			</output>
		</layer>
		<layer id="77" name="RGB/inception_i3d/Mixed_3c/Branch_2/Conv3d_0b_3x3/batch_norm/batch_norm/add_1" type="Add" version="opset1">
			<data auto_broadcast="numpy" />
			<input>
				<port id="0" precision="FP32">
					<dim>1</dim>
					<dim>96</dim>
					<dim>40</dim>
					<dim>28</dim>
					<dim>28</dim>
				</port>
				<port id="1" precision="FP32">
					<dim>1</dim>
					<dim>96</dim>
					<dim>1</dim>
					<dim>1</dim>
					<dim>1</dim>
				</port>
			</input>
			<output>
				<port id="2" precision="FP32" names="RGB/inception_i3d/Mixed_3c/Branch_2/Conv3d_0b_3x3/batch_norm/batch_norm/add_1:0">
					<dim>1</dim>
					<dim>96</dim>
					<dim>40</dim>
					<dim>28</dim>
					<dim>28</dim>
				</port>
			</output>
		</layer>
		<layer id="78" name="RGB/inception_i3d/Mixed_3c/Branch_2/Conv3d_0b_3x3/Relu" type="ReLU" version="opset1">
			<input>
				<port id="0" precision="FP32">
					<dim>1</dim>
					<dim>96</dim>
					<dim>40</dim>
					<dim>28</dim>
					<dim>28</dim>
				</port>
			</input>
			<output>
				<port id="1" precision="FP32" names="RGB/inception_i3d/Mixed_3c/Branch_2/Conv3d_0b_3x3/Relu:0">
					<dim>1</dim>
					<dim>96</dim>
					<dim>40</dim>
					<dim>28</dim>
					<dim>28</dim>
				</port>
			</output>
		</layer>
		<layer id="79" name="RGB/inception_i3d/Mixed_3c/Branch_3/MaxPool3d_0a_3x3" type="MaxPool" version="opset8">
			<data strides="1, 1, 1" dilations="1, 1, 1" pads_begin="0, 0, 0" pads_end="0, 0, 0" kernel="3, 3, 3" rounding_type="floor" auto_pad="same_upper" index_element_type="i64" axis="0" />
			<input>
				<port id="0" precision="FP32">
					<dim>1</dim>
					<dim>256</dim>
					<dim>40</dim>
					<dim>28</dim>
					<dim>28</dim>
				</port>
			</input>
			<output>
				<port id="1" precision="FP32" names="RGB/inception_i3d/Mixed_3c/Branch_3/MaxPool3d_0a_3x3:0">
					<dim>1</dim>
					<dim>256</dim>
					<dim>40</dim>
					<dim>28</dim>
					<dim>28</dim>
				</port>
				<port id="2" precision="I64">
					<dim>1</dim>
					<dim>256</dim>
					<dim>40</dim>
					<dim>28</dim>
					<dim>28</dim>
				</port>
			</output>
		</layer>
		<layer id="80" name="RGB/inception_i3d/Mixed_3c/Branch_3/Conv3d_0b_1x1/batch_norm/batch_norm/mul_copy" type="Const" version="opset1">
			<data element_type="f32" shape="64, 256, 1, 1, 1" offset="6435052" size="65536" />
			<output>
				<port id="0" precision="FP32" names="RGB/inception_i3d/Mixed_3c/Branch_3/Conv3d_0b_1x1/conv_3d/w/read:0">
					<dim>64</dim>
					<dim>256</dim>
					<dim>1</dim>
					<dim>1</dim>
					<dim>1</dim>
				</port>
			</output>
		</layer>
		<layer id="81" name="RGB/inception_i3d/Mixed_3c/Branch_3/Conv3d_0b_1x1/conv_3d/convolution" type="Convolution" version="opset1">
			<data strides="1, 1, 1" dilations="1, 1, 1" pads_begin="0, 0, 0" pads_end="0, 0, 0" auto_pad="same_upper" />
			<input>
				<port id="0" precision="FP32">
					<dim>1</dim>
					<dim>256</dim>
					<dim>40</dim>
					<dim>28</dim>
					<dim>28</dim>
				</port>
				<port id="1" precision="FP32">
					<dim>64</dim>
					<dim>256</dim>
					<dim>1</dim>
					<dim>1</dim>
					<dim>1</dim>
				</port>
			</input>
			<output>
				<port id="2" precision="FP32" names="RGB/inception_i3d/Mixed_3c/Branch_3/Conv3d_0b_1x1/batch_norm/batch_norm/mul:0">
					<dim>1</dim>
					<dim>64</dim>
					<dim>40</dim>
					<dim>28</dim>
					<dim>28</dim>
				</port>
			</output>
		</layer>
		<layer id="82" name="RGB/inception_i3d/Mixed_3c/Branch_3/Conv3d_0b_1x1/batch_norm/batch_norm/sub" type="Const" version="opset1">
			<data element_type="f32" shape="1, 64, 1, 1, 1" offset="6500588" size="256" />
			<output>
				<port id="0" precision="FP32" names="RGB/inception_i3d/Mixed_3c/Branch_3/Conv3d_0b_1x1/batch_norm/batch_norm/sub:0">
					<dim>1</dim>
					<dim>64</dim>
					<dim>1</dim>
					<dim>1</dim>
					<dim>1</dim>
				</port>
			</output>
		</layer>
		<layer id="83" name="RGB/inception_i3d/Mixed_3c/Branch_3/Conv3d_0b_1x1/batch_norm/batch_norm/add_1" type="Add" version="opset1">
			<data auto_broadcast="numpy" />
			<input>
				<port id="0" precision="FP32">
					<dim>1</dim>
					<dim>64</dim>
					<dim>40</dim>
					<dim>28</dim>
					<dim>28</dim>
				</port>
				<port id="1" precision="FP32">
					<dim>1</dim>
					<dim>64</dim>
					<dim>1</dim>
					<dim>1</dim>
					<dim>1</dim>
				</port>
			</input>
			<output>
				<port id="2" precision="FP32" names="RGB/inception_i3d/Mixed_3c/Branch_3/Conv3d_0b_1x1/batch_norm/batch_norm/add_1:0">
					<dim>1</dim>
					<dim>64</dim>
					<dim>40</dim>
					<dim>28</dim>
					<dim>28</dim>
				</port>
			</output>
		</layer>
		<layer id="84" name="RGB/inception_i3d/Mixed_3c/Branch_3/Conv3d_0b_1x1/Relu" type="ReLU" version="opset1">
			<input>
				<port id="0" precision="FP32">
					<dim>1</dim>
					<dim>64</dim>
					<dim>40</dim>
					<dim>28</dim>
					<dim>28</dim>
				</port>
			</input>
			<output>
				<port id="1" precision="FP32" names="RGB/inception_i3d/Mixed_3c/Branch_3/Conv3d_0b_1x1/Relu:0">
					<dim>1</dim>
					<dim>64</dim>
					<dim>40</dim>
					<dim>28</dim>
					<dim>28</dim>
				</port>
			</output>
		</layer>
		<layer id="85" name="RGB/inception_i3d/Mixed_3c/concat" type="Concat" version="opset1">
			<data axis="1" />
			<input>
				<port id="0" precision="FP32">
					<dim>1</dim>
					<dim>128</dim>
					<dim>40</dim>
					<dim>28</dim>
					<dim>28</dim>
				</port>
				<port id="1" precision="FP32">
					<dim>1</dim>
					<dim>192</dim>
					<dim>40</dim>
					<dim>28</dim>
					<dim>28</dim>
				</port>
				<port id="2" precision="FP32">
					<dim>1</dim>
					<dim>96</dim>
					<dim>40</dim>
					<dim>28</dim>
					<dim>28</dim>
				</port>
				<port id="3" precision="FP32">
					<dim>1</dim>
					<dim>64</dim>
					<dim>40</dim>
					<dim>28</dim>
					<dim>28</dim>
				</port>
			</input>
			<output>
				<port id="4" precision="FP32" names="RGB/inception_i3d/Mixed_3c/concat:0">
					<dim>1</dim>
					<dim>480</dim>
					<dim>40</dim>
					<dim>28</dim>
					<dim>28</dim>
				</port>
			</output>
		</layer>
		<layer id="86" name="RGB/inception_i3d/MaxPool3d_4a_3x3" type="MaxPool" version="opset8">
			<data strides="2, 2, 2" dilations="1, 1, 1" pads_begin="0, 0, 0" pads_end="0, 0, 0" kernel="3, 3, 3" rounding_type="floor" auto_pad="same_upper" index_element_type="i64" axis="0" />
			<input>
				<port id="0" precision="FP32">
					<dim>1</dim>
					<dim>480</dim>
					<dim>40</dim>
					<dim>28</dim>
					<dim>28</dim>
				</port>
			</input>
			<output>
				<port id="1" precision="FP32" names="RGB/inception_i3d/MaxPool3d_4a_3x3:0">
					<dim>1</dim>
					<dim>480</dim>
					<dim>20</dim>
					<dim>14</dim>
					<dim>14</dim>
				</port>
				<port id="2" precision="I64">
					<dim>1</dim>
					<dim>480</dim>
					<dim>20</dim>
					<dim>14</dim>
					<dim>14</dim>
				</port>
			</output>
		</layer>
		<layer id="87" name="RGB/inception_i3d/Mixed_4b/Branch_0/Conv3d_0a_1x1/batch_norm/batch_norm/mul_copy" type="Const" version="opset1">
			<data element_type="f32" shape="192, 480, 1, 1, 1" offset="6500844" size="368640" />
			<output>
				<port id="0" precision="FP32" names="RGB/inception_i3d/Mixed_4b/Branch_0/Conv3d_0a_1x1/conv_3d/w/read:0">
					<dim>192</dim>
					<dim>480</dim>
					<dim>1</dim>
					<dim>1</dim>
					<dim>1</dim>
				</port>
			</output>
		</layer>
		<layer id="88" name="RGB/inception_i3d/Mixed_4b/Branch_0/Conv3d_0a_1x1/conv_3d/convolution" type="Convolution" version="opset1">
			<data strides="1, 1, 1" dilations="1, 1, 1" pads_begin="0, 0, 0" pads_end="0, 0, 0" auto_pad="same_upper" />
			<input>
				<port id="0" precision="FP32">
					<dim>1</dim>
					<dim>480</dim>
					<dim>20</dim>
					<dim>14</dim>
					<dim>14</dim>
				</port>
				<port id="1" precision="FP32">
					<dim>192</dim>
					<dim>480</dim>
					<dim>1</dim>
					<dim>1</dim>
					<dim>1</dim>
				</port>
			</input>
			<output>
				<port id="2" precision="FP32" names="RGB/inception_i3d/Mixed_4b/Branch_0/Conv3d_0a_1x1/batch_norm/batch_norm/mul:0">
					<dim>1</dim>
					<dim>192</dim>
					<dim>20</dim>
					<dim>14</dim>
					<dim>14</dim>
				</port>
			</output>
		</layer>
		<layer id="89" name="RGB/inception_i3d/Mixed_4b/Branch_0/Conv3d_0a_1x1/batch_norm/batch_norm/sub" type="Const" version="opset1">
			<data element_type="f32" shape="1, 192, 1, 1, 1" offset="6869484" size="768" />
			<output>
				<port id="0" precision="FP32" names="RGB/inception_i3d/Mixed_4b/Branch_0/Conv3d_0a_1x1/batch_norm/batch_norm/sub:0">
					<dim>1</dim>
					<dim>192</dim>
					<dim>1</dim>
					<dim>1</dim>
					<dim>1</dim>
				</port>
			</output>
		</layer>
		<layer id="90" name="RGB/inception_i3d/Mixed_4b/Branch_0/Conv3d_0a_1x1/batch_norm/batch_norm/add_1" type="Add" version="opset1">
			<data auto_broadcast="numpy" />
			<input>
				<port id="0" precision="FP32">
					<dim>1</dim>
					<dim>192</dim>
					<dim>20</dim>
					<dim>14</dim>
					<dim>14</dim>
				</port>
				<port id="1" precision="FP32">
					<dim>1</dim>
					<dim>192</dim>
					<dim>1</dim>
					<dim>1</dim>
					<dim>1</dim>
				</port>
			</input>
			<output>
				<port id="2" precision="FP32" names="RGB/inception_i3d/Mixed_4b/Branch_0/Conv3d_0a_1x1/batch_norm/batch_norm/add_1:0">
					<dim>1</dim>
					<dim>192</dim>
					<dim>20</dim>
					<dim>14</dim>
					<dim>14</dim>
				</port>
			</output>
		</layer>
		<layer id="91" name="RGB/inception_i3d/Mixed_4b/Branch_0/Conv3d_0a_1x1/Relu" type="ReLU" version="opset1">
			<input>
				<port id="0" precision="FP32">
					<dim>1</dim>
					<dim>192</dim>
					<dim>20</dim>
					<dim>14</dim>
					<dim>14</dim>
				</port>
			</input>
			<output>
				<port id="1" precision="FP32" names="RGB/inception_i3d/Mixed_4b/Branch_0/Conv3d_0a_1x1/Relu:0">
					<dim>1</dim>
					<dim>192</dim>
					<dim>20</dim>
					<dim>14</dim>
					<dim>14</dim>
				</port>
			</output>
		</layer>
		<layer id="92" name="RGB/inception_i3d/Mixed_4b/Branch_1/Conv3d_0a_1x1/batch_norm/batch_norm/mul_copy" type="Const" version="opset1">
			<data element_type="f32" shape="96, 480, 1, 1, 1" offset="6870252" size="184320" />
			<output>
				<port id="0" precision="FP32" names="RGB/inception_i3d/Mixed_4b/Branch_1/Conv3d_0a_1x1/conv_3d/w/read:0">
					<dim>96</dim>
					<dim>480</dim>
					<dim>1</dim>
					<dim>1</dim>
					<dim>1</dim>
				</port>
			</output>
		</layer>
		<layer id="93" name="RGB/inception_i3d/Mixed_4b/Branch_1/Conv3d_0a_1x1/conv_3d/convolution" type="Convolution" version="opset1">
			<data strides="1, 1, 1" dilations="1, 1, 1" pads_begin="0, 0, 0" pads_end="0, 0, 0" auto_pad="same_upper" />
			<input>
				<port id="0" precision="FP32">
					<dim>1</dim>
					<dim>480</dim>
					<dim>20</dim>
					<dim>14</dim>
					<dim>14</dim>
				</port>
				<port id="1" precision="FP32">
					<dim>96</dim>
					<dim>480</dim>
					<dim>1</dim>
					<dim>1</dim>
					<dim>1</dim>
				</port>
			</input>
			<output>
				<port id="2" precision="FP32" names="RGB/inception_i3d/Mixed_4b/Branch_1/Conv3d_0a_1x1/batch_norm/batch_norm/mul:0">
					<dim>1</dim>
					<dim>96</dim>
					<dim>20</dim>
					<dim>14</dim>
					<dim>14</dim>
				</port>
			</output>
		</layer>
		<layer id="94" name="RGB/inception_i3d/Mixed_4b/Branch_1/Conv3d_0a_1x1/batch_norm/batch_norm/sub" type="Const" version="opset1">
			<data element_type="f32" shape="1, 96, 1, 1, 1" offset="7054572" size="384" />
			<output>
				<port id="0" precision="FP32" names="RGB/inception_i3d/Mixed_4b/Branch_1/Conv3d_0a_1x1/batch_norm/batch_norm/sub:0">
					<dim>1</dim>
					<dim>96</dim>
					<dim>1</dim>
					<dim>1</dim>
					<dim>1</dim>
				</port>
			</output>
		</layer>
		<layer id="95" name="RGB/inception_i3d/Mixed_4b/Branch_1/Conv3d_0a_1x1/batch_norm/batch_norm/add_1" type="Add" version="opset1">
			<data auto_broadcast="numpy" />
			<input>
				<port id="0" precision="FP32">
					<dim>1</dim>
					<dim>96</dim>
					<dim>20</dim>
					<dim>14</dim>
					<dim>14</dim>
				</port>
				<port id="1" precision="FP32">
					<dim>1</dim>
					<dim>96</dim>
					<dim>1</dim>
					<dim>1</dim>
					<dim>1</dim>
				</port>
			</input>
			<output>
				<port id="2" precision="FP32" names="RGB/inception_i3d/Mixed_4b/Branch_1/Conv3d_0a_1x1/batch_norm/batch_norm/add_1:0">
					<dim>1</dim>
					<dim>96</dim>
					<dim>20</dim>
					<dim>14</dim>
					<dim>14</dim>
				</port>
			</output>
		</layer>
		<layer id="96" name="RGB/inception_i3d/Mixed_4b/Branch_1/Conv3d_0a_1x1/Relu" type="ReLU" version="opset1">
			<input>
				<port id="0" precision="FP32">
					<dim>1</dim>
					<dim>96</dim>
					<dim>20</dim>
					<dim>14</dim>
					<dim>14</dim>
				</port>
			</input>
			<output>
				<port id="1" precision="FP32" names="RGB/inception_i3d/Mixed_4b/Branch_1/Conv3d_0a_1x1/Relu:0">
					<dim>1</dim>
					<dim>96</dim>
					<dim>20</dim>
					<dim>14</dim>
					<dim>14</dim>
				</port>
			</output>
		</layer>
		<layer id="97" name="RGB/inception_i3d/Mixed_4b/Branch_1/Conv3d_0b_3x3/batch_norm/batch_norm/mul_copy" type="Const" version="opset1">
			<data element_type="f32" shape="208, 96, 3, 3, 3" offset="7054956" size="2156544" />
			<output>
				<port id="0" precision="FP32" names="RGB/inception_i3d/Mixed_4b/Branch_1/Conv3d_0b_3x3/conv_3d/w/read:0">
					<dim>208</dim>
					<dim>96</dim>
					<dim>3</dim>
					<dim>3</dim>
					<dim>3</dim>
				</port>
			</output>
		</layer>
		<layer id="98" name="RGB/inception_i3d/Mixed_4b/Branch_1/Conv3d_0b_3x3/conv_3d/convolution" type="Convolution" version="opset1">
			<data strides="1, 1, 1" dilations="1, 1, 1" pads_begin="0, 0, 0" pads_end="0, 0, 0" auto_pad="same_upper" />
			<input>
				<port id="0" precision="FP32">
					<dim>1</dim>
					<dim>96</dim>
					<dim>20</dim>
					<dim>14</dim>
					<dim>14</dim>
				</port>
				<port id="1" precision="FP32">
					<dim>208</dim>
					<dim>96</dim>
					<dim>3</dim>
					<dim>3</dim>
					<dim>3</dim>
				</port>
			</input>
			<output>
				<port id="2" precision="FP32" names="RGB/inception_i3d/Mixed_4b/Branch_1/Conv3d_0b_3x3/batch_norm/batch_norm/mul:0">
					<dim>1</dim>
					<dim>208</dim>
					<dim>20</dim>
					<dim>14</dim>
					<dim>14</dim>
				</port>
			</output>
		</layer>
		<layer id="99" name="RGB/inception_i3d/Mixed_4b/Branch_1/Conv3d_0b_3x3/batch_norm/batch_norm/sub" type="Const" version="opset1">
			<data element_type="f32" shape="1, 208, 1, 1, 1" offset="9211500" size="832" />
			<output>
				<port id="0" precision="FP32" names="RGB/inception_i3d/Mixed_4b/Branch_1/Conv3d_0b_3x3/batch_norm/batch_norm/sub:0">
					<dim>1</dim>
					<dim>208</dim>
					<dim>1</dim>
					<dim>1</dim>
					<dim>1</dim>
				</port>
			</output>
		</layer>
		<layer id="100" name="RGB/inception_i3d/Mixed_4b/Branch_1/Conv3d_0b_3x3/batch_norm/batch_norm/add_1" type="Add" version="opset1">
			<data auto_broadcast="numpy" />
			<input>
				<port id="0" precision="FP32">
					<dim>1</dim>
					<dim>208</dim>
					<dim>20</dim>
					<dim>14</dim>
					<dim>14</dim>
				</port>
				<port id="1" precision="FP32">
					<dim>1</dim>
					<dim>208</dim>
					<dim>1</dim>
					<dim>1</dim>
					<dim>1</dim>
				</port>
			</input>
			<output>
				<port id="2" precision="FP32" names="RGB/inception_i3d/Mixed_4b/Branch_1/Conv3d_0b_3x3/batch_norm/batch_norm/add_1:0">
					<dim>1</dim>
					<dim>208</dim>
					<dim>20</dim>
					<dim>14</dim>
					<dim>14</dim>
				</port>
			</output>
		</layer>
		<layer id="101" name="RGB/inception_i3d/Mixed_4b/Branch_1/Conv3d_0b_3x3/Relu" type="ReLU" version="opset1">
			<input>
				<port id="0" precision="FP32">
					<dim>1</dim>
					<dim>208</dim>
					<dim>20</dim>
					<dim>14</dim>
					<dim>14</dim>
				</port>
			</input>
			<output>
				<port id="1" precision="FP32" names="RGB/inception_i3d/Mixed_4b/Branch_1/Conv3d_0b_3x3/Relu:0">
					<dim>1</dim>
					<dim>208</dim>
					<dim>20</dim>
					<dim>14</dim>
					<dim>14</dim>
				</port>
			</output>
		</layer>
		<layer id="102" name="RGB/inception_i3d/Mixed_4b/Branch_2/Conv3d_0a_1x1/batch_norm/batch_norm/mul_copy" type="Const" version="opset1">
			<data element_type="f32" shape="16, 480, 1, 1, 1" offset="9212332" size="30720" />
			<output>
				<port id="0" precision="FP32" names="RGB/inception_i3d/Mixed_4b/Branch_2/Conv3d_0a_1x1/conv_3d/w/read:0">
					<dim>16</dim>
					<dim>480</dim>
					<dim>1</dim>
					<dim>1</dim>
					<dim>1</dim>
				</port>
			</output>
		</layer>
		<layer id="103" name="RGB/inception_i3d/Mixed_4b/Branch_2/Conv3d_0a_1x1/conv_3d/convolution" type="Convolution" version="opset1">
			<data strides="1, 1, 1" dilations="1, 1, 1" pads_begin="0, 0, 0" pads_end="0, 0, 0" auto_pad="same_upper" />
			<input>
				<port id="0" precision="FP32">
					<dim>1</dim>
					<dim>480</dim>
					<dim>20</dim>
					<dim>14</dim>
					<dim>14</dim>
				</port>
				<port id="1" precision="FP32">
					<dim>16</dim>
					<dim>480</dim>
					<dim>1</dim>
					<dim>1</dim>
					<dim>1</dim>
				</port>
			</input>
			<output>
				<port id="2" precision="FP32" names="RGB/inception_i3d/Mixed_4b/Branch_2/Conv3d_0a_1x1/batch_norm/batch_norm/mul:0">
					<dim>1</dim>
					<dim>16</dim>
					<dim>20</dim>
					<dim>14</dim>
					<dim>14</dim>
				</port>
			</output>
		</layer>
		<layer id="104" name="RGB/inception_i3d/Mixed_4b/Branch_2/Conv3d_0a_1x1/batch_norm/batch_norm/sub" type="Const" version="opset1">
			<data element_type="f32" shape="1, 16, 1, 1, 1" offset="9243052" size="64" />
			<output>
				<port id="0" precision="FP32" names="RGB/inception_i3d/Mixed_4b/Branch_2/Conv3d_0a_1x1/batch_norm/batch_norm/sub:0">
					<dim>1</dim>
					<dim>16</dim>
					<dim>1</dim>
					<dim>1</dim>
					<dim>1</dim>
				</port>
			</output>
		</layer>
		<layer id="105" name="RGB/inception_i3d/Mixed_4b/Branch_2/Conv3d_0a_1x1/batch_norm/batch_norm/add_1" type="Add" version="opset1">
			<data auto_broadcast="numpy" />
			<input>
				<port id="0" precision="FP32">
					<dim>1</dim>
					<dim>16</dim>
					<dim>20</dim>
					<dim>14</dim>
					<dim>14</dim>
				</port>
				<port id="1" precision="FP32">
					<dim>1</dim>
					<dim>16</dim>
					<dim>1</dim>
					<dim>1</dim>
					<dim>1</dim>
				</port>
			</input>
			<output>
				<port id="2" precision="FP32" names="RGB/inception_i3d/Mixed_4b/Branch_2/Conv3d_0a_1x1/batch_norm/batch_norm/add_1:0">
					<dim>1</dim>
					<dim>16</dim>
					<dim>20</dim>
					<dim>14</dim>
					<dim>14</dim>
				</port>
			</output>
		</layer>
		<layer id="106" name="RGB/inception_i3d/Mixed_4b/Branch_2/Conv3d_0a_1x1/Relu" type="ReLU" version="opset1">
			<input>
				<port id="0" precision="FP32">
					<dim>1</dim>
					<dim>16</dim>
					<dim>20</dim>
					<dim>14</dim>
					<dim>14</dim>
				</port>
			</input>
			<output>
				<port id="1" precision="FP32" names="RGB/inception_i3d/Mixed_4b/Branch_2/Conv3d_0a_1x1/Relu:0">
					<dim>1</dim>
					<dim>16</dim>
					<dim>20</dim>
					<dim>14</dim>
					<dim>14</dim>
				</port>
			</output>
		</layer>
		<layer id="107" name="RGB/inception_i3d/Mixed_4b/Branch_2/Conv3d_0b_3x3/batch_norm/batch_norm/mul_copy" type="Const" version="opset1">
			<data element_type="f32" shape="48, 16, 3, 3, 3" offset="9243116" size="82944" />
			<output>
				<port id="0" precision="FP32" names="RGB/inception_i3d/Mixed_4b/Branch_2/Conv3d_0b_3x3/conv_3d/w/read:0">
					<dim>48</dim>
					<dim>16</dim>
					<dim>3</dim>
					<dim>3</dim>
					<dim>3</dim>
				</port>
			</output>
		</layer>
		<layer id="108" name="RGB/inception_i3d/Mixed_4b/Branch_2/Conv3d_0b_3x3/conv_3d/convolution" type="Convolution" version="opset1">
			<data strides="1, 1, 1" dilations="1, 1, 1" pads_begin="0, 0, 0" pads_end="0, 0, 0" auto_pad="same_upper" />
			<input>
				<port id="0" precision="FP32">
					<dim>1</dim>
					<dim>16</dim>
					<dim>20</dim>
					<dim>14</dim>
					<dim>14</dim>
				</port>
				<port id="1" precision="FP32">
					<dim>48</dim>
					<dim>16</dim>
					<dim>3</dim>
					<dim>3</dim>
					<dim>3</dim>
				</port>
			</input>
			<output>
				<port id="2" precision="FP32" names="RGB/inception_i3d/Mixed_4b/Branch_2/Conv3d_0b_3x3/batch_norm/batch_norm/mul:0">
					<dim>1</dim>
					<dim>48</dim>
					<dim>20</dim>
					<dim>14</dim>
					<dim>14</dim>
				</port>
			</output>
		</layer>
		<layer id="109" name="RGB/inception_i3d/Mixed_4b/Branch_2/Conv3d_0b_3x3/batch_norm/batch_norm/sub" type="Const" version="opset1">
			<data element_type="f32" shape="1, 48, 1, 1, 1" offset="9326060" size="192" />
			<output>
				<port id="0" precision="FP32" names="RGB/inception_i3d/Mixed_4b/Branch_2/Conv3d_0b_3x3/batch_norm/batch_norm/sub:0">
					<dim>1</dim>
					<dim>48</dim>
					<dim>1</dim>
					<dim>1</dim>
					<dim>1</dim>
				</port>
			</output>
		</layer>
		<layer id="110" name="RGB/inception_i3d/Mixed_4b/Branch_2/Conv3d_0b_3x3/batch_norm/batch_norm/add_1" type="Add" version="opset1">
			<data auto_broadcast="numpy" />
			<input>
				<port id="0" precision="FP32">
					<dim>1</dim>
					<dim>48</dim>
					<dim>20</dim>
					<dim>14</dim>
					<dim>14</dim>
				</port>
				<port id="1" precision="FP32">
					<dim>1</dim>
					<dim>48</dim>
					<dim>1</dim>
					<dim>1</dim>
					<dim>1</dim>
				</port>
			</input>
			<output>
				<port id="2" precision="FP32" names="RGB/inception_i3d/Mixed_4b/Branch_2/Conv3d_0b_3x3/batch_norm/batch_norm/add_1:0">
					<dim>1</dim>
					<dim>48</dim>
					<dim>20</dim>
					<dim>14</dim>
					<dim>14</dim>
				</port>
			</output>
		</layer>
		<layer id="111" name="RGB/inception_i3d/Mixed_4b/Branch_2/Conv3d_0b_3x3/Relu" type="ReLU" version="opset1">
			<input>
				<port id="0" precision="FP32">
					<dim>1</dim>
					<dim>48</dim>
					<dim>20</dim>
					<dim>14</dim>
					<dim>14</dim>
				</port>
			</input>
			<output>
				<port id="1" precision="FP32" names="RGB/inception_i3d/Mixed_4b/Branch_2/Conv3d_0b_3x3/Relu:0">
					<dim>1</dim>
					<dim>48</dim>
					<dim>20</dim>
					<dim>14</dim>
					<dim>14</dim>
				</port>
			</output>
		</layer>
		<layer id="112" name="RGB/inception_i3d/Mixed_4b/Branch_3/MaxPool3d_0a_3x3" type="MaxPool" version="opset8">
			<data strides="1, 1, 1" dilations="1, 1, 1" pads_begin="0, 0, 0" pads_end="0, 0, 0" kernel="3, 3, 3" rounding_type="floor" auto_pad="same_upper" index_element_type="i64" axis="0" />
			<input>
				<port id="0" precision="FP32">
					<dim>1</dim>
					<dim>480</dim>
					<dim>20</dim>
					<dim>14</dim>
					<dim>14</dim>
				</port>
			</input>
			<output>
				<port id="1" precision="FP32" names="RGB/inception_i3d/Mixed_4b/Branch_3/MaxPool3d_0a_3x3:0">
					<dim>1</dim>
					<dim>480</dim>
					<dim>20</dim>
					<dim>14</dim>
					<dim>14</dim>
				</port>
				<port id="2" precision="I64">
					<dim>1</dim>
					<dim>480</dim>
					<dim>20</dim>
					<dim>14</dim>
					<dim>14</dim>
				</port>
			</output>
		</layer>
		<layer id="113" name="RGB/inception_i3d/Mixed_4b/Branch_3/Conv3d_0b_1x1/batch_norm/batch_norm/mul_copy" type="Const" version="opset1">
			<data element_type="f32" shape="64, 480, 1, 1, 1" offset="9326252" size="122880" />
			<output>
				<port id="0" precision="FP32" names="RGB/inception_i3d/Mixed_4b/Branch_3/Conv3d_0b_1x1/conv_3d/w/read:0">
					<dim>64</dim>
					<dim>480</dim>
					<dim>1</dim>
					<dim>1</dim>
					<dim>1</dim>
				</port>
			</output>
		</layer>
		<layer id="114" name="RGB/inception_i3d/Mixed_4b/Branch_3/Conv3d_0b_1x1/conv_3d/convolution" type="Convolution" version="opset1">
			<data strides="1, 1, 1" dilations="1, 1, 1" pads_begin="0, 0, 0" pads_end="0, 0, 0" auto_pad="same_upper" />
			<input>
				<port id="0" precision="FP32">
					<dim>1</dim>
					<dim>480</dim>
					<dim>20</dim>
					<dim>14</dim>
					<dim>14</dim>
				</port>
				<port id="1" precision="FP32">
					<dim>64</dim>
					<dim>480</dim>
					<dim>1</dim>
					<dim>1</dim>
					<dim>1</dim>
				</port>
			</input>
			<output>
				<port id="2" precision="FP32" names="RGB/inception_i3d/Mixed_4b/Branch_3/Conv3d_0b_1x1/batch_norm/batch_norm/mul:0">
					<dim>1</dim>
					<dim>64</dim>
					<dim>20</dim>
					<dim>14</dim>
					<dim>14</dim>
				</port>
			</output>
		</layer>
		<layer id="115" name="RGB/inception_i3d/Mixed_4b/Branch_3/Conv3d_0b_1x1/batch_norm/batch_norm/sub" type="Const" version="opset1">
			<data element_type="f32" shape="1, 64, 1, 1, 1" offset="9449132" size="256" />
			<output>
				<port id="0" precision="FP32" names="RGB/inception_i3d/Mixed_4b/Branch_3/Conv3d_0b_1x1/batch_norm/batch_norm/sub:0">
					<dim>1</dim>
					<dim>64</dim>
					<dim>1</dim>
					<dim>1</dim>
					<dim>1</dim>
				</port>
			</output>
		</layer>
		<layer id="116" name="RGB/inception_i3d/Mixed_4b/Branch_3/Conv3d_0b_1x1/batch_norm/batch_norm/add_1" type="Add" version="opset1">
			<data auto_broadcast="numpy" />
			<input>
				<port id="0" precision="FP32">
					<dim>1</dim>
					<dim>64</dim>
					<dim>20</dim>
					<dim>14</dim>
					<dim>14</dim>
				</port>
				<port id="1" precision="FP32">
					<dim>1</dim>
					<dim>64</dim>
					<dim>1</dim>
					<dim>1</dim>
					<dim>1</dim>
				</port>
			</input>
			<output>
				<port id="2" precision="FP32" names="RGB/inception_i3d/Mixed_4b/Branch_3/Conv3d_0b_1x1/batch_norm/batch_norm/add_1:0">
					<dim>1</dim>
					<dim>64</dim>
					<dim>20</dim>
					<dim>14</dim>
					<dim>14</dim>
				</port>
			</output>
		</layer>
		<layer id="117" name="RGB/inception_i3d/Mixed_4b/Branch_3/Conv3d_0b_1x1/Relu" type="ReLU" version="opset1">
			<input>
				<port id="0" precision="FP32">
					<dim>1</dim>
					<dim>64</dim>
					<dim>20</dim>
					<dim>14</dim>
					<dim>14</dim>
				</port>
			</input>
			<output>
				<port id="1" precision="FP32" names="RGB/inception_i3d/Mixed_4b/Branch_3/Conv3d_0b_1x1/Relu:0">
					<dim>1</dim>
					<dim>64</dim>
					<dim>20</dim>
					<dim>14</dim>
					<dim>14</dim>
				</port>
			</output>
		</layer>
		<layer id="118" name="RGB/inception_i3d/Mixed_4b/concat" type="Concat" version="opset1">
			<data axis="1" />
			<input>
				<port id="0" precision="FP32">
					<dim>1</dim>
					<dim>192</dim>
					<dim>20</dim>
					<dim>14</dim>
					<dim>14</dim>
				</port>
				<port id="1" precision="FP32">
					<dim>1</dim>
					<dim>208</dim>
					<dim>20</dim>
					<dim>14</dim>
					<dim>14</dim>
				</port>
				<port id="2" precision="FP32">
					<dim>1</dim>
					<dim>48</dim>
					<dim>20</dim>
					<dim>14</dim>
					<dim>14</dim>
				</port>
				<port id="3" precision="FP32">
					<dim>1</dim>
					<dim>64</dim>
					<dim>20</dim>
					<dim>14</dim>
					<dim>14</dim>
				</port>
			</input>
			<output>
				<port id="4" precision="FP32" names="RGB/inception_i3d/Mixed_4b/concat:0">
					<dim>1</dim>
					<dim>512</dim>
					<dim>20</dim>
					<dim>14</dim>
					<dim>14</dim>
				</port>
			</output>
		</layer>
		<layer id="119" name="RGB/inception_i3d/Mixed_4c/Branch_0/Conv3d_0a_1x1/batch_norm/batch_norm/mul_copy" type="Const" version="opset1">
			<data element_type="f32" shape="160, 512, 1, 1, 1" offset="9449388" size="327680" />
			<output>
				<port id="0" precision="FP32" names="RGB/inception_i3d/Mixed_4c/Branch_0/Conv3d_0a_1x1/conv_3d/w/read:0">
					<dim>160</dim>
					<dim>512</dim>
					<dim>1</dim>
					<dim>1</dim>
					<dim>1</dim>
				</port>
			</output>
		</layer>
		<layer id="120" name="RGB/inception_i3d/Mixed_4c/Branch_0/Conv3d_0a_1x1/conv_3d/convolution" type="Convolution" version="opset1">
			<data strides="1, 1, 1" dilations="1, 1, 1" pads_begin="0, 0, 0" pads_end="0, 0, 0" auto_pad="same_upper" />
			<input>
				<port id="0" precision="FP32">
					<dim>1</dim>
					<dim>512</dim>
					<dim>20</dim>
					<dim>14</dim>
					<dim>14</dim>
				</port>
				<port id="1" precision="FP32">
					<dim>160</dim>
					<dim>512</dim>
					<dim>1</dim>
					<dim>1</dim>
					<dim>1</dim>
				</port>
			</input>
			<output>
				<port id="2" precision="FP32" names="RGB/inception_i3d/Mixed_4c/Branch_0/Conv3d_0a_1x1/batch_norm/batch_norm/mul:0">
					<dim>1</dim>
					<dim>160</dim>
					<dim>20</dim>
					<dim>14</dim>
					<dim>14</dim>
				</port>
			</output>
		</layer>
		<layer id="121" name="RGB/inception_i3d/Mixed_4c/Branch_0/Conv3d_0a_1x1/batch_norm/batch_norm/sub" type="Const" version="opset1">
			<data element_type="f32" shape="1, 160, 1, 1, 1" offset="9777068" size="640" />
			<output>
				<port id="0" precision="FP32" names="RGB/inception_i3d/Mixed_4c/Branch_0/Conv3d_0a_1x1/batch_norm/batch_norm/sub:0">
					<dim>1</dim>
					<dim>160</dim>
					<dim>1</dim>
					<dim>1</dim>
					<dim>1</dim>
				</port>
			</output>
		</layer>
		<layer id="122" name="RGB/inception_i3d/Mixed_4c/Branch_0/Conv3d_0a_1x1/batch_norm/batch_norm/add_1" type="Add" version="opset1">
			<data auto_broadcast="numpy" />
			<input>
				<port id="0" precision="FP32">
					<dim>1</dim>
					<dim>160</dim>
					<dim>20</dim>
					<dim>14</dim>
					<dim>14</dim>
				</port>
				<port id="1" precision="FP32">
					<dim>1</dim>
					<dim>160</dim>
					<dim>1</dim>
					<dim>1</dim>
					<dim>1</dim>
				</port>
			</input>
			<output>
				<port id="2" precision="FP32" names="RGB/inception_i3d/Mixed_4c/Branch_0/Conv3d_0a_1x1/batch_norm/batch_norm/add_1:0">
					<dim>1</dim>
					<dim>160</dim>
					<dim>20</dim>
					<dim>14</dim>
					<dim>14</dim>
				</port>
			</output>
		</layer>
		<layer id="123" name="RGB/inception_i3d/Mixed_4c/Branch_0/Conv3d_0a_1x1/Relu" type="ReLU" version="opset1">
			<input>
				<port id="0" precision="FP32">
					<dim>1</dim>
					<dim>160</dim>
					<dim>20</dim>
					<dim>14</dim>
					<dim>14</dim>
				</port>
			</input>
			<output>
				<port id="1" precision="FP32" names="RGB/inception_i3d/Mixed_4c/Branch_0/Conv3d_0a_1x1/Relu:0">
					<dim>1</dim>
					<dim>160</dim>
					<dim>20</dim>
					<dim>14</dim>
					<dim>14</dim>
				</port>
			</output>
		</layer>
		<layer id="124" name="RGB/inception_i3d/Mixed_4c/Branch_1/Conv3d_0a_1x1/batch_norm/batch_norm/mul_copy" type="Const" version="opset1">
			<data element_type="f32" shape="112, 512, 1, 1, 1" offset="9777708" size="229376" />
			<output>
				<port id="0" precision="FP32" names="RGB/inception_i3d/Mixed_4c/Branch_1/Conv3d_0a_1x1/conv_3d/w/read:0">
					<dim>112</dim>
					<dim>512</dim>
					<dim>1</dim>
					<dim>1</dim>
					<dim>1</dim>
				</port>
			</output>
		</layer>
		<layer id="125" name="RGB/inception_i3d/Mixed_4c/Branch_1/Conv3d_0a_1x1/conv_3d/convolution" type="Convolution" version="opset1">
			<data strides="1, 1, 1" dilations="1, 1, 1" pads_begin="0, 0, 0" pads_end="0, 0, 0" auto_pad="same_upper" />
			<input>
				<port id="0" precision="FP32">
					<dim>1</dim>
					<dim>512</dim>
					<dim>20</dim>
					<dim>14</dim>
					<dim>14</dim>
				</port>
				<port id="1" precision="FP32">
					<dim>112</dim>
					<dim>512</dim>
					<dim>1</dim>
					<dim>1</dim>
					<dim>1</dim>
				</port>
			</input>
			<output>
				<port id="2" precision="FP32" names="RGB/inception_i3d/Mixed_4c/Branch_1/Conv3d_0a_1x1/batch_norm/batch_norm/mul:0">
					<dim>1</dim>
					<dim>112</dim>
					<dim>20</dim>
					<dim>14</dim>
					<dim>14</dim>
				</port>
			</output>
		</layer>
		<layer id="126" name="RGB/inception_i3d/Mixed_4c/Branch_1/Conv3d_0a_1x1/batch_norm/batch_norm/sub" type="Const" version="opset1">
			<data element_type="f32" shape="1, 112, 1, 1, 1" offset="10007084" size="448" />
			<output>
				<port id="0" precision="FP32" names="RGB/inception_i3d/Mixed_4c/Branch_1/Conv3d_0a_1x1/batch_norm/batch_norm/sub:0">
					<dim>1</dim>
					<dim>112</dim>
					<dim>1</dim>
					<dim>1</dim>
					<dim>1</dim>
				</port>
			</output>
		</layer>
		<layer id="127" name="RGB/inception_i3d/Mixed_4c/Branch_1/Conv3d_0a_1x1/batch_norm/batch_norm/add_1" type="Add" version="opset1">
			<data auto_broadcast="numpy" />
			<input>
				<port id="0" precision="FP32">
					<dim>1</dim>
					<dim>112</dim>
					<dim>20</dim>
					<dim>14</dim>
					<dim>14</dim>
				</port>
				<port id="1" precision="FP32">
					<dim>1</dim>
					<dim>112</dim>
					<dim>1</dim>
					<dim>1</dim>
					<dim>1</dim>
				</port>
			</input>
			<output>
				<port id="2" precision="FP32" names="RGB/inception_i3d/Mixed_4c/Branch_1/Conv3d_0a_1x1/batch_norm/batch_norm/add_1:0">
					<dim>1</dim>
					<dim>112</dim>
					<dim>20</dim>
					<dim>14</dim>
					<dim>14</dim>
				</port>
			</output>
		</layer>
		<layer id="128" name="RGB/inception_i3d/Mixed_4c/Branch_1/Conv3d_0a_1x1/Relu" type="ReLU" version="opset1">
			<input>
				<port id="0" precision="FP32">
					<dim>1</dim>
					<dim>112</dim>
					<dim>20</dim>
					<dim>14</dim>
					<dim>14</dim>
				</port>
			</input>
			<output>
				<port id="1" precision="FP32" names="RGB/inception_i3d/Mixed_4c/Branch_1/Conv3d_0a_1x1/Relu:0">
					<dim>1</dim>
					<dim>112</dim>
					<dim>20</dim>
					<dim>14</dim>
					<dim>14</dim>
				</port>
			</output>
		</layer>
		<layer id="129" name="RGB/inception_i3d/Mixed_4c/Branch_1/Conv3d_0b_3x3/batch_norm/batch_norm/mul_copy" type="Const" version="opset1">
			<data element_type="f32" shape="224, 112, 3, 3, 3" offset="10007532" size="2709504" />
			<output>
				<port id="0" precision="FP32" names="RGB/inception_i3d/Mixed_4c/Branch_1/Conv3d_0b_3x3/conv_3d/w/read:0">
					<dim>224</dim>
					<dim>112</dim>
					<dim>3</dim>
					<dim>3</dim>
					<dim>3</dim>
				</port>
			</output>
		</layer>
		<layer id="130" name="RGB/inception_i3d/Mixed_4c/Branch_1/Conv3d_0b_3x3/conv_3d/convolution" type="Convolution" version="opset1">
			<data strides="1, 1, 1" dilations="1, 1, 1" pads_begin="0, 0, 0" pads_end="0, 0, 0" auto_pad="same_upper" />
			<input>
				<port id="0" precision="FP32">
					<dim>1</dim>
					<dim>112</dim>
					<dim>20</dim>
					<dim>14</dim>
					<dim>14</dim>
				</port>
				<port id="1" precision="FP32">
					<dim>224</dim>
					<dim>112</dim>
					<dim>3</dim>
					<dim>3</dim>
					<dim>3</dim>
				</port>
			</input>
			<output>
				<port id="2" precision="FP32" names="RGB/inception_i3d/Mixed_4c/Branch_1/Conv3d_0b_3x3/batch_norm/batch_norm/mul:0">
					<dim>1</dim>
					<dim>224</dim>
					<dim>20</dim>
					<dim>14</dim>
					<dim>14</dim>
				</port>
			</output>
		</layer>
		<layer id="131" name="RGB/inception_i3d/Mixed_4c/Branch_1/Conv3d_0b_3x3/batch_norm/batch_norm/sub" type="Const" version="opset1">
			<data element_type="f32" shape="1, 224, 1, 1, 1" offset="12717036" size="896" />
			<output>
				<port id="0" precision="FP32" names="RGB/inception_i3d/Mixed_4c/Branch_1/Conv3d_0b_3x3/batch_norm/batch_norm/sub:0">
					<dim>1</dim>
					<dim>224</dim>
					<dim>1</dim>
					<dim>1</dim>
					<dim>1</dim>
				</port>
			</output>
		</layer>
		<layer id="132" name="RGB/inception_i3d/Mixed_4c/Branch_1/Conv3d_0b_3x3/batch_norm/batch_norm/add_1" type="Add" version="opset1">
			<data auto_broadcast="numpy" />
			<input>
				<port id="0" precision="FP32">
					<dim>1</dim>
					<dim>224</dim>
					<dim>20</dim>
					<dim>14</dim>
					<dim>14</dim>
				</port>
				<port id="1" precision="FP32">
					<dim>1</dim>
					<dim>224</dim>
					<dim>1</dim>
					<dim>1</dim>
					<dim>1</dim>
				</port>
			</input>
			<output>
				<port id="2" precision="FP32" names="RGB/inception_i3d/Mixed_4c/Branch_1/Conv3d_0b_3x3/batch_norm/batch_norm/add_1:0">
					<dim>1</dim>
					<dim>224</dim>
					<dim>20</dim>
					<dim>14</dim>
					<dim>14</dim>
				</port>
			</output>
		</layer>
		<layer id="133" name="RGB/inception_i3d/Mixed_4c/Branch_1/Conv3d_0b_3x3/Relu" type="ReLU" version="opset1">
			<input>
				<port id="0" precision="FP32">
					<dim>1</dim>
					<dim>224</dim>
					<dim>20</dim>
					<dim>14</dim>
					<dim>14</dim>
				</port>
			</input>
			<output>
				<port id="1" precision="FP32" names="RGB/inception_i3d/Mixed_4c/Branch_1/Conv3d_0b_3x3/Relu:0">
					<dim>1</dim>
					<dim>224</dim>
					<dim>20</dim>
					<dim>14</dim>
					<dim>14</dim>
				</port>
			</output>
		</layer>
		<layer id="134" name="RGB/inception_i3d/Mixed_4c/Branch_2/Conv3d_0a_1x1/batch_norm/batch_norm/mul_copy" type="Const" version="opset1">
			<data element_type="f32" shape="24, 512, 1, 1, 1" offset="12717932" size="49152" />
			<output>
				<port id="0" precision="FP32" names="RGB/inception_i3d/Mixed_4c/Branch_2/Conv3d_0a_1x1/conv_3d/w/read:0">
					<dim>24</dim>
					<dim>512</dim>
					<dim>1</dim>
					<dim>1</dim>
					<dim>1</dim>
				</port>
			</output>
		</layer>
		<layer id="135" name="RGB/inception_i3d/Mixed_4c/Branch_2/Conv3d_0a_1x1/conv_3d/convolution" type="Convolution" version="opset1">
			<data strides="1, 1, 1" dilations="1, 1, 1" pads_begin="0, 0, 0" pads_end="0, 0, 0" auto_pad="same_upper" />
			<input>
				<port id="0" precision="FP32">
					<dim>1</dim>
					<dim>512</dim>
					<dim>20</dim>
					<dim>14</dim>
					<dim>14</dim>
				</port>
				<port id="1" precision="FP32">
					<dim>24</dim>
					<dim>512</dim>
					<dim>1</dim>
					<dim>1</dim>
					<dim>1</dim>
				</port>
			</input>
			<output>
				<port id="2" precision="FP32" names="RGB/inception_i3d/Mixed_4c/Branch_2/Conv3d_0a_1x1/batch_norm/batch_norm/mul:0">
					<dim>1</dim>
					<dim>24</dim>
					<dim>20</dim>
					<dim>14</dim>
					<dim>14</dim>
				</port>
			</output>
		</layer>
		<layer id="136" name="RGB/inception_i3d/Mixed_4c/Branch_2/Conv3d_0a_1x1/batch_norm/batch_norm/sub" type="Const" version="opset1">
			<data element_type="f32" shape="1, 24, 1, 1, 1" offset="12767084" size="96" />
			<output>
				<port id="0" precision="FP32" names="RGB/inception_i3d/Mixed_4c/Branch_2/Conv3d_0a_1x1/batch_norm/batch_norm/sub:0">
					<dim>1</dim>
					<dim>24</dim>
					<dim>1</dim>
					<dim>1</dim>
					<dim>1</dim>
				</port>
			</output>
		</layer>
		<layer id="137" name="RGB/inception_i3d/Mixed_4c/Branch_2/Conv3d_0a_1x1/batch_norm/batch_norm/add_1" type="Add" version="opset1">
			<data auto_broadcast="numpy" />
			<input>
				<port id="0" precision="FP32">
					<dim>1</dim>
					<dim>24</dim>
					<dim>20</dim>
					<dim>14</dim>
					<dim>14</dim>
				</port>
				<port id="1" precision="FP32">
					<dim>1</dim>
					<dim>24</dim>
					<dim>1</dim>
					<dim>1</dim>
					<dim>1</dim>
				</port>
			</input>
			<output>
				<port id="2" precision="FP32" names="RGB/inception_i3d/Mixed_4c/Branch_2/Conv3d_0a_1x1/batch_norm/batch_norm/add_1:0">
					<dim>1</dim>
					<dim>24</dim>
					<dim>20</dim>
					<dim>14</dim>
					<dim>14</dim>
				</port>
			</output>
		</layer>
		<layer id="138" name="RGB/inception_i3d/Mixed_4c/Branch_2/Conv3d_0a_1x1/Relu" type="ReLU" version="opset1">
			<input>
				<port id="0" precision="FP32">
					<dim>1</dim>
					<dim>24</dim>
					<dim>20</dim>
					<dim>14</dim>
					<dim>14</dim>
				</port>
			</input>
			<output>
				<port id="1" precision="FP32" names="RGB/inception_i3d/Mixed_4c/Branch_2/Conv3d_0a_1x1/Relu:0">
					<dim>1</dim>
					<dim>24</dim>
					<dim>20</dim>
					<dim>14</dim>
					<dim>14</dim>
				</port>
			</output>
		</layer>
		<layer id="139" name="RGB/inception_i3d/Mixed_4c/Branch_2/Conv3d_0b_3x3/batch_norm/batch_norm/mul_copy" type="Const" version="opset1">
			<data element_type="f32" shape="64, 24, 3, 3, 3" offset="12767180" size="165888" />
			<output>
				<port id="0" precision="FP32" names="RGB/inception_i3d/Mixed_4c/Branch_2/Conv3d_0b_3x3/conv_3d/w/read:0">
					<dim>64</dim>
					<dim>24</dim>
					<dim>3</dim>
					<dim>3</dim>
					<dim>3</dim>
				</port>
			</output>
		</layer>
		<layer id="140" name="RGB/inception_i3d/Mixed_4c/Branch_2/Conv3d_0b_3x3/conv_3d/convolution" type="Convolution" version="opset1">
			<data strides="1, 1, 1" dilations="1, 1, 1" pads_begin="0, 0, 0" pads_end="0, 0, 0" auto_pad="same_upper" />
			<input>
				<port id="0" precision="FP32">
					<dim>1</dim>
					<dim>24</dim>
					<dim>20</dim>
					<dim>14</dim>
					<dim>14</dim>
				</port>
				<port id="1" precision="FP32">
					<dim>64</dim>
					<dim>24</dim>
					<dim>3</dim>
					<dim>3</dim>
					<dim>3</dim>
				</port>
			</input>
			<output>
				<port id="2" precision="FP32" names="RGB/inception_i3d/Mixed_4c/Branch_2/Conv3d_0b_3x3/batch_norm/batch_norm/mul:0">
					<dim>1</dim>
					<dim>64</dim>
					<dim>20</dim>
					<dim>14</dim>
					<dim>14</dim>
				</port>
			</output>
		</layer>
		<layer id="141" name="RGB/inception_i3d/Mixed_4c/Branch_2/Conv3d_0b_3x3/batch_norm/batch_norm/sub" type="Const" version="opset1">
			<data element_type="f32" shape="1, 64, 1, 1, 1" offset="12933068" size="256" />
			<output>
				<port id="0" precision="FP32" names="RGB/inception_i3d/Mixed_4c/Branch_2/Conv3d_0b_3x3/batch_norm/batch_norm/sub:0">
					<dim>1</dim>
					<dim>64</dim>
					<dim>1</dim>
					<dim>1</dim>
					<dim>1</dim>
				</port>
			</output>
		</layer>
		<layer id="142" name="RGB/inception_i3d/Mixed_4c/Branch_2/Conv3d_0b_3x3/batch_norm/batch_norm/add_1" type="Add" version="opset1">
			<data auto_broadcast="numpy" />
			<input>
				<port id="0" precision="FP32">
					<dim>1</dim>
					<dim>64</dim>
					<dim>20</dim>
					<dim>14</dim>
					<dim>14</dim>
				</port>
				<port id="1" precision="FP32">
					<dim>1</dim>
					<dim>64</dim>
					<dim>1</dim>
					<dim>1</dim>
					<dim>1</dim>
				</port>
			</input>
			<output>
				<port id="2" precision="FP32" names="RGB/inception_i3d/Mixed_4c/Branch_2/Conv3d_0b_3x3/batch_norm/batch_norm/add_1:0">
					<dim>1</dim>
					<dim>64</dim>
					<dim>20</dim>
					<dim>14</dim>
					<dim>14</dim>
				</port>
			</output>
		</layer>
		<layer id="143" name="RGB/inception_i3d/Mixed_4c/Branch_2/Conv3d_0b_3x3/Relu" type="ReLU" version="opset1">
			<input>
				<port id="0" precision="FP32">
					<dim>1</dim>
					<dim>64</dim>
					<dim>20</dim>
					<dim>14</dim>
					<dim>14</dim>
				</port>
			</input>
			<output>
				<port id="1" precision="FP32" names="RGB/inception_i3d/Mixed_4c/Branch_2/Conv3d_0b_3x3/Relu:0">
					<dim>1</dim>
					<dim>64</dim>
					<dim>20</dim>
					<dim>14</dim>
					<dim>14</dim>
				</port>
			</output>
		</layer>
		<layer id="144" name="RGB/inception_i3d/Mixed_4c/Branch_3/MaxPool3d_0a_3x3" type="MaxPool" version="opset8">
			<data strides="1, 1, 1" dilations="1, 1, 1" pads_begin="0, 0, 0" pads_end="0, 0, 0" kernel="3, 3, 3" rounding_type="floor" auto_pad="same_upper" index_element_type="i64" axis="0" />
			<input>
				<port id="0" precision="FP32">
					<dim>1</dim>
					<dim>512</dim>
					<dim>20</dim>
					<dim>14</dim>
					<dim>14</dim>
				</port>
			</input>
			<output>
				<port id="1" precision="FP32" names="RGB/inception_i3d/Mixed_4c/Branch_3/MaxPool3d_0a_3x3:0">
					<dim>1</dim>
					<dim>512</dim>
					<dim>20</dim>
					<dim>14</dim>
					<dim>14</dim>
				</port>
				<port id="2" precision="I64">
					<dim>1</dim>
					<dim>512</dim>
					<dim>20</dim>
					<dim>14</dim>
					<dim>14</dim>
				</port>
			</output>
		</layer>
		<layer id="145" name="RGB/inception_i3d/Mixed_4c/Branch_3/Conv3d_0b_1x1/batch_norm/batch_norm/mul_copy" type="Const" version="opset1">
			<data element_type="f32" shape="64, 512, 1, 1, 1" offset="12933324" size="131072" />
			<output>
				<port id="0" precision="FP32" names="RGB/inception_i3d/Mixed_4c/Branch_3/Conv3d_0b_1x1/conv_3d/w/read:0">
					<dim>64</dim>
					<dim>512</dim>
					<dim>1</dim>
					<dim>1</dim>
					<dim>1</dim>
				</port>
			</output>
		</layer>
		<layer id="146" name="RGB/inception_i3d/Mixed_4c/Branch_3/Conv3d_0b_1x1/conv_3d/convolution" type="Convolution" version="opset1">
			<data strides="1, 1, 1" dilations="1, 1, 1" pads_begin="0, 0, 0" pads_end="0, 0, 0" auto_pad="same_upper" />
			<input>
				<port id="0" precision="FP32">
					<dim>1</dim>
					<dim>512</dim>
					<dim>20</dim>
					<dim>14</dim>
					<dim>14</dim>
				</port>
				<port id="1" precision="FP32">
					<dim>64</dim>
					<dim>512</dim>
					<dim>1</dim>
					<dim>1</dim>
					<dim>1</dim>
				</port>
			</input>
			<output>
				<port id="2" precision="FP32" names="RGB/inception_i3d/Mixed_4c/Branch_3/Conv3d_0b_1x1/batch_norm/batch_norm/mul:0">
					<dim>1</dim>
					<dim>64</dim>
					<dim>20</dim>
					<dim>14</dim>
					<dim>14</dim>
				</port>
			</output>
		</layer>
		<layer id="147" name="RGB/inception_i3d/Mixed_4c/Branch_3/Conv3d_0b_1x1/batch_norm/batch_norm/sub" type="Const" version="opset1">
			<data element_type="f32" shape="1, 64, 1, 1, 1" offset="13064396" size="256" />
			<output>
				<port id="0" precision="FP32" names="RGB/inception_i3d/Mixed_4c/Branch_3/Conv3d_0b_1x1/batch_norm/batch_norm/sub:0">
					<dim>1</dim>
					<dim>64</dim>
					<dim>1</dim>
					<dim>1</dim>
					<dim>1</dim>
				</port>
			</output>
		</layer>
		<layer id="148" name="RGB/inception_i3d/Mixed_4c/Branch_3/Conv3d_0b_1x1/batch_norm/batch_norm/add_1" type="Add" version="opset1">
			<data auto_broadcast="numpy" />
			<input>
				<port id="0" precision="FP32">
					<dim>1</dim>
					<dim>64</dim>
					<dim>20</dim>
					<dim>14</dim>
					<dim>14</dim>
				</port>
				<port id="1" precision="FP32">
					<dim>1</dim>
					<dim>64</dim>
					<dim>1</dim>
					<dim>1</dim>
					<dim>1</dim>
				</port>
			</input>
			<output>
				<port id="2" precision="FP32" names="RGB/inception_i3d/Mixed_4c/Branch_3/Conv3d_0b_1x1/batch_norm/batch_norm/add_1:0">
					<dim>1</dim>
					<dim>64</dim>
					<dim>20</dim>
					<dim>14</dim>
					<dim>14</dim>
				</port>
			</output>
		</layer>
		<layer id="149" name="RGB/inception_i3d/Mixed_4c/Branch_3/Conv3d_0b_1x1/Relu" type="ReLU" version="opset1">
			<input>
				<port id="0" precision="FP32">
					<dim>1</dim>
					<dim>64</dim>
					<dim>20</dim>
					<dim>14</dim>
					<dim>14</dim>
				</port>
			</input>
			<output>
				<port id="1" precision="FP32" names="RGB/inception_i3d/Mixed_4c/Branch_3/Conv3d_0b_1x1/Relu:0">
					<dim>1</dim>
					<dim>64</dim>
					<dim>20</dim>
					<dim>14</dim>
					<dim>14</dim>
				</port>
			</output>
		</layer>
		<layer id="150" name="RGB/inception_i3d/Mixed_4c/concat" type="Concat" version="opset1">
			<data axis="1" />
			<input>
				<port id="0" precision="FP32">
					<dim>1</dim>
					<dim>160</dim>
					<dim>20</dim>
					<dim>14</dim>
					<dim>14</dim>
				</port>
				<port id="1" precision="FP32">
					<dim>1</dim>
					<dim>224</dim>
					<dim>20</dim>
					<dim>14</dim>
					<dim>14</dim>
				</port>
				<port id="2" precision="FP32">
					<dim>1</dim>
					<dim>64</dim>
					<dim>20</dim>
					<dim>14</dim>
					<dim>14</dim>
				</port>
				<port id="3" precision="FP32">
					<dim>1</dim>
					<dim>64</dim>
					<dim>20</dim>
					<dim>14</dim>
					<dim>14</dim>
				</port>
			</input>
			<output>
				<port id="4" precision="FP32" names="RGB/inception_i3d/Mixed_4c/concat:0">
					<dim>1</dim>
					<dim>512</dim>
					<dim>20</dim>
					<dim>14</dim>
					<dim>14</dim>
				</port>
			</output>
		</layer>
		<layer id="151" name="RGB/inception_i3d/Mixed_4d/Branch_0/Conv3d_0a_1x1/batch_norm/batch_norm/mul_copy" type="Const" version="opset1">
			<data element_type="f32" shape="128, 512, 1, 1, 1" offset="13064652" size="262144" />
			<output>
				<port id="0" precision="FP32" names="RGB/inception_i3d/Mixed_4d/Branch_0/Conv3d_0a_1x1/conv_3d/w/read:0">
					<dim>128</dim>
					<dim>512</dim>
					<dim>1</dim>
					<dim>1</dim>
					<dim>1</dim>
				</port>
			</output>
		</layer>
		<layer id="152" name="RGB/inception_i3d/Mixed_4d/Branch_0/Conv3d_0a_1x1/conv_3d/convolution" type="Convolution" version="opset1">
			<data strides="1, 1, 1" dilations="1, 1, 1" pads_begin="0, 0, 0" pads_end="0, 0, 0" auto_pad="same_upper" />
			<input>
				<port id="0" precision="FP32">
					<dim>1</dim>
					<dim>512</dim>
					<dim>20</dim>
					<dim>14</dim>
					<dim>14</dim>
				</port>
				<port id="1" precision="FP32">
					<dim>128</dim>
					<dim>512</dim>
					<dim>1</dim>
					<dim>1</dim>
					<dim>1</dim>
				</port>
			</input>
			<output>
				<port id="2" precision="FP32" names="RGB/inception_i3d/Mixed_4d/Branch_0/Conv3d_0a_1x1/batch_norm/batch_norm/mul:0">
					<dim>1</dim>
					<dim>128</dim>
					<dim>20</dim>
					<dim>14</dim>
					<dim>14</dim>
				</port>
			</output>
		</layer>
		<layer id="153" name="RGB/inception_i3d/Mixed_4d/Branch_0/Conv3d_0a_1x1/batch_norm/batch_norm/sub" type="Const" version="opset1">
			<data element_type="f32" shape="1, 128, 1, 1, 1" offset="13326796" size="512" />
			<output>
				<port id="0" precision="FP32" names="RGB/inception_i3d/Mixed_4d/Branch_0/Conv3d_0a_1x1/batch_norm/batch_norm/sub:0">
					<dim>1</dim>
					<dim>128</dim>
					<dim>1</dim>
					<dim>1</dim>
					<dim>1</dim>
				</port>
			</output>
		</layer>
		<layer id="154" name="RGB/inception_i3d/Mixed_4d/Branch_0/Conv3d_0a_1x1/batch_norm/batch_norm/add_1" type="Add" version="opset1">
			<data auto_broadcast="numpy" />
			<input>
				<port id="0" precision="FP32">
					<dim>1</dim>
					<dim>128</dim>
					<dim>20</dim>
					<dim>14</dim>
					<dim>14</dim>
				</port>
				<port id="1" precision="FP32">
					<dim>1</dim>
					<dim>128</dim>
					<dim>1</dim>
					<dim>1</dim>
					<dim>1</dim>
				</port>
			</input>
			<output>
				<port id="2" precision="FP32" names="RGB/inception_i3d/Mixed_4d/Branch_0/Conv3d_0a_1x1/batch_norm/batch_norm/add_1:0">
					<dim>1</dim>
					<dim>128</dim>
					<dim>20</dim>
					<dim>14</dim>
					<dim>14</dim>
				</port>
			</output>
		</layer>
		<layer id="155" name="RGB/inception_i3d/Mixed_4d/Branch_0/Conv3d_0a_1x1/Relu" type="ReLU" version="opset1">
			<input>
				<port id="0" precision="FP32">
					<dim>1</dim>
					<dim>128</dim>
					<dim>20</dim>
					<dim>14</dim>
					<dim>14</dim>
				</port>
			</input>
			<output>
				<port id="1" precision="FP32" names="RGB/inception_i3d/Mixed_4d/Branch_0/Conv3d_0a_1x1/Relu:0">
					<dim>1</dim>
					<dim>128</dim>
					<dim>20</dim>
					<dim>14</dim>
					<dim>14</dim>
				</port>
			</output>
		</layer>
		<layer id="156" name="RGB/inception_i3d/Mixed_4d/Branch_1/Conv3d_0a_1x1/batch_norm/batch_norm/mul_copy" type="Const" version="opset1">
			<data element_type="f32" shape="128, 512, 1, 1, 1" offset="13327308" size="262144" />
			<output>
				<port id="0" precision="FP32" names="RGB/inception_i3d/Mixed_4d/Branch_1/Conv3d_0a_1x1/conv_3d/w/read:0">
					<dim>128</dim>
					<dim>512</dim>
					<dim>1</dim>
					<dim>1</dim>
					<dim>1</dim>
				</port>
			</output>
		</layer>
		<layer id="157" name="RGB/inception_i3d/Mixed_4d/Branch_1/Conv3d_0a_1x1/conv_3d/convolution" type="Convolution" version="opset1">
			<data strides="1, 1, 1" dilations="1, 1, 1" pads_begin="0, 0, 0" pads_end="0, 0, 0" auto_pad="same_upper" />
			<input>
				<port id="0" precision="FP32">
					<dim>1</dim>
					<dim>512</dim>
					<dim>20</dim>
					<dim>14</dim>
					<dim>14</dim>
				</port>
				<port id="1" precision="FP32">
					<dim>128</dim>
					<dim>512</dim>
					<dim>1</dim>
					<dim>1</dim>
					<dim>1</dim>
				</port>
			</input>
			<output>
				<port id="2" precision="FP32" names="RGB/inception_i3d/Mixed_4d/Branch_1/Conv3d_0a_1x1/batch_norm/batch_norm/mul:0">
					<dim>1</dim>
					<dim>128</dim>
					<dim>20</dim>
					<dim>14</dim>
					<dim>14</dim>
				</port>
			</output>
		</layer>
		<layer id="158" name="RGB/inception_i3d/Mixed_4d/Branch_1/Conv3d_0a_1x1/batch_norm/batch_norm/sub" type="Const" version="opset1">
			<data element_type="f32" shape="1, 128, 1, 1, 1" offset="13589452" size="512" />
			<output>
				<port id="0" precision="FP32" names="RGB/inception_i3d/Mixed_4d/Branch_1/Conv3d_0a_1x1/batch_norm/batch_norm/sub:0">
					<dim>1</dim>
					<dim>128</dim>
					<dim>1</dim>
					<dim>1</dim>
					<dim>1</dim>
				</port>
			</output>
		</layer>
		<layer id="159" name="RGB/inception_i3d/Mixed_4d/Branch_1/Conv3d_0a_1x1/batch_norm/batch_norm/add_1" type="Add" version="opset1">
			<data auto_broadcast="numpy" />
			<input>
				<port id="0" precision="FP32">
					<dim>1</dim>
					<dim>128</dim>
					<dim>20</dim>
					<dim>14</dim>
					<dim>14</dim>
				</port>
				<port id="1" precision="FP32">
					<dim>1</dim>
					<dim>128</dim>
					<dim>1</dim>
					<dim>1</dim>
					<dim>1</dim>
				</port>
			</input>
			<output>
				<port id="2" precision="FP32" names="RGB/inception_i3d/Mixed_4d/Branch_1/Conv3d_0a_1x1/batch_norm/batch_norm/add_1:0">
					<dim>1</dim>
					<dim>128</dim>
					<dim>20</dim>
					<dim>14</dim>
					<dim>14</dim>
				</port>
			</output>
		</layer>
		<layer id="160" name="RGB/inception_i3d/Mixed_4d/Branch_1/Conv3d_0a_1x1/Relu" type="ReLU" version="opset1">
			<input>
				<port id="0" precision="FP32">
					<dim>1</dim>
					<dim>128</dim>
					<dim>20</dim>
					<dim>14</dim>
					<dim>14</dim>
				</port>
			</input>
			<output>
				<port id="1" precision="FP32" names="RGB/inception_i3d/Mixed_4d/Branch_1/Conv3d_0a_1x1/Relu:0">
					<dim>1</dim>
					<dim>128</dim>
					<dim>20</dim>
					<dim>14</dim>
					<dim>14</dim>
				</port>
			</output>
		</layer>
		<layer id="161" name="RGB/inception_i3d/Mixed_4d/Branch_1/Conv3d_0b_3x3/batch_norm/batch_norm/mul_copy" type="Const" version="opset1">
			<data element_type="f32" shape="256, 128, 3, 3, 3" offset="13589964" size="3538944" />
			<output>
				<port id="0" precision="FP32" names="RGB/inception_i3d/Mixed_4d/Branch_1/Conv3d_0b_3x3/conv_3d/w/read:0">
					<dim>256</dim>
					<dim>128</dim>
					<dim>3</dim>
					<dim>3</dim>
					<dim>3</dim>
				</port>
			</output>
		</layer>
		<layer id="162" name="RGB/inception_i3d/Mixed_4d/Branch_1/Conv3d_0b_3x3/conv_3d/convolution" type="Convolution" version="opset1">
			<data strides="1, 1, 1" dilations="1, 1, 1" pads_begin="0, 0, 0" pads_end="0, 0, 0" auto_pad="same_upper" />
			<input>
				<port id="0" precision="FP32">
					<dim>1</dim>
					<dim>128</dim>
					<dim>20</dim>
					<dim>14</dim>
					<dim>14</dim>
				</port>
				<port id="1" precision="FP32">
					<dim>256</dim>
					<dim>128</dim>
					<dim>3</dim>
					<dim>3</dim>
					<dim>3</dim>
				</port>
			</input>
			<output>
				<port id="2" precision="FP32" names="RGB/inception_i3d/Mixed_4d/Branch_1/Conv3d_0b_3x3/batch_norm/batch_norm/mul:0">
					<dim>1</dim>
					<dim>256</dim>
					<dim>20</dim>
					<dim>14</dim>
					<dim>14</dim>
				</port>
			</output>
		</layer>
		<layer id="163" name="RGB/inception_i3d/Mixed_4d/Branch_1/Conv3d_0b_3x3/batch_norm/batch_norm/sub" type="Const" version="opset1">
			<data element_type="f32" shape="1, 256, 1, 1, 1" offset="17128908" size="1024" />
			<output>
				<port id="0" precision="FP32" names="RGB/inception_i3d/Mixed_4d/Branch_1/Conv3d_0b_3x3/batch_norm/batch_norm/sub:0">
					<dim>1</dim>
					<dim>256</dim>
					<dim>1</dim>
					<dim>1</dim>
					<dim>1</dim>
				</port>
			</output>
		</layer>
		<layer id="164" name="RGB/inception_i3d/Mixed_4d/Branch_1/Conv3d_0b_3x3/batch_norm/batch_norm/add_1" type="Add" version="opset1">
			<data auto_broadcast="numpy" />
			<input>
				<port id="0" precision="FP32">
					<dim>1</dim>
					<dim>256</dim>
					<dim>20</dim>
					<dim>14</dim>
					<dim>14</dim>
				</port>
				<port id="1" precision="FP32">
					<dim>1</dim>
					<dim>256</dim>
					<dim>1</dim>
					<dim>1</dim>
					<dim>1</dim>
				</port>
			</input>
			<output>
				<port id="2" precision="FP32" names="RGB/inception_i3d/Mixed_4d/Branch_1/Conv3d_0b_3x3/batch_norm/batch_norm/add_1:0">
					<dim>1</dim>
					<dim>256</dim>
					<dim>20</dim>
					<dim>14</dim>
					<dim>14</dim>
				</port>
			</output>
		</layer>
		<layer id="165" name="RGB/inception_i3d/Mixed_4d/Branch_1/Conv3d_0b_3x3/Relu" type="ReLU" version="opset1">
			<input>
				<port id="0" precision="FP32">
					<dim>1</dim>
					<dim>256</dim>
					<dim>20</dim>
					<dim>14</dim>
					<dim>14</dim>
				</port>
			</input>
			<output>
				<port id="1" precision="FP32" names="RGB/inception_i3d/Mixed_4d/Branch_1/Conv3d_0b_3x3/Relu:0">
					<dim>1</dim>
					<dim>256</dim>
					<dim>20</dim>
					<dim>14</dim>
					<dim>14</dim>
				</port>
			</output>
		</layer>
		<layer id="166" name="RGB/inception_i3d/Mixed_4d/Branch_2/Conv3d_0a_1x1/batch_norm/batch_norm/mul_copy" type="Const" version="opset1">
			<data element_type="f32" shape="24, 512, 1, 1, 1" offset="17129932" size="49152" />
			<output>
				<port id="0" precision="FP32" names="RGB/inception_i3d/Mixed_4d/Branch_2/Conv3d_0a_1x1/conv_3d/w/read:0">
					<dim>24</dim>
					<dim>512</dim>
					<dim>1</dim>
					<dim>1</dim>
					<dim>1</dim>
				</port>
			</output>
		</layer>
		<layer id="167" name="RGB/inception_i3d/Mixed_4d/Branch_2/Conv3d_0a_1x1/conv_3d/convolution" type="Convolution" version="opset1">
			<data strides="1, 1, 1" dilations="1, 1, 1" pads_begin="0, 0, 0" pads_end="0, 0, 0" auto_pad="same_upper" />
			<input>
				<port id="0" precision="FP32">
					<dim>1</dim>
					<dim>512</dim>
					<dim>20</dim>
					<dim>14</dim>
					<dim>14</dim>
				</port>
				<port id="1" precision="FP32">
					<dim>24</dim>
					<dim>512</dim>
					<dim>1</dim>
					<dim>1</dim>
					<dim>1</dim>
				</port>
			</input>
			<output>
				<port id="2" precision="FP32" names="RGB/inception_i3d/Mixed_4d/Branch_2/Conv3d_0a_1x1/batch_norm/batch_norm/mul:0">
					<dim>1</dim>
					<dim>24</dim>
					<dim>20</dim>
					<dim>14</dim>
					<dim>14</dim>
				</port>
			</output>
		</layer>
		<layer id="168" name="RGB/inception_i3d/Mixed_4d/Branch_2/Conv3d_0a_1x1/batch_norm/batch_norm/sub" type="Const" version="opset1">
			<data element_type="f32" shape="1, 24, 1, 1, 1" offset="17179084" size="96" />
			<output>
				<port id="0" precision="FP32" names="RGB/inception_i3d/Mixed_4d/Branch_2/Conv3d_0a_1x1/batch_norm/batch_norm/sub:0">
					<dim>1</dim>
					<dim>24</dim>
					<dim>1</dim>
					<dim>1</dim>
					<dim>1</dim>
				</port>
			</output>
		</layer>
		<layer id="169" name="RGB/inception_i3d/Mixed_4d/Branch_2/Conv3d_0a_1x1/batch_norm/batch_norm/add_1" type="Add" version="opset1">
			<data auto_broadcast="numpy" />
			<input>
				<port id="0" precision="FP32">
					<dim>1</dim>
					<dim>24</dim>
					<dim>20</dim>
					<dim>14</dim>
					<dim>14</dim>
				</port>
				<port id="1" precision="FP32">
					<dim>1</dim>
					<dim>24</dim>
					<dim>1</dim>
					<dim>1</dim>
					<dim>1</dim>
				</port>
			</input>
			<output>
				<port id="2" precision="FP32" names="RGB/inception_i3d/Mixed_4d/Branch_2/Conv3d_0a_1x1/batch_norm/batch_norm/add_1:0">
					<dim>1</dim>
					<dim>24</dim>
					<dim>20</dim>
					<dim>14</dim>
					<dim>14</dim>
				</port>
			</output>
		</layer>
		<layer id="170" name="RGB/inception_i3d/Mixed_4d/Branch_2/Conv3d_0a_1x1/Relu" type="ReLU" version="opset1">
			<input>
				<port id="0" precision="FP32">
					<dim>1</dim>
					<dim>24</dim>
					<dim>20</dim>
					<dim>14</dim>
					<dim>14</dim>
				</port>
			</input>
			<output>
				<port id="1" precision="FP32" names="RGB/inception_i3d/Mixed_4d/Branch_2/Conv3d_0a_1x1/Relu:0">
					<dim>1</dim>
					<dim>24</dim>
					<dim>20</dim>
					<dim>14</dim>
					<dim>14</dim>
				</port>
			</output>
		</layer>
		<layer id="171" name="RGB/inception_i3d/Mixed_4d/Branch_2/Conv3d_0b_3x3/batch_norm/batch_norm/mul_copy" type="Const" version="opset1">
			<data element_type="f32" shape="64, 24, 3, 3, 3" offset="17179180" size="165888" />
			<output>
				<port id="0" precision="FP32" names="RGB/inception_i3d/Mixed_4d/Branch_2/Conv3d_0b_3x3/conv_3d/w/read:0">
					<dim>64</dim>
					<dim>24</dim>
					<dim>3</dim>
					<dim>3</dim>
					<dim>3</dim>
				</port>
			</output>
		</layer>
		<layer id="172" name="RGB/inception_i3d/Mixed_4d/Branch_2/Conv3d_0b_3x3/conv_3d/convolution" type="Convolution" version="opset1">
			<data strides="1, 1, 1" dilations="1, 1, 1" pads_begin="0, 0, 0" pads_end="0, 0, 0" auto_pad="same_upper" />
			<input>
				<port id="0" precision="FP32">
					<dim>1</dim>
					<dim>24</dim>
					<dim>20</dim>
					<dim>14</dim>
					<dim>14</dim>
				</port>
				<port id="1" precision="FP32">
					<dim>64</dim>
					<dim>24</dim>
					<dim>3</dim>
					<dim>3</dim>
					<dim>3</dim>
				</port>
			</input>
			<output>
				<port id="2" precision="FP32" names="RGB/inception_i3d/Mixed_4d/Branch_2/Conv3d_0b_3x3/batch_norm/batch_norm/mul:0">
					<dim>1</dim>
					<dim>64</dim>
					<dim>20</dim>
					<dim>14</dim>
					<dim>14</dim>
				</port>
			</output>
		</layer>
		<layer id="173" name="RGB/inception_i3d/Mixed_4d/Branch_2/Conv3d_0b_3x3/batch_norm/batch_norm/sub" type="Const" version="opset1">
			<data element_type="f32" shape="1, 64, 1, 1, 1" offset="17345068" size="256" />
			<output>
				<port id="0" precision="FP32" names="RGB/inception_i3d/Mixed_4d/Branch_2/Conv3d_0b_3x3/batch_norm/batch_norm/sub:0">
					<dim>1</dim>
					<dim>64</dim>
					<dim>1</dim>
					<dim>1</dim>
					<dim>1</dim>
				</port>
			</output>
		</layer>
		<layer id="174" name="RGB/inception_i3d/Mixed_4d/Branch_2/Conv3d_0b_3x3/batch_norm/batch_norm/add_1" type="Add" version="opset1">
			<data auto_broadcast="numpy" />
			<input>
				<port id="0" precision="FP32">
					<dim>1</dim>
					<dim>64</dim>
					<dim>20</dim>
					<dim>14</dim>
					<dim>14</dim>
				</port>
				<port id="1" precision="FP32">
					<dim>1</dim>
					<dim>64</dim>
					<dim>1</dim>
					<dim>1</dim>
					<dim>1</dim>
				</port>
			</input>
			<output>
				<port id="2" precision="FP32" names="RGB/inception_i3d/Mixed_4d/Branch_2/Conv3d_0b_3x3/batch_norm/batch_norm/add_1:0">
					<dim>1</dim>
					<dim>64</dim>
					<dim>20</dim>
					<dim>14</dim>
					<dim>14</dim>
				</port>
			</output>
		</layer>
		<layer id="175" name="RGB/inception_i3d/Mixed_4d/Branch_2/Conv3d_0b_3x3/Relu" type="ReLU" version="opset1">
			<input>
				<port id="0" precision="FP32">
					<dim>1</dim>
					<dim>64</dim>
					<dim>20</dim>
					<dim>14</dim>
					<dim>14</dim>
				</port>
			</input>
			<output>
				<port id="1" precision="FP32" names="RGB/inception_i3d/Mixed_4d/Branch_2/Conv3d_0b_3x3/Relu:0">
					<dim>1</dim>
					<dim>64</dim>
					<dim>20</dim>
					<dim>14</dim>
					<dim>14</dim>
				</port>
			</output>
		</layer>
		<layer id="176" name="RGB/inception_i3d/Mixed_4d/Branch_3/MaxPool3d_0a_3x3" type="MaxPool" version="opset8">
			<data strides="1, 1, 1" dilations="1, 1, 1" pads_begin="0, 0, 0" pads_end="0, 0, 0" kernel="3, 3, 3" rounding_type="floor" auto_pad="same_upper" index_element_type="i64" axis="0" />
			<input>
				<port id="0" precision="FP32">
					<dim>1</dim>
					<dim>512</dim>
					<dim>20</dim>
					<dim>14</dim>
					<dim>14</dim>
				</port>
			</input>
			<output>
				<port id="1" precision="FP32" names="RGB/inception_i3d/Mixed_4d/Branch_3/MaxPool3d_0a_3x3:0">
					<dim>1</dim>
					<dim>512</dim>
					<dim>20</dim>
					<dim>14</dim>
					<dim>14</dim>
				</port>
				<port id="2" precision="I64">
					<dim>1</dim>
					<dim>512</dim>
					<dim>20</dim>
					<dim>14</dim>
					<dim>14</dim>
				</port>
			</output>
		</layer>
		<layer id="177" name="RGB/inception_i3d/Mixed_4d/Branch_3/Conv3d_0b_1x1/batch_norm/batch_norm/mul_copy" type="Const" version="opset1">
			<data element_type="f32" shape="64, 512, 1, 1, 1" offset="17345324" size="131072" />
			<output>
				<port id="0" precision="FP32" names="RGB/inception_i3d/Mixed_4d/Branch_3/Conv3d_0b_1x1/conv_3d/w/read:0">
					<dim>64</dim>
					<dim>512</dim>
					<dim>1</dim>
					<dim>1</dim>
					<dim>1</dim>
				</port>
			</output>
		</layer>
		<layer id="178" name="RGB/inception_i3d/Mixed_4d/Branch_3/Conv3d_0b_1x1/conv_3d/convolution" type="Convolution" version="opset1">
			<data strides="1, 1, 1" dilations="1, 1, 1" pads_begin="0, 0, 0" pads_end="0, 0, 0" auto_pad="same_upper" />
			<input>
				<port id="0" precision="FP32">
					<dim>1</dim>
					<dim>512</dim>
					<dim>20</dim>
					<dim>14</dim>
					<dim>14</dim>
				</port>
				<port id="1" precision="FP32">
					<dim>64</dim>
					<dim>512</dim>
					<dim>1</dim>
					<dim>1</dim>
					<dim>1</dim>
				</port>
			</input>
			<output>
				<port id="2" precision="FP32" names="RGB/inception_i3d/Mixed_4d/Branch_3/Conv3d_0b_1x1/batch_norm/batch_norm/mul:0">
					<dim>1</dim>
					<dim>64</dim>
					<dim>20</dim>
					<dim>14</dim>
					<dim>14</dim>
				</port>
			</output>
		</layer>
		<layer id="179" name="RGB/inception_i3d/Mixed_4d/Branch_3/Conv3d_0b_1x1/batch_norm/batch_norm/sub" type="Const" version="opset1">
			<data element_type="f32" shape="1, 64, 1, 1, 1" offset="17476396" size="256" />
			<output>
				<port id="0" precision="FP32" names="RGB/inception_i3d/Mixed_4d/Branch_3/Conv3d_0b_1x1/batch_norm/batch_norm/sub:0">
					<dim>1</dim>
					<dim>64</dim>
					<dim>1</dim>
					<dim>1</dim>
					<dim>1</dim>
				</port>
			</output>
		</layer>
		<layer id="180" name="RGB/inception_i3d/Mixed_4d/Branch_3/Conv3d_0b_1x1/batch_norm/batch_norm/add_1" type="Add" version="opset1">
			<data auto_broadcast="numpy" />
			<input>
				<port id="0" precision="FP32">
					<dim>1</dim>
					<dim>64</dim>
					<dim>20</dim>
					<dim>14</dim>
					<dim>14</dim>
				</port>
				<port id="1" precision="FP32">
					<dim>1</dim>
					<dim>64</dim>
					<dim>1</dim>
					<dim>1</dim>
					<dim>1</dim>
				</port>
			</input>
			<output>
				<port id="2" precision="FP32" names="RGB/inception_i3d/Mixed_4d/Branch_3/Conv3d_0b_1x1/batch_norm/batch_norm/add_1:0">
					<dim>1</dim>
					<dim>64</dim>
					<dim>20</dim>
					<dim>14</dim>
					<dim>14</dim>
				</port>
			</output>
		</layer>
		<layer id="181" name="RGB/inception_i3d/Mixed_4d/Branch_3/Conv3d_0b_1x1/Relu" type="ReLU" version="opset1">
			<input>
				<port id="0" precision="FP32">
					<dim>1</dim>
					<dim>64</dim>
					<dim>20</dim>
					<dim>14</dim>
					<dim>14</dim>
				</port>
			</input>
			<output>
				<port id="1" precision="FP32" names="RGB/inception_i3d/Mixed_4d/Branch_3/Conv3d_0b_1x1/Relu:0">
					<dim>1</dim>
					<dim>64</dim>
					<dim>20</dim>
					<dim>14</dim>
					<dim>14</dim>
				</port>
			</output>
		</layer>
		<layer id="182" name="RGB/inception_i3d/Mixed_4d/concat" type="Concat" version="opset1">
			<data axis="1" />
			<input>
				<port id="0" precision="FP32">
					<dim>1</dim>
					<dim>128</dim>
					<dim>20</dim>
					<dim>14</dim>
					<dim>14</dim>
				</port>
				<port id="1" precision="FP32">
					<dim>1</dim>
					<dim>256</dim>
					<dim>20</dim>
					<dim>14</dim>
					<dim>14</dim>
				</port>
				<port id="2" precision="FP32">
					<dim>1</dim>
					<dim>64</dim>
					<dim>20</dim>
					<dim>14</dim>
					<dim>14</dim>
				</port>
				<port id="3" precision="FP32">
					<dim>1</dim>
					<dim>64</dim>
					<dim>20</dim>
					<dim>14</dim>
					<dim>14</dim>
				</port>
			</input>
			<output>
				<port id="4" precision="FP32" names="RGB/inception_i3d/Mixed_4d/concat:0">
					<dim>1</dim>
					<dim>512</dim>
					<dim>20</dim>
					<dim>14</dim>
					<dim>14</dim>
				</port>
			</output>
		</layer>
		<layer id="183" name="RGB/inception_i3d/Mixed_4e/Branch_0/Conv3d_0a_1x1/batch_norm/batch_norm/mul_copy" type="Const" version="opset1">
			<data element_type="f32" shape="112, 512, 1, 1, 1" offset="17476652" size="229376" />
			<output>
				<port id="0" precision="FP32" names="RGB/inception_i3d/Mixed_4e/Branch_0/Conv3d_0a_1x1/conv_3d/w/read:0">
					<dim>112</dim>
					<dim>512</dim>
					<dim>1</dim>
					<dim>1</dim>
					<dim>1</dim>
				</port>
			</output>
		</layer>
		<layer id="184" name="RGB/inception_i3d/Mixed_4e/Branch_0/Conv3d_0a_1x1/conv_3d/convolution" type="Convolution" version="opset1">
			<data strides="1, 1, 1" dilations="1, 1, 1" pads_begin="0, 0, 0" pads_end="0, 0, 0" auto_pad="same_upper" />
			<input>
				<port id="0" precision="FP32">
					<dim>1</dim>
					<dim>512</dim>
					<dim>20</dim>
					<dim>14</dim>
					<dim>14</dim>
				</port>
				<port id="1" precision="FP32">
					<dim>112</dim>
					<dim>512</dim>
					<dim>1</dim>
					<dim>1</dim>
					<dim>1</dim>
				</port>
			</input>
			<output>
				<port id="2" precision="FP32" names="RGB/inception_i3d/Mixed_4e/Branch_0/Conv3d_0a_1x1/batch_norm/batch_norm/mul:0">
					<dim>1</dim>
					<dim>112</dim>
					<dim>20</dim>
					<dim>14</dim>
					<dim>14</dim>
				</port>
			</output>
		</layer>
		<layer id="185" name="RGB/inception_i3d/Mixed_4e/Branch_0/Conv3d_0a_1x1/batch_norm/batch_norm/sub" type="Const" version="opset1">
			<data element_type="f32" shape="1, 112, 1, 1, 1" offset="17706028" size="448" />
			<output>
				<port id="0" precision="FP32" names="RGB/inception_i3d/Mixed_4e/Branch_0/Conv3d_0a_1x1/batch_norm/batch_norm/sub:0">
					<dim>1</dim>
					<dim>112</dim>
					<dim>1</dim>
					<dim>1</dim>
					<dim>1</dim>
				</port>
			</output>
		</layer>
		<layer id="186" name="RGB/inception_i3d/Mixed_4e/Branch_0/Conv3d_0a_1x1/batch_norm/batch_norm/add_1" type="Add" version="opset1">
			<data auto_broadcast="numpy" />
			<input>
				<port id="0" precision="FP32">
					<dim>1</dim>
					<dim>112</dim>
					<dim>20</dim>
					<dim>14</dim>
					<dim>14</dim>
				</port>
				<port id="1" precision="FP32">
					<dim>1</dim>
					<dim>112</dim>
					<dim>1</dim>
					<dim>1</dim>
					<dim>1</dim>
				</port>
			</input>
			<output>
				<port id="2" precision="FP32" names="RGB/inception_i3d/Mixed_4e/Branch_0/Conv3d_0a_1x1/batch_norm/batch_norm/add_1:0">
					<dim>1</dim>
					<dim>112</dim>
					<dim>20</dim>
					<dim>14</dim>
					<dim>14</dim>
				</port>
			</output>
		</layer>
		<layer id="187" name="RGB/inception_i3d/Mixed_4e/Branch_0/Conv3d_0a_1x1/Relu" type="ReLU" version="opset1">
			<input>
				<port id="0" precision="FP32">
					<dim>1</dim>
					<dim>112</dim>
					<dim>20</dim>
					<dim>14</dim>
					<dim>14</dim>
				</port>
			</input>
			<output>
				<port id="1" precision="FP32" names="RGB/inception_i3d/Mixed_4e/Branch_0/Conv3d_0a_1x1/Relu:0">
					<dim>1</dim>
					<dim>112</dim>
					<dim>20</dim>
					<dim>14</dim>
					<dim>14</dim>
				</port>
			</output>
		</layer>
		<layer id="188" name="RGB/inception_i3d/Mixed_4e/Branch_1/Conv3d_0a_1x1/batch_norm/batch_norm/mul_copy" type="Const" version="opset1">
			<data element_type="f32" shape="144, 512, 1, 1, 1" offset="17706476" size="294912" />
			<output>
				<port id="0" precision="FP32" names="RGB/inception_i3d/Mixed_4e/Branch_1/Conv3d_0a_1x1/conv_3d/w/read:0">
					<dim>144</dim>
					<dim>512</dim>
					<dim>1</dim>
					<dim>1</dim>
					<dim>1</dim>
				</port>
			</output>
		</layer>
		<layer id="189" name="RGB/inception_i3d/Mixed_4e/Branch_1/Conv3d_0a_1x1/conv_3d/convolution" type="Convolution" version="opset1">
			<data strides="1, 1, 1" dilations="1, 1, 1" pads_begin="0, 0, 0" pads_end="0, 0, 0" auto_pad="same_upper" />
			<input>
				<port id="0" precision="FP32">
					<dim>1</dim>
					<dim>512</dim>
					<dim>20</dim>
					<dim>14</dim>
					<dim>14</dim>
				</port>
				<port id="1" precision="FP32">
					<dim>144</dim>
					<dim>512</dim>
					<dim>1</dim>
					<dim>1</dim>
					<dim>1</dim>
				</port>
			</input>
			<output>
				<port id="2" precision="FP32" names="RGB/inception_i3d/Mixed_4e/Branch_1/Conv3d_0a_1x1/batch_norm/batch_norm/mul:0">
					<dim>1</dim>
					<dim>144</dim>
					<dim>20</dim>
					<dim>14</dim>
					<dim>14</dim>
				</port>
			</output>
		</layer>
		<layer id="190" name="RGB/inception_i3d/Mixed_4e/Branch_1/Conv3d_0a_1x1/batch_norm/batch_norm/sub" type="Const" version="opset1">
			<data element_type="f32" shape="1, 144, 1, 1, 1" offset="18001388" size="576" />
			<output>
				<port id="0" precision="FP32" names="RGB/inception_i3d/Mixed_4e/Branch_1/Conv3d_0a_1x1/batch_norm/batch_norm/sub:0">
					<dim>1</dim>
					<dim>144</dim>
					<dim>1</dim>
					<dim>1</dim>
					<dim>1</dim>
				</port>
			</output>
		</layer>
		<layer id="191" name="RGB/inception_i3d/Mixed_4e/Branch_1/Conv3d_0a_1x1/batch_norm/batch_norm/add_1" type="Add" version="opset1">
			<data auto_broadcast="numpy" />
			<input>
				<port id="0" precision="FP32">
					<dim>1</dim>
					<dim>144</dim>
					<dim>20</dim>
					<dim>14</dim>
					<dim>14</dim>
				</port>
				<port id="1" precision="FP32">
					<dim>1</dim>
					<dim>144</dim>
					<dim>1</dim>
					<dim>1</dim>
					<dim>1</dim>
				</port>
			</input>
			<output>
				<port id="2" precision="FP32" names="RGB/inception_i3d/Mixed_4e/Branch_1/Conv3d_0a_1x1/batch_norm/batch_norm/add_1:0">
					<dim>1</dim>
					<dim>144</dim>
					<dim>20</dim>
					<dim>14</dim>
					<dim>14</dim>
				</port>
			</output>
		</layer>
		<layer id="192" name="RGB/inception_i3d/Mixed_4e/Branch_1/Conv3d_0a_1x1/Relu" type="ReLU" version="opset1">
			<input>
				<port id="0" precision="FP32">
					<dim>1</dim>
					<dim>144</dim>
					<dim>20</dim>
					<dim>14</dim>
					<dim>14</dim>
				</port>
			</input>
			<output>
				<port id="1" precision="FP32" names="RGB/inception_i3d/Mixed_4e/Branch_1/Conv3d_0a_1x1/Relu:0">
					<dim>1</dim>
					<dim>144</dim>
					<dim>20</dim>
					<dim>14</dim>
					<dim>14</dim>
				</port>
			</output>
		</layer>
		<layer id="193" name="RGB/inception_i3d/Mixed_4e/Branch_1/Conv3d_0b_3x3/batch_norm/batch_norm/mul_copy" type="Const" version="opset1">
			<data element_type="f32" shape="288, 144, 3, 3, 3" offset="18001964" size="4478976" />
			<output>
				<port id="0" precision="FP32" names="RGB/inception_i3d/Mixed_4e/Branch_1/Conv3d_0b_3x3/conv_3d/w/read:0">
					<dim>288</dim>
					<dim>144</dim>
					<dim>3</dim>
					<dim>3</dim>
					<dim>3</dim>
				</port>
			</output>
		</layer>
		<layer id="194" name="RGB/inception_i3d/Mixed_4e/Branch_1/Conv3d_0b_3x3/conv_3d/convolution" type="Convolution" version="opset1">
			<data strides="1, 1, 1" dilations="1, 1, 1" pads_begin="0, 0, 0" pads_end="0, 0, 0" auto_pad="same_upper" />
			<input>
				<port id="0" precision="FP32">
					<dim>1</dim>
					<dim>144</dim>
					<dim>20</dim>
					<dim>14</dim>
					<dim>14</dim>
				</port>
				<port id="1" precision="FP32">
					<dim>288</dim>
					<dim>144</dim>
					<dim>3</dim>
					<dim>3</dim>
					<dim>3</dim>
				</port>
			</input>
			<output>
				<port id="2" precision="FP32" names="RGB/inception_i3d/Mixed_4e/Branch_1/Conv3d_0b_3x3/batch_norm/batch_norm/mul:0">
					<dim>1</dim>
					<dim>288</dim>
					<dim>20</dim>
					<dim>14</dim>
					<dim>14</dim>
				</port>
			</output>
		</layer>
		<layer id="195" name="RGB/inception_i3d/Mixed_4e/Branch_1/Conv3d_0b_3x3/batch_norm/batch_norm/sub" type="Const" version="opset1">
			<data element_type="f32" shape="1, 288, 1, 1, 1" offset="22480940" size="1152" />
			<output>
				<port id="0" precision="FP32" names="RGB/inception_i3d/Mixed_4e/Branch_1/Conv3d_0b_3x3/batch_norm/batch_norm/sub:0">
					<dim>1</dim>
					<dim>288</dim>
					<dim>1</dim>
					<dim>1</dim>
					<dim>1</dim>
				</port>
			</output>
		</layer>
		<layer id="196" name="RGB/inception_i3d/Mixed_4e/Branch_1/Conv3d_0b_3x3/batch_norm/batch_norm/add_1" type="Add" version="opset1">
			<data auto_broadcast="numpy" />
			<input>
				<port id="0" precision="FP32">
					<dim>1</dim>
					<dim>288</dim>
					<dim>20</dim>
					<dim>14</dim>
					<dim>14</dim>
				</port>
				<port id="1" precision="FP32">
					<dim>1</dim>
					<dim>288</dim>
					<dim>1</dim>
					<dim>1</dim>
					<dim>1</dim>
				</port>
			</input>
			<output>
				<port id="2" precision="FP32" names="RGB/inception_i3d/Mixed_4e/Branch_1/Conv3d_0b_3x3/batch_norm/batch_norm/add_1:0">
					<dim>1</dim>
					<dim>288</dim>
					<dim>20</dim>
					<dim>14</dim>
					<dim>14</dim>
				</port>
			</output>
		</layer>
		<layer id="197" name="RGB/inception_i3d/Mixed_4e/Branch_1/Conv3d_0b_3x3/Relu" type="ReLU" version="opset1">
			<input>
				<port id="0" precision="FP32">
					<dim>1</dim>
					<dim>288</dim>
					<dim>20</dim>
					<dim>14</dim>
					<dim>14</dim>
				</port>
			</input>
			<output>
				<port id="1" precision="FP32" names="RGB/inception_i3d/Mixed_4e/Branch_1/Conv3d_0b_3x3/Relu:0">
					<dim>1</dim>
					<dim>288</dim>
					<dim>20</dim>
					<dim>14</dim>
					<dim>14</dim>
				</port>
			</output>
		</layer>
		<layer id="198" name="RGB/inception_i3d/Mixed_4e/Branch_2/Conv3d_0a_1x1/batch_norm/batch_norm/mul_copy" type="Const" version="opset1">
			<data element_type="f32" shape="32, 512, 1, 1, 1" offset="22482092" size="65536" />
			<output>
				<port id="0" precision="FP32" names="RGB/inception_i3d/Mixed_4e/Branch_2/Conv3d_0a_1x1/conv_3d/w/read:0">
					<dim>32</dim>
					<dim>512</dim>
					<dim>1</dim>
					<dim>1</dim>
					<dim>1</dim>
				</port>
			</output>
		</layer>
		<layer id="199" name="RGB/inception_i3d/Mixed_4e/Branch_2/Conv3d_0a_1x1/conv_3d/convolution" type="Convolution" version="opset1">
			<data strides="1, 1, 1" dilations="1, 1, 1" pads_begin="0, 0, 0" pads_end="0, 0, 0" auto_pad="same_upper" />
			<input>
				<port id="0" precision="FP32">
					<dim>1</dim>
					<dim>512</dim>
					<dim>20</dim>
					<dim>14</dim>
					<dim>14</dim>
				</port>
				<port id="1" precision="FP32">
					<dim>32</dim>
					<dim>512</dim>
					<dim>1</dim>
					<dim>1</dim>
					<dim>1</dim>
				</port>
			</input>
			<output>
				<port id="2" precision="FP32" names="RGB/inception_i3d/Mixed_4e/Branch_2/Conv3d_0a_1x1/batch_norm/batch_norm/mul:0">
					<dim>1</dim>
					<dim>32</dim>
					<dim>20</dim>
					<dim>14</dim>
					<dim>14</dim>
				</port>
			</output>
		</layer>
		<layer id="200" name="RGB/inception_i3d/Mixed_4e/Branch_2/Conv3d_0a_1x1/batch_norm/batch_norm/sub" type="Const" version="opset1">
			<data element_type="f32" shape="1, 32, 1, 1, 1" offset="22547628" size="128" />
			<output>
				<port id="0" precision="FP32" names="RGB/inception_i3d/Mixed_4e/Branch_2/Conv3d_0a_1x1/batch_norm/batch_norm/sub:0">
					<dim>1</dim>
					<dim>32</dim>
					<dim>1</dim>
					<dim>1</dim>
					<dim>1</dim>
				</port>
			</output>
		</layer>
		<layer id="201" name="RGB/inception_i3d/Mixed_4e/Branch_2/Conv3d_0a_1x1/batch_norm/batch_norm/add_1" type="Add" version="opset1">
			<data auto_broadcast="numpy" />
			<input>
				<port id="0" precision="FP32">
					<dim>1</dim>
					<dim>32</dim>
					<dim>20</dim>
					<dim>14</dim>
					<dim>14</dim>
				</port>
				<port id="1" precision="FP32">
					<dim>1</dim>
					<dim>32</dim>
					<dim>1</dim>
					<dim>1</dim>
					<dim>1</dim>
				</port>
			</input>
			<output>
				<port id="2" precision="FP32" names="RGB/inception_i3d/Mixed_4e/Branch_2/Conv3d_0a_1x1/batch_norm/batch_norm/add_1:0">
					<dim>1</dim>
					<dim>32</dim>
					<dim>20</dim>
					<dim>14</dim>
					<dim>14</dim>
				</port>
			</output>
		</layer>
		<layer id="202" name="RGB/inception_i3d/Mixed_4e/Branch_2/Conv3d_0a_1x1/Relu" type="ReLU" version="opset1">
			<input>
				<port id="0" precision="FP32">
					<dim>1</dim>
					<dim>32</dim>
					<dim>20</dim>
					<dim>14</dim>
					<dim>14</dim>
				</port>
			</input>
			<output>
				<port id="1" precision="FP32" names="RGB/inception_i3d/Mixed_4e/Branch_2/Conv3d_0a_1x1/Relu:0">
					<dim>1</dim>
					<dim>32</dim>
					<dim>20</dim>
					<dim>14</dim>
					<dim>14</dim>
				</port>
			</output>
		</layer>
		<layer id="203" name="RGB/inception_i3d/Mixed_4e/Branch_2/Conv3d_0b_3x3/batch_norm/batch_norm/mul_copy" type="Const" version="opset1">
			<data element_type="f32" shape="64, 32, 3, 3, 3" offset="22547756" size="221184" />
			<output>
				<port id="0" precision="FP32" names="RGB/inception_i3d/Mixed_4e/Branch_2/Conv3d_0b_3x3/conv_3d/w/read:0">
					<dim>64</dim>
					<dim>32</dim>
					<dim>3</dim>
					<dim>3</dim>
					<dim>3</dim>
				</port>
			</output>
		</layer>
		<layer id="204" name="RGB/inception_i3d/Mixed_4e/Branch_2/Conv3d_0b_3x3/conv_3d/convolution" type="Convolution" version="opset1">
			<data strides="1, 1, 1" dilations="1, 1, 1" pads_begin="0, 0, 0" pads_end="0, 0, 0" auto_pad="same_upper" />
			<input>
				<port id="0" precision="FP32">
					<dim>1</dim>
					<dim>32</dim>
					<dim>20</dim>
					<dim>14</dim>
					<dim>14</dim>
				</port>
				<port id="1" precision="FP32">
					<dim>64</dim>
					<dim>32</dim>
					<dim>3</dim>
					<dim>3</dim>
					<dim>3</dim>
				</port>
			</input>
			<output>
				<port id="2" precision="FP32" names="RGB/inception_i3d/Mixed_4e/Branch_2/Conv3d_0b_3x3/batch_norm/batch_norm/mul:0">
					<dim>1</dim>
					<dim>64</dim>
					<dim>20</dim>
					<dim>14</dim>
					<dim>14</dim>
				</port>
			</output>
		</layer>
		<layer id="205" name="RGB/inception_i3d/Mixed_4e/Branch_2/Conv3d_0b_3x3/batch_norm/batch_norm/sub" type="Const" version="opset1">
			<data element_type="f32" shape="1, 64, 1, 1, 1" offset="22768940" size="256" />
			<output>
				<port id="0" precision="FP32" names="RGB/inception_i3d/Mixed_4e/Branch_2/Conv3d_0b_3x3/batch_norm/batch_norm/sub:0">
					<dim>1</dim>
					<dim>64</dim>
					<dim>1</dim>
					<dim>1</dim>
					<dim>1</dim>
				</port>
			</output>
		</layer>
		<layer id="206" name="RGB/inception_i3d/Mixed_4e/Branch_2/Conv3d_0b_3x3/batch_norm/batch_norm/add_1" type="Add" version="opset1">
			<data auto_broadcast="numpy" />
			<input>
				<port id="0" precision="FP32">
					<dim>1</dim>
					<dim>64</dim>
					<dim>20</dim>
					<dim>14</dim>
					<dim>14</dim>
				</port>
				<port id="1" precision="FP32">
					<dim>1</dim>
					<dim>64</dim>
					<dim>1</dim>
					<dim>1</dim>
					<dim>1</dim>
				</port>
			</input>
			<output>
				<port id="2" precision="FP32" names="RGB/inception_i3d/Mixed_4e/Branch_2/Conv3d_0b_3x3/batch_norm/batch_norm/add_1:0">
					<dim>1</dim>
					<dim>64</dim>
					<dim>20</dim>
					<dim>14</dim>
					<dim>14</dim>
				</port>
			</output>
		</layer>
		<layer id="207" name="RGB/inception_i3d/Mixed_4e/Branch_2/Conv3d_0b_3x3/Relu" type="ReLU" version="opset1">
			<input>
				<port id="0" precision="FP32">
					<dim>1</dim>
					<dim>64</dim>
					<dim>20</dim>
					<dim>14</dim>
					<dim>14</dim>
				</port>
			</input>
			<output>
				<port id="1" precision="FP32" names="RGB/inception_i3d/Mixed_4e/Branch_2/Conv3d_0b_3x3/Relu:0">
					<dim>1</dim>
					<dim>64</dim>
					<dim>20</dim>
					<dim>14</dim>
					<dim>14</dim>
				</port>
			</output>
		</layer>
		<layer id="208" name="RGB/inception_i3d/Mixed_4e/Branch_3/MaxPool3d_0a_3x3" type="MaxPool" version="opset8">
			<data strides="1, 1, 1" dilations="1, 1, 1" pads_begin="0, 0, 0" pads_end="0, 0, 0" kernel="3, 3, 3" rounding_type="floor" auto_pad="same_upper" index_element_type="i64" axis="0" />
			<input>
				<port id="0" precision="FP32">
					<dim>1</dim>
					<dim>512</dim>
					<dim>20</dim>
					<dim>14</dim>
					<dim>14</dim>
				</port>
			</input>
			<output>
				<port id="1" precision="FP32" names="RGB/inception_i3d/Mixed_4e/Branch_3/MaxPool3d_0a_3x3:0">
					<dim>1</dim>
					<dim>512</dim>
					<dim>20</dim>
					<dim>14</dim>
					<dim>14</dim>
				</port>
				<port id="2" precision="I64">
					<dim>1</dim>
					<dim>512</dim>
					<dim>20</dim>
					<dim>14</dim>
					<dim>14</dim>
				</port>
			</output>
		</layer>
		<layer id="209" name="RGB/inception_i3d/Mixed_4e/Branch_3/Conv3d_0b_1x1/batch_norm/batch_norm/mul_copy" type="Const" version="opset1">
			<data element_type="f32" shape="64, 512, 1, 1, 1" offset="22769196" size="131072" />
			<output>
				<port id="0" precision="FP32" names="RGB/inception_i3d/Mixed_4e/Branch_3/Conv3d_0b_1x1/conv_3d/w/read:0">
					<dim>64</dim>
					<dim>512</dim>
					<dim>1</dim>
					<dim>1</dim>
					<dim>1</dim>
				</port>
			</output>
		</layer>
		<layer id="210" name="RGB/inception_i3d/Mixed_4e/Branch_3/Conv3d_0b_1x1/conv_3d/convolution" type="Convolution" version="opset1">
			<data strides="1, 1, 1" dilations="1, 1, 1" pads_begin="0, 0, 0" pads_end="0, 0, 0" auto_pad="same_upper" />
			<input>
				<port id="0" precision="FP32">
					<dim>1</dim>
					<dim>512</dim>
					<dim>20</dim>
					<dim>14</dim>
					<dim>14</dim>
				</port>
				<port id="1" precision="FP32">
					<dim>64</dim>
					<dim>512</dim>
					<dim>1</dim>
					<dim>1</dim>
					<dim>1</dim>
				</port>
			</input>
			<output>
				<port id="2" precision="FP32" names="RGB/inception_i3d/Mixed_4e/Branch_3/Conv3d_0b_1x1/batch_norm/batch_norm/mul:0">
					<dim>1</dim>
					<dim>64</dim>
					<dim>20</dim>
					<dim>14</dim>
					<dim>14</dim>
				</port>
			</output>
		</layer>
		<layer id="211" name="RGB/inception_i3d/Mixed_4e/Branch_3/Conv3d_0b_1x1/batch_norm/batch_norm/sub" type="Const" version="opset1">
			<data element_type="f32" shape="1, 64, 1, 1, 1" offset="22900268" size="256" />
			<output>
				<port id="0" precision="FP32" names="RGB/inception_i3d/Mixed_4e/Branch_3/Conv3d_0b_1x1/batch_norm/batch_norm/sub:0">
					<dim>1</dim>
					<dim>64</dim>
					<dim>1</dim>
					<dim>1</dim>
					<dim>1</dim>
				</port>
			</output>
		</layer>
		<layer id="212" name="RGB/inception_i3d/Mixed_4e/Branch_3/Conv3d_0b_1x1/batch_norm/batch_norm/add_1" type="Add" version="opset1">
			<data auto_broadcast="numpy" />
			<input>
				<port id="0" precision="FP32">
					<dim>1</dim>
					<dim>64</dim>
					<dim>20</dim>
					<dim>14</dim>
					<dim>14</dim>
				</port>
				<port id="1" precision="FP32">
					<dim>1</dim>
					<dim>64</dim>
					<dim>1</dim>
					<dim>1</dim>
					<dim>1</dim>
				</port>
			</input>
			<output>
				<port id="2" precision="FP32" names="RGB/inception_i3d/Mixed_4e/Branch_3/Conv3d_0b_1x1/batch_norm/batch_norm/add_1:0">
					<dim>1</dim>
					<dim>64</dim>
					<dim>20</dim>
					<dim>14</dim>
					<dim>14</dim>
				</port>
			</output>
		</layer>
		<layer id="213" name="RGB/inception_i3d/Mixed_4e/Branch_3/Conv3d_0b_1x1/Relu" type="ReLU" version="opset1">
			<input>
				<port id="0" precision="FP32">
					<dim>1</dim>
					<dim>64</dim>
					<dim>20</dim>
					<dim>14</dim>
					<dim>14</dim>
				</port>
			</input>
			<output>
				<port id="1" precision="FP32" names="RGB/inception_i3d/Mixed_4e/Branch_3/Conv3d_0b_1x1/Relu:0">
					<dim>1</dim>
					<dim>64</dim>
					<dim>20</dim>
					<dim>14</dim>
					<dim>14</dim>
				</port>
			</output>
		</layer>
		<layer id="214" name="RGB/inception_i3d/Mixed_4e/concat" type="Concat" version="opset1">
			<data axis="1" />
			<input>
				<port id="0" precision="FP32">
					<dim>1</dim>
					<dim>112</dim>
					<dim>20</dim>
					<dim>14</dim>
					<dim>14</dim>
				</port>
				<port id="1" precision="FP32">
					<dim>1</dim>
					<dim>288</dim>
					<dim>20</dim>
					<dim>14</dim>
					<dim>14</dim>
				</port>
				<port id="2" precision="FP32">
					<dim>1</dim>
					<dim>64</dim>
					<dim>20</dim>
					<dim>14</dim>
					<dim>14</dim>
				</port>
				<port id="3" precision="FP32">
					<dim>1</dim>
					<dim>64</dim>
					<dim>20</dim>
					<dim>14</dim>
					<dim>14</dim>
				</port>
			</input>
			<output>
				<port id="4" precision="FP32" names="RGB/inception_i3d/Mixed_4e/concat:0">
					<dim>1</dim>
					<dim>528</dim>
					<dim>20</dim>
					<dim>14</dim>
					<dim>14</dim>
				</port>
			</output>
		</layer>
		<layer id="215" name="RGB/inception_i3d/Mixed_4f/Branch_0/Conv3d_0a_1x1/batch_norm/batch_norm/mul_copy" type="Const" version="opset1">
			<data element_type="f32" shape="256, 528, 1, 1, 1" offset="22900524" size="540672" />
			<output>
				<port id="0" precision="FP32" names="RGB/inception_i3d/Mixed_4f/Branch_0/Conv3d_0a_1x1/conv_3d/w/read:0">
					<dim>256</dim>
					<dim>528</dim>
					<dim>1</dim>
					<dim>1</dim>
					<dim>1</dim>
				</port>
			</output>
		</layer>
		<layer id="216" name="RGB/inception_i3d/Mixed_4f/Branch_0/Conv3d_0a_1x1/conv_3d/convolution" type="Convolution" version="opset1">
			<data strides="1, 1, 1" dilations="1, 1, 1" pads_begin="0, 0, 0" pads_end="0, 0, 0" auto_pad="same_upper" />
			<input>
				<port id="0" precision="FP32">
					<dim>1</dim>
					<dim>528</dim>
					<dim>20</dim>
					<dim>14</dim>
					<dim>14</dim>
				</port>
				<port id="1" precision="FP32">
					<dim>256</dim>
					<dim>528</dim>
					<dim>1</dim>
					<dim>1</dim>
					<dim>1</dim>
				</port>
			</input>
			<output>
				<port id="2" precision="FP32" names="RGB/inception_i3d/Mixed_4f/Branch_0/Conv3d_0a_1x1/batch_norm/batch_norm/mul:0">
					<dim>1</dim>
					<dim>256</dim>
					<dim>20</dim>
					<dim>14</dim>
					<dim>14</dim>
				</port>
			</output>
		</layer>
		<layer id="217" name="RGB/inception_i3d/Mixed_4f/Branch_0/Conv3d_0a_1x1/batch_norm/batch_norm/sub" type="Const" version="opset1">
			<data element_type="f32" shape="1, 256, 1, 1, 1" offset="23441196" size="1024" />
			<output>
				<port id="0" precision="FP32" names="RGB/inception_i3d/Mixed_4f/Branch_0/Conv3d_0a_1x1/batch_norm/batch_norm/sub:0">
					<dim>1</dim>
					<dim>256</dim>
					<dim>1</dim>
					<dim>1</dim>
					<dim>1</dim>
				</port>
			</output>
		</layer>
		<layer id="218" name="RGB/inception_i3d/Mixed_4f/Branch_0/Conv3d_0a_1x1/batch_norm/batch_norm/add_1" type="Add" version="opset1">
			<data auto_broadcast="numpy" />
			<input>
				<port id="0" precision="FP32">
					<dim>1</dim>
					<dim>256</dim>
					<dim>20</dim>
					<dim>14</dim>
					<dim>14</dim>
				</port>
				<port id="1" precision="FP32">
					<dim>1</dim>
					<dim>256</dim>
					<dim>1</dim>
					<dim>1</dim>
					<dim>1</dim>
				</port>
			</input>
			<output>
				<port id="2" precision="FP32" names="RGB/inception_i3d/Mixed_4f/Branch_0/Conv3d_0a_1x1/batch_norm/batch_norm/add_1:0">
					<dim>1</dim>
					<dim>256</dim>
					<dim>20</dim>
					<dim>14</dim>
					<dim>14</dim>
				</port>
			</output>
		</layer>
		<layer id="219" name="RGB/inception_i3d/Mixed_4f/Branch_0/Conv3d_0a_1x1/Relu" type="ReLU" version="opset1">
			<input>
				<port id="0" precision="FP32">
					<dim>1</dim>
					<dim>256</dim>
					<dim>20</dim>
					<dim>14</dim>
					<dim>14</dim>
				</port>
			</input>
			<output>
				<port id="1" precision="FP32" names="RGB/inception_i3d/Mixed_4f/Branch_0/Conv3d_0a_1x1/Relu:0">
					<dim>1</dim>
					<dim>256</dim>
					<dim>20</dim>
					<dim>14</dim>
					<dim>14</dim>
				</port>
			</output>
		</layer>
		<layer id="220" name="RGB/inception_i3d/Mixed_4f/Branch_1/Conv3d_0a_1x1/batch_norm/batch_norm/mul_copy" type="Const" version="opset1">
			<data element_type="f32" shape="160, 528, 1, 1, 1" offset="23442220" size="337920" />
			<output>
				<port id="0" precision="FP32" names="RGB/inception_i3d/Mixed_4f/Branch_1/Conv3d_0a_1x1/conv_3d/w/read:0">
					<dim>160</dim>
					<dim>528</dim>
					<dim>1</dim>
					<dim>1</dim>
					<dim>1</dim>
				</port>
			</output>
		</layer>
		<layer id="221" name="RGB/inception_i3d/Mixed_4f/Branch_1/Conv3d_0a_1x1/conv_3d/convolution" type="Convolution" version="opset1">
			<data strides="1, 1, 1" dilations="1, 1, 1" pads_begin="0, 0, 0" pads_end="0, 0, 0" auto_pad="same_upper" />
			<input>
				<port id="0" precision="FP32">
					<dim>1</dim>
					<dim>528</dim>
					<dim>20</dim>
					<dim>14</dim>
					<dim>14</dim>
				</port>
				<port id="1" precision="FP32">
					<dim>160</dim>
					<dim>528</dim>
					<dim>1</dim>
					<dim>1</dim>
					<dim>1</dim>
				</port>
			</input>
			<output>
				<port id="2" precision="FP32" names="RGB/inception_i3d/Mixed_4f/Branch_1/Conv3d_0a_1x1/batch_norm/batch_norm/mul:0">
					<dim>1</dim>
					<dim>160</dim>
					<dim>20</dim>
					<dim>14</dim>
					<dim>14</dim>
				</port>
			</output>
		</layer>
		<layer id="222" name="RGB/inception_i3d/Mixed_4f/Branch_1/Conv3d_0a_1x1/batch_norm/batch_norm/sub" type="Const" version="opset1">
			<data element_type="f32" shape="1, 160, 1, 1, 1" offset="23780140" size="640" />
			<output>
				<port id="0" precision="FP32" names="RGB/inception_i3d/Mixed_4f/Branch_1/Conv3d_0a_1x1/batch_norm/batch_norm/sub:0">
					<dim>1</dim>
					<dim>160</dim>
					<dim>1</dim>
					<dim>1</dim>
					<dim>1</dim>
				</port>
			</output>
		</layer>
		<layer id="223" name="RGB/inception_i3d/Mixed_4f/Branch_1/Conv3d_0a_1x1/batch_norm/batch_norm/add_1" type="Add" version="opset1">
			<data auto_broadcast="numpy" />
			<input>
				<port id="0" precision="FP32">
					<dim>1</dim>
					<dim>160</dim>
					<dim>20</dim>
					<dim>14</dim>
					<dim>14</dim>
				</port>
				<port id="1" precision="FP32">
					<dim>1</dim>
					<dim>160</dim>
					<dim>1</dim>
					<dim>1</dim>
					<dim>1</dim>
				</port>
			</input>
			<output>
				<port id="2" precision="FP32" names="RGB/inception_i3d/Mixed_4f/Branch_1/Conv3d_0a_1x1/batch_norm/batch_norm/add_1:0">
					<dim>1</dim>
					<dim>160</dim>
					<dim>20</dim>
					<dim>14</dim>
					<dim>14</dim>
				</port>
			</output>
		</layer>
		<layer id="224" name="RGB/inception_i3d/Mixed_4f/Branch_1/Conv3d_0a_1x1/Relu" type="ReLU" version="opset1">
			<input>
				<port id="0" precision="FP32">
					<dim>1</dim>
					<dim>160</dim>
					<dim>20</dim>
					<dim>14</dim>
					<dim>14</dim>
				</port>
			</input>
			<output>
				<port id="1" precision="FP32" names="RGB/inception_i3d/Mixed_4f/Branch_1/Conv3d_0a_1x1/Relu:0">
					<dim>1</dim>
					<dim>160</dim>
					<dim>20</dim>
					<dim>14</dim>
					<dim>14</dim>
				</port>
			</output>
		</layer>
		<layer id="225" name="RGB/inception_i3d/Mixed_4f/Branch_1/Conv3d_0b_3x3/batch_norm/batch_norm/mul_copy" type="Const" version="opset1">
			<data element_type="f32" shape="320, 160, 3, 3, 3" offset="23780780" size="5529600" />
			<output>
				<port id="0" precision="FP32" names="RGB/inception_i3d/Mixed_4f/Branch_1/Conv3d_0b_3x3/conv_3d/w/read:0">
					<dim>320</dim>
					<dim>160</dim>
					<dim>3</dim>
					<dim>3</dim>
					<dim>3</dim>
				</port>
			</output>
		</layer>
		<layer id="226" name="RGB/inception_i3d/Mixed_4f/Branch_1/Conv3d_0b_3x3/conv_3d/convolution" type="Convolution" version="opset1">
			<data strides="1, 1, 1" dilations="1, 1, 1" pads_begin="0, 0, 0" pads_end="0, 0, 0" auto_pad="same_upper" />
			<input>
				<port id="0" precision="FP32">
					<dim>1</dim>
					<dim>160</dim>
					<dim>20</dim>
					<dim>14</dim>
					<dim>14</dim>
				</port>
				<port id="1" precision="FP32">
					<dim>320</dim>
					<dim>160</dim>
					<dim>3</dim>
					<dim>3</dim>
					<dim>3</dim>
				</port>
			</input>
			<output>
				<port id="2" precision="FP32" names="RGB/inception_i3d/Mixed_4f/Branch_1/Conv3d_0b_3x3/batch_norm/batch_norm/mul:0">
					<dim>1</dim>
					<dim>320</dim>
					<dim>20</dim>
					<dim>14</dim>
					<dim>14</dim>
				</port>
			</output>
		</layer>
		<layer id="227" name="RGB/inception_i3d/Mixed_4f/Branch_1/Conv3d_0b_3x3/batch_norm/batch_norm/sub" type="Const" version="opset1">
			<data element_type="f32" shape="1, 320, 1, 1, 1" offset="29310380" size="1280" />
			<output>
				<port id="0" precision="FP32" names="RGB/inception_i3d/Mixed_4f/Branch_1/Conv3d_0b_3x3/batch_norm/batch_norm/sub:0">
					<dim>1</dim>
					<dim>320</dim>
					<dim>1</dim>
					<dim>1</dim>
					<dim>1</dim>
				</port>
			</output>
		</layer>
		<layer id="228" name="RGB/inception_i3d/Mixed_4f/Branch_1/Conv3d_0b_3x3/batch_norm/batch_norm/add_1" type="Add" version="opset1">
			<data auto_broadcast="numpy" />
			<input>
				<port id="0" precision="FP32">
					<dim>1</dim>
					<dim>320</dim>
					<dim>20</dim>
					<dim>14</dim>
					<dim>14</dim>
				</port>
				<port id="1" precision="FP32">
					<dim>1</dim>
					<dim>320</dim>
					<dim>1</dim>
					<dim>1</dim>
					<dim>1</dim>
				</port>
			</input>
			<output>
				<port id="2" precision="FP32" names="RGB/inception_i3d/Mixed_4f/Branch_1/Conv3d_0b_3x3/batch_norm/batch_norm/add_1:0">
					<dim>1</dim>
					<dim>320</dim>
					<dim>20</dim>
					<dim>14</dim>
					<dim>14</dim>
				</port>
			</output>
		</layer>
		<layer id="229" name="RGB/inception_i3d/Mixed_4f/Branch_1/Conv3d_0b_3x3/Relu" type="ReLU" version="opset1">
			<input>
				<port id="0" precision="FP32">
					<dim>1</dim>
					<dim>320</dim>
					<dim>20</dim>
					<dim>14</dim>
					<dim>14</dim>
				</port>
			</input>
			<output>
				<port id="1" precision="FP32" names="RGB/inception_i3d/Mixed_4f/Branch_1/Conv3d_0b_3x3/Relu:0">
					<dim>1</dim>
					<dim>320</dim>
					<dim>20</dim>
					<dim>14</dim>
					<dim>14</dim>
				</port>
			</output>
		</layer>
		<layer id="230" name="RGB/inception_i3d/Mixed_4f/Branch_2/Conv3d_0a_1x1/batch_norm/batch_norm/mul_copy" type="Const" version="opset1">
			<data element_type="f32" shape="32, 528, 1, 1, 1" offset="29311660" size="67584" />
			<output>
				<port id="0" precision="FP32" names="RGB/inception_i3d/Mixed_4f/Branch_2/Conv3d_0a_1x1/conv_3d/w/read:0">
					<dim>32</dim>
					<dim>528</dim>
					<dim>1</dim>
					<dim>1</dim>
					<dim>1</dim>
				</port>
			</output>
		</layer>
		<layer id="231" name="RGB/inception_i3d/Mixed_4f/Branch_2/Conv3d_0a_1x1/conv_3d/convolution" type="Convolution" version="opset1">
			<data strides="1, 1, 1" dilations="1, 1, 1" pads_begin="0, 0, 0" pads_end="0, 0, 0" auto_pad="same_upper" />
			<input>
				<port id="0" precision="FP32">
					<dim>1</dim>
					<dim>528</dim>
					<dim>20</dim>
					<dim>14</dim>
					<dim>14</dim>
				</port>
				<port id="1" precision="FP32">
					<dim>32</dim>
					<dim>528</dim>
					<dim>1</dim>
					<dim>1</dim>
					<dim>1</dim>
				</port>
			</input>
			<output>
				<port id="2" precision="FP32" names="RGB/inception_i3d/Mixed_4f/Branch_2/Conv3d_0a_1x1/batch_norm/batch_norm/mul:0">
					<dim>1</dim>
					<dim>32</dim>
					<dim>20</dim>
					<dim>14</dim>
					<dim>14</dim>
				</port>
			</output>
		</layer>
		<layer id="232" name="RGB/inception_i3d/Mixed_4f/Branch_2/Conv3d_0a_1x1/batch_norm/batch_norm/sub" type="Const" version="opset1">
			<data element_type="f32" shape="1, 32, 1, 1, 1" offset="29379244" size="128" />
			<output>
				<port id="0" precision="FP32" names="RGB/inception_i3d/Mixed_4f/Branch_2/Conv3d_0a_1x1/batch_norm/batch_norm/sub:0">
					<dim>1</dim>
					<dim>32</dim>
					<dim>1</dim>
					<dim>1</dim>
					<dim>1</dim>
				</port>
			</output>
		</layer>
		<layer id="233" name="RGB/inception_i3d/Mixed_4f/Branch_2/Conv3d_0a_1x1/batch_norm/batch_norm/add_1" type="Add" version="opset1">
			<data auto_broadcast="numpy" />
			<input>
				<port id="0" precision="FP32">
					<dim>1</dim>
					<dim>32</dim>
					<dim>20</dim>
					<dim>14</dim>
					<dim>14</dim>
				</port>
				<port id="1" precision="FP32">
					<dim>1</dim>
					<dim>32</dim>
					<dim>1</dim>
					<dim>1</dim>
					<dim>1</dim>
				</port>
			</input>
			<output>
				<port id="2" precision="FP32" names="RGB/inception_i3d/Mixed_4f/Branch_2/Conv3d_0a_1x1/batch_norm/batch_norm/add_1:0">
					<dim>1</dim>
					<dim>32</dim>
					<dim>20</dim>
					<dim>14</dim>
					<dim>14</dim>
				</port>
			</output>
		</layer>
		<layer id="234" name="RGB/inception_i3d/Mixed_4f/Branch_2/Conv3d_0a_1x1/Relu" type="ReLU" version="opset1">
			<input>
				<port id="0" precision="FP32">
					<dim>1</dim>
					<dim>32</dim>
					<dim>20</dim>
					<dim>14</dim>
					<dim>14</dim>
				</port>
			</input>
			<output>
				<port id="1" precision="FP32" names="RGB/inception_i3d/Mixed_4f/Branch_2/Conv3d_0a_1x1/Relu:0">
					<dim>1</dim>
					<dim>32</dim>
					<dim>20</dim>
					<dim>14</dim>
					<dim>14</dim>
				</port>
			</output>
		</layer>
		<layer id="235" name="RGB/inception_i3d/Mixed_4f/Branch_2/Conv3d_0b_3x3/batch_norm/batch_norm/mul_copy" type="Const" version="opset1">
			<data element_type="f32" shape="128, 32, 3, 3, 3" offset="29379372" size="442368" />
			<output>
				<port id="0" precision="FP32" names="RGB/inception_i3d/Mixed_4f/Branch_2/Conv3d_0b_3x3/conv_3d/w/read:0">
					<dim>128</dim>
					<dim>32</dim>
					<dim>3</dim>
					<dim>3</dim>
					<dim>3</dim>
				</port>
			</output>
		</layer>
		<layer id="236" name="RGB/inception_i3d/Mixed_4f/Branch_2/Conv3d_0b_3x3/conv_3d/convolution" type="Convolution" version="opset1">
			<data strides="1, 1, 1" dilations="1, 1, 1" pads_begin="0, 0, 0" pads_end="0, 0, 0" auto_pad="same_upper" />
			<input>
				<port id="0" precision="FP32">
					<dim>1</dim>
					<dim>32</dim>
					<dim>20</dim>
					<dim>14</dim>
					<dim>14</dim>
				</port>
				<port id="1" precision="FP32">
					<dim>128</dim>
					<dim>32</dim>
					<dim>3</dim>
					<dim>3</dim>
					<dim>3</dim>
				</port>
			</input>
			<output>
				<port id="2" precision="FP32" names="RGB/inception_i3d/Mixed_4f/Branch_2/Conv3d_0b_3x3/batch_norm/batch_norm/mul:0">
					<dim>1</dim>
					<dim>128</dim>
					<dim>20</dim>
					<dim>14</dim>
					<dim>14</dim>
				</port>
			</output>
		</layer>
		<layer id="237" name="RGB/inception_i3d/Mixed_4f/Branch_2/Conv3d_0b_3x3/batch_norm/batch_norm/sub" type="Const" version="opset1">
			<data element_type="f32" shape="1, 128, 1, 1, 1" offset="29821740" size="512" />
			<output>
				<port id="0" precision="FP32" names="RGB/inception_i3d/Mixed_4f/Branch_2/Conv3d_0b_3x3/batch_norm/batch_norm/sub:0">
					<dim>1</dim>
					<dim>128</dim>
					<dim>1</dim>
					<dim>1</dim>
					<dim>1</dim>
				</port>
			</output>
		</layer>
		<layer id="238" name="RGB/inception_i3d/Mixed_4f/Branch_2/Conv3d_0b_3x3/batch_norm/batch_norm/add_1" type="Add" version="opset1">
			<data auto_broadcast="numpy" />
			<input>
				<port id="0" precision="FP32">
					<dim>1</dim>
					<dim>128</dim>
					<dim>20</dim>
					<dim>14</dim>
					<dim>14</dim>
				</port>
				<port id="1" precision="FP32">
					<dim>1</dim>
					<dim>128</dim>
					<dim>1</dim>
					<dim>1</dim>
					<dim>1</dim>
				</port>
			</input>
			<output>
				<port id="2" precision="FP32" names="RGB/inception_i3d/Mixed_4f/Branch_2/Conv3d_0b_3x3/batch_norm/batch_norm/add_1:0">
					<dim>1</dim>
					<dim>128</dim>
					<dim>20</dim>
					<dim>14</dim>
					<dim>14</dim>
				</port>
			</output>
		</layer>
		<layer id="239" name="RGB/inception_i3d/Mixed_4f/Branch_2/Conv3d_0b_3x3/Relu" type="ReLU" version="opset1">
			<input>
				<port id="0" precision="FP32">
					<dim>1</dim>
					<dim>128</dim>
					<dim>20</dim>
					<dim>14</dim>
					<dim>14</dim>
				</port>
			</input>
			<output>
				<port id="1" precision="FP32" names="RGB/inception_i3d/Mixed_4f/Branch_2/Conv3d_0b_3x3/Relu:0">
					<dim>1</dim>
					<dim>128</dim>
					<dim>20</dim>
					<dim>14</dim>
					<dim>14</dim>
				</port>
			</output>
		</layer>
		<layer id="240" name="RGB/inception_i3d/Mixed_4f/Branch_3/MaxPool3d_0a_3x3" type="MaxPool" version="opset8">
			<data strides="1, 1, 1" dilations="1, 1, 1" pads_begin="0, 0, 0" pads_end="0, 0, 0" kernel="3, 3, 3" rounding_type="floor" auto_pad="same_upper" index_element_type="i64" axis="0" />
			<input>
				<port id="0" precision="FP32">
					<dim>1</dim>
					<dim>528</dim>
					<dim>20</dim>
					<dim>14</dim>
					<dim>14</dim>
				</port>
			</input>
			<output>
				<port id="1" precision="FP32" names="RGB/inception_i3d/Mixed_4f/Branch_3/MaxPool3d_0a_3x3:0">
					<dim>1</dim>
					<dim>528</dim>
					<dim>20</dim>
					<dim>14</dim>
					<dim>14</dim>
				</port>
				<port id="2" precision="I64">
					<dim>1</dim>
					<dim>528</dim>
					<dim>20</dim>
					<dim>14</dim>
					<dim>14</dim>
				</port>
			</output>
		</layer>
		<layer id="241" name="RGB/inception_i3d/Mixed_4f/Branch_3/Conv3d_0b_1x1/batch_norm/batch_norm/mul_copy" type="Const" version="opset1">
			<data element_type="f32" shape="128, 528, 1, 1, 1" offset="29822252" size="270336" />
			<output>
				<port id="0" precision="FP32" names="RGB/inception_i3d/Mixed_4f/Branch_3/Conv3d_0b_1x1/conv_3d/w/read:0">
					<dim>128</dim>
					<dim>528</dim>
					<dim>1</dim>
					<dim>1</dim>
					<dim>1</dim>
				</port>
			</output>
		</layer>
		<layer id="242" name="RGB/inception_i3d/Mixed_4f/Branch_3/Conv3d_0b_1x1/conv_3d/convolution" type="Convolution" version="opset1">
			<data strides="1, 1, 1" dilations="1, 1, 1" pads_begin="0, 0, 0" pads_end="0, 0, 0" auto_pad="same_upper" />
			<input>
				<port id="0" precision="FP32">
					<dim>1</dim>
					<dim>528</dim>
					<dim>20</dim>
					<dim>14</dim>
					<dim>14</dim>
				</port>
				<port id="1" precision="FP32">
					<dim>128</dim>
					<dim>528</dim>
					<dim>1</dim>
					<dim>1</dim>
					<dim>1</dim>
				</port>
			</input>
			<output>
				<port id="2" precision="FP32" names="RGB/inception_i3d/Mixed_4f/Branch_3/Conv3d_0b_1x1/batch_norm/batch_norm/mul:0">
					<dim>1</dim>
					<dim>128</dim>
					<dim>20</dim>
					<dim>14</dim>
					<dim>14</dim>
				</port>
			</output>
		</layer>
		<layer id="243" name="RGB/inception_i3d/Mixed_4f/Branch_3/Conv3d_0b_1x1/batch_norm/batch_norm/sub" type="Const" version="opset1">
			<data element_type="f32" shape="1, 128, 1, 1, 1" offset="30092588" size="512" />
			<output>
				<port id="0" precision="FP32" names="RGB/inception_i3d/Mixed_4f/Branch_3/Conv3d_0b_1x1/batch_norm/batch_norm/sub:0">
					<dim>1</dim>
					<dim>128</dim>
					<dim>1</dim>
					<dim>1</dim>
					<dim>1</dim>
				</port>
			</output>
		</layer>
…
				<port id="0" precision="FP32">
					<dim>1</dim>
					<dim>256</dim>
					<dim>10</dim>
					<dim>7</dim>
					<dim>7</dim>
				</port>
				<port id="1" precision="FP32">
					<dim>1</dim>
					<dim>320</dim>
					<dim>10</dim>
					<dim>7</dim>
					<dim>7</dim>
				</port>
				<port id="2" precision="FP32">
					<dim>1</dim>
					<dim>128</dim>
					<dim>10</dim>
					<dim>7</dim>
					<dim>7</dim>
				</port>
				<port id="3" precision="FP32">
					<dim>1</dim>
					<dim>128</dim>
					<dim>10</dim>
					<dim>7</dim>
					<dim>7</dim>
				</port>
			</input>
			<output>
				<port id="4" precision="FP32" names="RGB/inception_i3d/Mixed_5b/concat:0">
					<dim>1</dim>
					<dim>832</dim>
					<dim>10</dim>
					<dim>7</dim>
					<dim>7</dim>
				</port>
			</output>
		</layer>
		<layer id="280" name="RGB/inception_i3d/Mixed_5c/Branch_0/Conv3d_0a_1x1/batch_norm/batch_norm/mul_copy" type="Const" version="opset1">
			<data element_type="f32" shape="384, 832, 1, 1, 1" offset="37986092" size="1277952" />
			<output>
				<port id="0" precision="FP32" names="RGB/inception_i3d/Mixed_5c/Branch_0/Conv3d_0a_1x1/conv_3d/w/read:0">
					<dim>384</dim>
					<dim>832</dim>
					<dim>1</dim>
					<dim>1</dim>
					<dim>1</dim>
				</port>
			</output>
		</layer>
		<layer id="281" name="RGB/inception_i3d/Mixed_5c/Branch_0/Conv3d_0a_1x1/conv_3d/convolution" type="Convolution" version="opset1">
			<data strides="1, 1, 1" dilations="1, 1, 1" pads_begin="0, 0, 0" pads_end="0, 0, 0" auto_pad="same_upper" />
			<input>
				<port id="0" precision="FP32">
					<dim>1</dim>
					<dim>832</dim>
					<dim>10</dim>
					<dim>7</dim>
					<dim>7</dim>
				</port>
				<port id="1" precision="FP32">
					<dim>384</dim>
					<dim>832</dim>
					<dim>1</dim>
					<dim>1</dim>
					<dim>1</dim>
				</port>
			</input>
			<output>
				<port id="2" precision="FP32" names="RGB/inception_i3d/Mixed_5c/Branch_0/Conv3d_0a_1x1/batch_norm/batch_norm/mul:0">
					<dim>1</dim>
					<dim>384</dim>
					<dim>10</dim>
					<dim>7</dim>
					<dim>7</dim>
				</port>
			</output>
		</layer>
		<layer id="282" name="RGB/inception_i3d/Mixed_5c/Branch_0/Conv3d_0a_1x1/batch_norm/batch_norm/sub" type="Const" version="opset1">
			<data element_type="f32" shape="1, 384, 1, 1, 1" offset="39264044" size="1536" />
			<output>
				<port id="0" precision="FP32" names="RGB/inception_i3d/Mixed_5c/Branch_0/Conv3d_0a_1x1/batch_norm/batch_norm/sub:0">
					<dim>1</dim>
					<dim>384</dim>
					<dim>1</dim>
					<dim>1</dim>
					<dim>1</dim>
				</port>
			</output>
		</layer>
		<layer id="283" name="RGB/inception_i3d/Mixed_5c/Branch_0/Conv3d_0a_1x1/batch_norm/batch_norm/add_1" type="Add" version="opset1">
			<data auto_broadcast="numpy" />
			<input>
				<port id="0" precision="FP32">
					<dim>1</dim>
					<dim>384</dim>
					<dim>10</dim>
					<dim>7</dim>
					<dim>7</dim>
				</port>
				<port id="1" precision="FP32">
					<dim>1</dim>
					<dim>384</dim>
					<dim>1</dim>
					<dim>1</dim>
					<dim>1</dim>
				</port>
			</input>
			<output>
				<port id="2" precision="FP32" names="RGB/inception_i3d/Mixed_5c/Branch_0/Conv3d_0a_1x1/batch_norm/batch_norm/add_1:0">
					<dim>1</dim>
					<dim>384</dim>
					<dim>10</dim>
					<dim>7</dim>
					<dim>7</dim>
				</port>
			</output>
		</layer>
		<layer id="284" name="RGB/inception_i3d/Mixed_5c/Branch_0/Conv3d_0a_1x1/Relu" type="ReLU" version="opset1">
			<input>
				<port id="0" precision="FP32">
					<dim>1</dim>
					<dim>384</dim>
					<dim>10</dim>
					<dim>7</dim>
					<dim>7</dim>
				</port>
			</input>
			<output>
				<port id="1" precision="FP32" names="RGB/inception_i3d/Mixed_5c/Branch_0/Conv3d_0a_1x1/Relu:0">
					<dim>1</dim>
					<dim>384</dim>
					<dim>10</dim>
					<dim>7</dim>
					<dim>7</dim>
				</port>
			</output>
		</layer>
		<layer id="285" name="RGB/inception_i3d/Mixed_5c/Branch_1/Conv3d_0a_1x1/batch_norm/batch_norm/mul_copy" type="Const" version="opset1">
			<data element_type="f32" shape="192, 832, 1, 1, 1" offset="39265580" size="638976" />
			<output>
				<port id="0" precision="FP32" names="RGB/inception_i3d/Mixed_5c/Branch_1/Conv3d_0a_1x1/conv_3d/w/read:0">
					<dim>192</dim>
					<dim>832</dim>
					<dim>1</dim>
					<dim>1</dim>
					<dim>1</dim>
				</port>
			</output>
		</layer>
		<layer id="286" name="RGB/inception_i3d/Mixed_5c/Branch_1/Conv3d_0a_1x1/conv_3d/convolution" type="Convolution" version="opset1">
			<data strides="1, 1, 1" dilations="1, 1, 1" pads_begin="0, 0, 0" pads_end="0, 0, 0" auto_pad="same_upper" />
			<input>
				<port id="0" precision="FP32">
					<dim>1</dim>
					<dim>832</dim>
					<dim>10</dim>
					<dim>7</dim>
					<dim>7</dim>
				</port>
				<port id="1" precision="FP32">
					<dim>192</dim>
					<dim>832</dim>
					<dim>1</dim>
					<dim>1</dim>
					<dim>1</dim>
				</port>
			</input>
			<output>
				<port id="2" precision="FP32" names="RGB/inception_i3d/Mixed_5c/Branch_1/Conv3d_0a_1x1/batch_norm/batch_norm/mul:0">
					<dim>1</dim>
					<dim>192</dim>
					<dim>10</dim>
					<dim>7</dim>
					<dim>7</dim>
				</port>
			</output>
		</layer>
		<layer id="287" name="RGB/inception_i3d/Mixed_5c/Branch_1/Conv3d_0a_1x1/batch_norm/batch_norm/sub" type="Const" version="opset1">
			<data element_type="f32" shape="1, 192, 1, 1, 1" offset="39904556" size="768" />
			<output>
				<port id="0" precision="FP32" names="RGB/inception_i3d/Mixed_5c/Branch_1/Conv3d_0a_1x1/batch_norm/batch_norm/sub:0">
					<dim>1</dim>
					<dim>192</dim>
					<dim>1</dim>
					<dim>1</dim>
					<dim>1</dim>
				</port>
			</output>
		</layer>
		<layer id="288" name="RGB/inception_i3d/Mixed_5c/Branch_1/Conv3d_0a_1x1/batch_norm/batch_norm/add_1" type="Add" version="opset1">
			<data auto_broadcast="numpy" />
			<input>
				<port id="0" precision="FP32">
					<dim>1</dim>
					<dim>192</dim>
					<dim>10</dim>
					<dim>7</dim>
					<dim>7</dim>
				</port>
				<port id="1" precision="FP32">
					<dim>1</dim>
					<dim>192</dim>
					<dim>1</dim>
					<dim>1</dim>
					<dim>1</dim>
				</port>
			</input>
			<output>
				<port id="2" precision="FP32" names="RGB/inception_i3d/Mixed_5c/Branch_1/Conv3d_0a_1x1/batch_norm/batch_norm/add_1:0">
					<dim>1</dim>
					<dim>192</dim>
					<dim>10</dim>
					<dim>7</dim>
					<dim>7</dim>
				</port>
			</output>
		</layer>
		<layer id="289" name="RGB/inception_i3d/Mixed_5c/Branch_1/Conv3d_0a_1x1/Relu" type="ReLU" version="opset1">
			<input>
				<port id="0" precision="FP32">
					<dim>1</dim>
					<dim>192</dim>
					<dim>10</dim>
					<dim>7</dim>
					<dim>7</dim>
				</port>
			</input>
			<output>
				<port id="1" precision="FP32" names="RGB/inception_i3d/Mixed_5c/Branch_1/Conv3d_0a_1x1/Relu:0">
					<dim>1</dim>
					<dim>192</dim>
					<dim>10</dim>
					<dim>7</dim>
					<dim>7</dim>
				</port>
			</output>
		</layer>
		<layer id="290" name="RGB/inception_i3d/Mixed_5c/Branch_1/Conv3d_0b_3x3/batch_norm/batch_norm/mul_copy" type="Const" version="opset1">
			<data element_type="f32" shape="384, 192, 3, 3, 3" offset="39905324" size="7962624" />
			<output>
				<port id="0" precision="FP32" names="RGB/inception_i3d/Mixed_5c/Branch_1/Conv3d_0b_3x3/conv_3d/w/read:0">
					<dim>384</dim>
					<dim>192</dim>
					<dim>3</dim>
					<dim>3</dim>
					<dim>3</dim>
				</port>
			</output>
		</layer>
		<layer id="291" name="RGB/inception_i3d/Mixed_5c/Branch_1/Conv3d_0b_3x3/conv_3d/convolution" type="Convolution" version="opset1">
			<data strides="1, 1, 1" dilations="1, 1, 1" pads_begin="0, 0, 0" pads_end="0, 0, 0" auto_pad="same_upper" />
			<input>
				<port id="0" precision="FP32">
					<dim>1</dim>
					<dim>192</dim>
					<dim>10</dim>
					<dim>7</dim>
					<dim>7</dim>
				</port>
				<port id="1" precision="FP32">
					<dim>384</dim>
					<dim>192</dim>
					<dim>3</dim>
					<dim>3</dim>
					<dim>3</dim>
				</port>
			</input>
			<output>
				<port id="2" precision="FP32" names="RGB/inception_i3d/Mixed_5c/Branch_1/Conv3d_0b_3x3/batch_norm/batch_norm/mul:0">
					<dim>1</dim>
					<dim>384</dim>
					<dim>10</dim>
					<dim>7</dim>
					<dim>7</dim>
				</port>
			</output>
		</layer>
		<layer id="292" name="RGB/inception_i3d/Mixed_5c/Branch_1/Conv3d_0b_3x3/batch_norm/batch_norm/sub" type="Const" version="opset1">
			<data element_type="f32" shape="1, 384, 1, 1, 1" offset="47867948" size="1536" />
			<output>
				<port id="0" precision="FP32" names="RGB/inception_i3d/Mixed_5c/Branch_1/Conv3d_0b_3x3/batch_norm/batch_norm/sub:0">
					<dim>1</dim>
					<dim>384</dim>
					<dim>1</dim>
					<dim>1</dim>
					<dim>1</dim>
				</port>
			</output>
		</layer>
		<layer id="293" name="RGB/inception_i3d/Mixed_5c/Branch_1/Conv3d_0b_3x3/batch_norm/batch_norm/add_1" type="Add" version="opset1">
			<data auto_broadcast="numpy" />
			<input>
				<port id="0" precision="FP32">
					<dim>1</dim>
					<dim>384</dim>
					<dim>10</dim>
					<dim>7</dim>
					<dim>7</dim>
				</port>
				<port id="1" precision="FP32">
					<dim>1</dim>
					<dim>384</dim>
					<dim>1</dim>
					<dim>1</dim>
					<dim>1</dim>
				</port>
			</input>
			<output>
				<port id="2" precision="FP32" names="RGB/inception_i3d/Mixed_5c/Branch_1/Conv3d_0b_3x3/batch_norm/batch_norm/add_1:0">
					<dim>1</dim>
					<dim>384</dim>
					<dim>10</dim>
					<dim>7</dim>
					<dim>7</dim>
				</port>
			</output>
		</layer>
		<layer id="294" name="RGB/inception_i3d/Mixed_5c/Branch_1/Conv3d_0b_3x3/Relu" type="ReLU" version="opset1">
			<input>
				<port id="0" precision="FP32">
					<dim>1</dim>
					<dim>384</dim>
					<dim>10</dim>
					<dim>7</dim>
					<dim>7</dim>
				</port>
			</input>
			<output>
				<port id="1" precision="FP32" names="RGB/inception_i3d/Mixed_5c/Branch_1/Conv3d_0b_3x3/Relu:0">
					<dim>1</dim>
					<dim>384</dim>
					<dim>10</dim>
					<dim>7</dim>
					<dim>7</dim>
				</port>
			</output>
		</layer>
		<layer id="295" name="RGB/inception_i3d/Mixed_5c/Branch_2/Conv3d_0a_1x1/batch_norm/batch_norm/mul_copy" type="Const" version="opset1">
			<data element_type="f32" shape="48, 832, 1, 1, 1" offset="47869484" size="159744" />
			<output>
				<port id="0" precision="FP32" names="RGB/inception_i3d/Mixed_5c/Branch_2/Conv3d_0a_1x1/conv_3d/w/read:0">
					<dim>48</dim>
					<dim>832</dim>
					<dim>1</dim>
					<dim>1</dim>
					<dim>1</dim>
				</port>
			</output>
		</layer>
		<layer id="296" name="RGB/inception_i3d/Mixed_5c/Branch_2/Conv3d_0a_1x1/conv_3d/convolution" type="Convolution" version="opset1">
			<data strides="1, 1, 1" dilations="1, 1, 1" pads_begin="0, 0, 0" pads_end="0, 0, 0" auto_pad="same_upper" />
			<input>
				<port id="0" precision="FP32">
					<dim>1</dim>
					<dim>832</dim>
					<dim>10</dim>
					<dim>7</dim>
					<dim>7</dim>
				</port>
				<port id="1" precision="FP32">
					<dim>48</dim>
					<dim>832</dim>
					<dim>1</dim>
					<dim>1</dim>
					<dim>1</dim>
				</port>
			</input>
			<output>
				<port id="2" precision="FP32" names="RGB/inception_i3d/Mixed_5c/Branch_2/Conv3d_0a_1x1/batch_norm/batch_norm/mul:0">
					<dim>1</dim>
					<dim>48</dim>
					<dim>10</dim>
					<dim>7</dim>
					<dim>7</dim>
				</port>
			</output>
		</layer>
		<layer id="297" name="RGB/inception_i3d/Mixed_5c/Branch_2/Conv3d_0a_1x1/batch_norm/batch_norm/sub" type="Const" version="opset1">
			<data element_type="f32" shape="1, 48, 1, 1, 1" offset="48029228" size="192" />
			<output>
				<port id="0" precision="FP32" names="RGB/inception_i3d/Mixed_5c/Branch_2/Conv3d_0a_1x1/batch_norm/batch_norm/sub:0">
					<dim>1</dim>
					<dim>48</dim>
					<dim>1</dim>
					<dim>1</dim>
					<dim>1</dim>
				</port>
			</output>
		</layer>
		<layer id="298" name="RGB/inception_i3d/Mixed_5c/Branch_2/Conv3d_0a_1x1/batch_norm/batch_norm/add_1" type="Add" version="opset1">
			<data auto_broadcast="numpy" />
			<input>
				<port id="0" precision="FP32">
					<dim>1</dim>
					<dim>48</dim>
					<dim>10</dim>
					<dim>7</dim>
					<dim>7</dim>
				</port>
				<port id="1" precision="FP32">
					<dim>1</dim>
					<dim>48</dim>
					<dim>1</dim>
					<dim>1</dim>
					<dim>1</dim>
				</port>
			</input>
			<output>
				<port id="2" precision="FP32" names="RGB/inception_i3d/Mixed_5c/Branch_2/Conv3d_0a_1x1/batch_norm/batch_norm/add_1:0">
					<dim>1</dim>
					<dim>48</dim>
					<dim>10</dim>
					<dim>7</dim>
					<dim>7</dim>
				</port>
			</output>
		</layer>
		<layer id="299" name="RGB/inception_i3d/Mixed_5c/Branch_2/Conv3d_0a_1x1/Relu" type="ReLU" version="opset1">
			<input>
				<port id="0" precision="FP32">
					<dim>1</dim>
					<dim>48</dim>
					<dim>10</dim>
					<dim>7</dim>
					<dim>7</dim>
				</port>
			</input>
			<output>
				<port id="1" precision="FP32" names="RGB/inception_i3d/Mixed_5c/Branch_2/Conv3d_0a_1x1/Relu:0">
					<dim>1</dim>
					<dim>48</dim>
					<dim>10</dim>
					<dim>7</dim>
					<dim>7</dim>
				</port>
			</output>
		</layer>
		<layer id="300" name="RGB/inception_i3d/Mixed_5c/Branch_2/Conv3d_0b_3x3/batch_norm/batch_norm/mul_copy" type="Const" version="opset1">
			<data element_type="f32" shape="128, 48, 3, 3, 3" offset="48029420" size="663552" />
			<output>
				<port id="0" precision="FP32" names="RGB/inception_i3d/Mixed_5c/Branch_2/Conv3d_0b_3x3/conv_3d/w/read:0">
					<dim>128</dim>
					<dim>48</dim>
					<dim>3</dim>
					<dim>3</dim>
					<dim>3</dim>
				</port>
			</output>
		</layer>
		<layer id="301" name="RGB/inception_i3d/Mixed_5c/Branch_2/Conv3d_0b_3x3/conv_3d/convolution" type="Convolution" version="opset1">
			<data strides="1, 1, 1" dilations="1, 1, 1" pads_begin="0, 0, 0" pads_end="0, 0, 0" auto_pad="same_upper" />
			<input>
				<port id="0" precision="FP32">
					<dim>1</dim>
					<dim>48</dim>
					<dim>10</dim>
					<dim>7</dim>
					<dim>7</dim>
				</port>
				<port id="1" precision="FP32">
					<dim>128</dim>
					<dim>48</dim>
					<dim>3</dim>
					<dim>3</dim>
					<dim>3</dim>
				</port>
			</input>
			<output>
				<port id="2" precision="FP32" names="RGB/inception_i3d/Mixed_5c/Branch_2/Conv3d_0b_3x3/batch_norm/batch_norm/mul:0">
					<dim>1</dim>
					<dim>128</dim>
					<dim>10</dim>
					<dim>7</dim>
					<dim>7</dim>
				</port>
			</output>
		</layer>
		<layer id="302" name="RGB/inception_i3d/Mixed_5c/Branch_2/Conv3d_0b_3x3/batch_norm/batch_norm/sub" type="Const" version="opset1">
			<data element_type="f32" shape="1, 128, 1, 1, 1" offset="48692972" size="512" />
			<output>
				<port id="0" precision="FP32" names="RGB/inception_i3d/Mixed_5c/Branch_2/Conv3d_0b_3x3/batch_norm/batch_norm/sub:0">
					<dim>1</dim>
					<dim>128</dim>
					<dim>1</dim>
					<dim>1</dim>
					<dim>1</dim>
				</port>
			</output>
		</layer>
		<layer id="303" name="RGB/inception_i3d/Mixed_5c/Branch_2/Conv3d_0b_3x3/batch_norm/batch_norm/add_1" type="Add" version="opset1">
			<data auto_broadcast="numpy" />
			<input>
				<port id="0" precision="FP32">
					<dim>1</dim>
					<dim>128</dim>
					<dim>10</dim>
					<dim>7</dim>
					<dim>7</dim>
				</port>
				<port id="1" precision="FP32">
					<dim>1</dim>
					<dim>128</dim>
					<dim>1</dim>
					<dim>1</dim>
					<dim>1</dim>
				</port>
			</input>
			<output>
				<port id="2" precision="FP32" names="RGB/inception_i3d/Mixed_5c/Branch_2/Conv3d_0b_3x3/batch_norm/batch_norm/add_1:0">
					<dim>1</dim>
					<dim>128</dim>
					<dim>10</dim>
					<dim>7</dim>
					<dim>7</dim>
				</port>
			</output>
		</layer>
		<layer id="304" name="RGB/inception_i3d/Mixed_5c/Branch_2/Conv3d_0b_3x3/Relu" type="ReLU" version="opset1">
			<input>
				<port id="0" precision="FP32">
					<dim>1</dim>
					<dim>128</dim>
					<dim>10</dim>
					<dim>7</dim>
					<dim>7</dim>
				</port>
			</input>
			<output>
				<port id="1" precision="FP32" names="RGB/inception_i3d/Mixed_5c/Branch_2/Conv3d_0b_3x3/Relu:0">
					<dim>1</dim>
					<dim>128</dim>
					<dim>10</dim>
					<dim>7</dim>
					<dim>7</dim>
				</port>
			</output>
		</layer>
		<layer id="305" name="RGB/inception_i3d/Mixed_5c/Branch_3/MaxPool3d_0a_3x3" type="MaxPool" version="opset8">
			<data strides="1, 1, 1" dilations="1, 1, 1" pads_begin="0, 0, 0" pads_end="0, 0, 0" kernel="3, 3, 3" rounding_type="floor" auto_pad="same_upper" index_element_type="i64" axis="0" />
			<input>
				<port id="0" precision="FP32">
					<dim>1</dim>
					<dim>832</dim>
					<dim>10</dim>
					<dim>7</dim>
					<dim>7</dim>
				</port>
			</input>
			<output>
				<port id="1" precision="FP32" names="RGB/inception_i3d/Mixed_5c/Branch_3/MaxPool3d_0a_3x3:0">
					<dim>1</dim>
					<dim>832</dim>
					<dim>10</dim>
					<dim>7</dim>
					<dim>7</dim>
				</port>
				<port id="2" precision="I64">
					<dim>1</dim>
					<dim>832</dim>
					<dim>10</dim>
					<dim>7</dim>
					<dim>7</dim>
				</port>
			</output>
		</layer>
		<layer id="306" name="RGB/inception_i3d/Mixed_5c/Branch_3/Conv3d_0b_1x1/batch_norm/batch_norm/mul_copy" type="Const" version="opset1">
			<data element_type="f32" shape="128, 832, 1, 1, 1" offset="48693484" size="425984" />
			<output>
				<port id="0" precision="FP32" names="RGB/inception_i3d/Mixed_5c/Branch_3/Conv3d_0b_1x1/conv_3d/w/read:0">
					<dim>128</dim>
					<dim>832</dim>
					<dim>1</dim>
					<dim>1</dim>
					<dim>1</dim>
				</port>
			</output>
		</layer>
		<layer id="307" name="RGB/inception_i3d/Mixed_5c/Branch_3/Conv3d_0b_1x1/conv_3d/convolution" type="Convolution" version="opset1">
			<data strides="1, 1, 1" dilations="1, 1, 1" pads_begin="0, 0, 0" pads_end="0, 0, 0" auto_pad="same_upper" />
			<input>
				<port id="0" precision="FP32">
					<dim>1</dim>
					<dim>832</dim>
					<dim>10</dim>
					<dim>7</dim>
					<dim>7</dim>
				</port>
				<port id="1" precision="FP32">
					<dim>128</dim>
					<dim>832</dim>
					<dim>1</dim>
					<dim>1</dim>
					<dim>1</dim>
				</port>
			</input>
			<output>
				<port id="2" precision="FP32" names="RGB/inception_i3d/Mixed_5c/Branch_3/Conv3d_0b_1x1/batch_norm/batch_norm/mul:0">
					<dim>1</dim>
					<dim>128</dim>
					<dim>10</dim>
					<dim>7</dim>
					<dim>7</dim>
				</port>
			</output>
		</layer>
		<layer id="308" name="RGB/inception_i3d/Mixed_5c/Branch_3/Conv3d_0b_1x1/batch_norm/batch_norm/sub" type="Const" version="opset1">
			<data element_type="f32" shape="1, 128, 1, 1, 1" offset="49119468" size="512" />
			<output>
				<port id="0" precision="FP32" names="RGB/inception_i3d/Mixed_5c/Branch_3/Conv3d_0b_1x1/batch_norm/batch_norm/sub:0">
					<dim>1</dim>
					<dim>128</dim>
					<dim>1</dim>
					<dim>1</dim>
					<dim>1</dim>
				</port>
			</output>
		</layer>
		<layer id="309" name="RGB/inception_i3d/Mixed_5c/Branch_3/Conv3d_0b_1x1/batch_norm/batch_norm/add_1" type="Add" version="opset1">
			<data auto_broadcast="numpy" />
			<input>
				<port id="0" precision="FP32">
					<dim>1</dim>
					<dim>128</dim>
					<dim>10</dim>
					<dim>7</dim>
					<dim>7</dim>
				</port>
				<port id="1" precision="FP32">
					<dim>1</dim>
					<dim>128</dim>
					<dim>1</dim>
					<dim>1</dim>
					<dim>1</dim>
				</port>
			</input>
			<output>
				<port id="2" precision="FP32" names="RGB/inception_i3d/Mixed_5c/Branch_3/Conv3d_0b_1x1/batch_norm/batch_norm/add_1:0">
					<dim>1</dim>
					<dim>128</dim>
					<dim>10</dim>
					<dim>7</dim>
					<dim>7</dim>
				</port>
			</output>
		</layer>
		<layer id="310" name="RGB/inception_i3d/Mixed_5c/Branch_3/Conv3d_0b_1x1/Relu" type="ReLU" version="opset1">
			<input>
				<port id="0" precision="FP32">
					<dim>1</dim>
					<dim>128</dim>
					<dim>10</dim>
					<dim>7</dim>
					<dim>7</dim>
				</port>
			</input>
			<output>
				<port id="1" precision="FP32" names="RGB/inception_i3d/Mixed_5c/Branch_3/Conv3d_0b_1x1/Relu:0">
					<dim>1</dim>
					<dim>128</dim>
					<dim>10</dim>
					<dim>7</dim>
					<dim>7</dim>
				</port>
			</output>
		</layer>
		<layer id="311" name="RGB/inception_i3d/Mixed_5c/concat" type="Concat" version="opset1">
			<data axis="1" />
			<input>
				<port id="0" precision="FP32">
					<dim>1</dim>
					<dim>384</dim>
					<dim>10</dim>
					<dim>7</dim>
					<dim>7</dim>
				</port>
				<port id="1" precision="FP32">
					<dim>1</dim>
					<dim>384</dim>
					<dim>10</dim>
					<dim>7</dim>
					<dim>7</dim>
				</port>
				<port id="2" precision="FP32">
					<dim>1</dim>
					<dim>128</dim>
					<dim>10</dim>
					<dim>7</dim>
					<dim>7</dim>
				</port>
				<port id="3" precision="FP32">
					<dim>1</dim>
					<dim>128</dim>
					<dim>10</dim>
					<dim>7</dim>
					<dim>7</dim>
				</port>
			</input>
			<output>
				<port id="4" precision="FP32" names="RGB/inception_i3d/Mixed_5c/concat:0">
					<dim>1</dim>
					<dim>1024</dim>
					<dim>10</dim>
					<dim>7</dim>
					<dim>7</dim>
				</port>
			</output>
		</layer>
		<layer id="312" name="RGB/inception_i3d/Logits/AvgPool3D" type="AvgPool" version="opset1">
			<data kernel="2, 7, 7" strides="1, 1, 1" pads_begin="0, 0, 0" pads_end="0, 0, 0" exclude-pad="true" auto_pad="valid" rounding_type="floor" />
			<input>
				<port id="0" precision="FP32">
					<dim>1</dim>
					<dim>1024</dim>
					<dim>10</dim>
					<dim>7</dim>
					<dim>7</dim>
				</port>
			</input>
			<output>
				<port id="1" precision="FP32" names="RGB/inception_i3d/Logits/AvgPool3D:0">
					<dim>1</dim>
					<dim>1024</dim>
					<dim>9</dim>
					<dim>1</dim>
					<dim>1</dim>
				</port>
			</output>
		</layer>
		<layer id="313" name="RGB/inception_i3d/Logits/Conv3d_0c_1x1/conv_3d/w/read" type="Const" version="opset1">
			<data element_type="f32" shape="400, 1024, 1, 1, 1" offset="49119980" size="1638400" />
			<output>
				<port id="0" precision="FP32" names="RGB/inception_i3d/Logits/Conv3d_0c_1x1/conv_3d/w/read:0">
					<dim>400</dim>
					<dim>1024</dim>
					<dim>1</dim>
					<dim>1</dim>
					<dim>1</dim>
				</port>
			</output>
		</layer>
		<layer id="314" name="RGB/inception_i3d/Logits/Conv3d_0c_1x1/conv_3d/convolution" type="Convolution" version="opset1">
			<data strides="1, 1, 1" dilations="1, 1, 1" pads_begin="0, 0, 0" pads_end="0, 0, 0" auto_pad="same_upper" />
			<input>
				<port id="0" precision="FP32">
					<dim>1</dim>
					<dim>1024</dim>
					<dim>9</dim>
					<dim>1</dim>
					<dim>1</dim>
				</port>
				<port id="1" precision="FP32">
					<dim>400</dim>
					<dim>1024</dim>
					<dim>1</dim>
					<dim>1</dim>
					<dim>1</dim>
				</port>
			</input>
			<output>
				<port id="2" precision="FP32" names="RGB/inception_i3d/Logits/Conv3d_0c_1x1/conv_3d/convolution:0">
					<dim>1</dim>
					<dim>400</dim>
					<dim>9</dim>
					<dim>1</dim>
					<dim>1</dim>
				</port>
			</output>
		</layer>
		<layer id="315" name="RGB/inception_i3d/Logits/Conv3d_0c_1x1/conv_3d/Reshape" type="Const" version="opset1">
			<data element_type="f32" shape="1, 400, 1, 1, 1" offset="50758380" size="1600" />
			<output>
				<port id="0" precision="FP32" names="RGB/inception_i3d/Logits/Conv3d_0c_1x1/conv_3d/Reshape:0">
					<dim>1</dim>
					<dim>400</dim>
					<dim>1</dim>
					<dim>1</dim>
					<dim>1</dim>
				</port>
			</output>
		</layer>
		<layer id="316" name="RGB/inception_i3d/Logits/Conv3d_0c_1x1/conv_3d/add" type="Add" version="opset1">
			<data auto_broadcast="numpy" />
			<input>
				<port id="0" precision="FP32">
					<dim>1</dim>
					<dim>400</dim>
					<dim>9</dim>
					<dim>1</dim>
					<dim>1</dim>
				</port>
				<port id="1" precision="FP32">
					<dim>1</dim>
					<dim>400</dim>
					<dim>1</dim>
					<dim>1</dim>
					<dim>1</dim>
				</port>
			</input>
			<output>
				<port id="2" precision="FP32">
					<dim>1</dim>
					<dim>400</dim>
					<dim>9</dim>
					<dim>1</dim>
					<dim>1</dim>
				</port>
			</output>
		</layer>
		<layer id="317" name="Constant_1640" type="Const" version="opset1">
			<data element_type="i64" shape="2" offset="50759980" size="16" />
			<output>
				<port id="0" precision="I64">
					<dim>2</dim>
				</port>
			</output>
		</layer>
		<layer id="318" name="Squeeze_1641" type="Squeeze" version="opset1">
			<input>
				<port id="0" precision="FP32">
					<dim>1</dim>
					<dim>400</dim>
					<dim>9</dim>
					<dim>1</dim>
					<dim>1</dim>
				</port>
				<port id="1" precision="I64">
					<dim>2</dim>
				</port>
			</input>
			<output>
				<port id="2" precision="FP32">
					<dim>1</dim>
					<dim>400</dim>
					<dim>9</dim>
				</port>
			</output>
		</layer>
		<layer id="319" name="Constant_1647" type="Const" version="opset1">
			<data element_type="i64" shape="1" offset="50759996" size="8" />
			<output>
				<port id="0" precision="I64">
					<dim>1</dim>
				</port>
			</output>
		</layer>
		<layer id="320" name="ReduceMean_1648" type="ReduceMean" version="opset1">
			<data keep_dims="false" />
			<input>
				<port id="0" precision="FP32">
					<dim>1</dim>
					<dim>400</dim>
					<dim>9</dim>
				</port>
				<port id="1" precision="I64">
					<dim>1</dim>
				</port>
			</input>
			<output>
				<port id="2" precision="FP32" names="RGB/inception_i3d/Mean:0">
					<dim>1</dim>
					<dim>400</dim>
				</port>
			</output>
		</layer>
		<layer id="321" name="Softmax" type="SoftMax" version="opset8">
			<data axis="1" />
			<input>
				<port id="0" precision="FP32">
					<dim>1</dim>
					<dim>400</dim>
				</port>
			</input>
			<output>
				<port id="1" precision="FP32" names="Softmax:0">
					<dim>1</dim>
					<dim>400</dim>
				</port>
			</output>
		</layer>
		<layer id="322" name="Softmax:0" type="Result" version="opset1">
			<input>
				<port id="0" precision="FP32">
					<dim>1</dim>
					<dim>400</dim>
				</port>
			</input>
		</layer>
	</layers>
	<edges>
		<edge from-layer="0" from-port="0" to-layer="2" to-port="0" />
		<edge from-layer="1" from-port="0" to-layer="2" to-port="1" />
		<edge from-layer="2" from-port="2" to-layer="4" to-port="0" />
		<edge from-layer="3" from-port="0" to-layer="4" to-port="1" />
		<edge from-layer="4" from-port="2" to-layer="6" to-port="0" />
		<edge from-layer="5" from-port="0" to-layer="6" to-port="1" />
		<edge from-layer="6" from-port="2" to-layer="8" to-port="0" />
		<edge from-layer="7" from-port="0" to-layer="8" to-port="1" />
		<edge from-layer="8" from-port="2" to-layer="9" to-port="0" />
		<edge from-layer="9" from-port="1" to-layer="10" to-port="0" />
		<edge from-layer="10" from-port="1" to-layer="12" to-port="0" />
		<edge from-layer="11" from-port="0" to-layer="12" to-port="1" />
		<edge from-layer="12" from-port="2" to-layer="14" to-port="0" />
		<edge from-layer="13" from-port="0" to-layer="14" to-port="1" />
		<edge from-layer="14" from-port="2" to-layer="15" to-port="0" />
		<edge from-layer="15" from-port="1" to-layer="17" to-port="0" />
		<edge from-layer="16" from-port="0" to-layer="17" to-port="1" />
		<edge from-layer="17" from-port="2" to-layer="19" to-port="0" />
		<edge from-layer="18" from-port="0" to-layer="19" to-port="1" />
		<edge from-layer="19" from-port="2" to-layer="20" to-port="0" />
		<edge from-layer="20" from-port="1" to-layer="21" to-port="0" />
		<edge from-layer="21" from-port="1" to-layer="23" to-port="0" />
		<edge from-layer="21" from-port="1" to-layer="28" to-port="0" />
		<edge from-layer="21" from-port="1" to-layer="47" to-port="0" />
		<edge from-layer="21" from-port="1" to-layer="38" to-port="0" />
		<edge from-layer="22" from-port="0" to-layer="23" to-port="1" />
		<edge from-layer="23" from-port="2" to-layer="25" to-port="0" />
		<edge from-layer="24" from-port="0" to-layer="25" to-port="1" />
		<edge from-layer="25" from-port="2" to-layer="26" to-port="0" />
		<edge from-layer="26" from-port="1" to-layer="53" to-port="0" />
		<edge from-layer="27" from-port="0" to-layer="28" to-port="1" />
		<edge from-layer="28" from-port="2" to-layer="30" to-port="0" />
		<edge from-layer="29" from-port="0" to-layer="30" to-port="1" />
		<edge from-layer="30" from-port="2" to-layer="31" to-port="0" />
		<edge from-layer="31" from-port="1" to-layer="33" to-port="0" />
		<edge from-layer="32" from-port="0" to-layer="33" to-port="1" />
		<edge from-layer="33" from-port="2" to-layer="35" to-port="0" />
		<edge from-layer="34" from-port="0" to-layer="35" to-port="1" />
		<edge from-layer="35" from-port="2" to-layer="36" to-port="0" />
		<edge from-layer="36" from-port="1" to-layer="53" to-port="1" />
		<edge from-layer="37" from-port="0" to-layer="38" to-port="1" />
		<edge from-layer="38" from-port="2" to-layer="40" to-port="0" />
		<edge from-layer="39" from-port="0" to-layer="40" to-port="1" />
		<edge from-layer="40" from-port="2" to-layer="41" to-port="0" />
		<edge from-layer="41" from-port="1" to-layer="43" to-port="0" />
		<edge from-layer="42" from-port="0" to-layer="43" to-port="1" />
		<edge from-layer="43" from-port="2" to-layer="45" to-port="0" />
		<edge from-layer="44" from-port="0" to-layer="45" to-port="1" />
		<edge from-layer="45" from-port="2" to-layer="46" to-port="0" />
		<edge from-layer="46" from-port="1" to-layer="53" to-port="2" />
		<edge from-layer="47" from-port="1" to-layer="49" to-port="0" />
		<edge from-layer="48" from-port="0" to-layer="49" to-port="1" />
		<edge from-layer="49" from-port="2" to-layer="51" to-port="0" />
		<edge from-layer="50" from-port="0" to-layer="51" to-port="1" />
		<edge from-layer="51" from-port="2" to-layer="52" to-port="0" />
		<edge from-layer="52" from-port="1" to-layer="53" to-port="3" />
		<edge from-layer="53" from-port="4" to-layer="55" to-port="0" />
		<edge from-layer="53" from-port="4" to-layer="60" to-port="0" />
		<edge from-layer="53" from-port="4" to-layer="79" to-port="0" />
		<edge from-layer="53" from-port="4" to-layer="70" to-port="0" />
		<edge from-layer="54" from-port="0" to-layer="55" to-port="1" />
		<edge from-layer="55" from-port="2" to-layer="57" to-port="0" />
		<edge from-layer="56" from-port="0" to-layer="57" to-port="1" />
		<edge from-layer="57" from-port="2" to-layer="58" to-port="0" />
		<edge from-layer="58" from-port="1" to-layer="85" to-port="0" />
		<edge from-layer="59" from-port="0" to-layer="60" to-port="1" />
		<edge from-layer="60" from-port="2" to-layer="62" to-port="0" />
		<edge from-layer="61" from-port="0" to-layer="62" to-port="1" />
		<edge from-layer="62" from-port="2" to-layer="63" to-port="0" />
		<edge from-layer="63" from-port="1" to-layer="65" to-port="0" />
		<edge from-layer="64" from-port="0" to-layer="65" to-port="1" />
		<edge from-layer="65" from-port="2" to-layer="67" to-port="0" />
		<edge from-layer="66" from-port="0" to-layer="67" to-port="1" />
		<edge from-layer="67" from-port="2" to-layer="68" to-port="0" />
		<edge from-layer="68" from-port="1" to-layer="85" to-port="1" />
		<edge from-layer="69" from-port="0" to-layer="70" to-port="1" />
		<edge from-layer="70" from-port="2" to-layer="72" to-port="0" />
		<edge from-layer="71" from-port="0" to-layer="72" to-port="1" />
		<edge from-layer="72" from-port="2" to-layer="73" to-port="0" />
		<edge from-layer="73" from-port="1" to-layer="75" to-port="0" />
		<edge from-layer="74" from-port="0" to-layer="75" to-port="1" />
		<edge from-layer="75" from-port="2" to-layer="77" to-port="0" />
		<edge from-layer="76" from-port="0" to-layer="77" to-port="1" />
		<edge from-layer="77" from-port="2" to-layer="78" to-port="0" />
		<edge from-layer="78" from-port="1" to-layer="85" to-port="2" />
		<edge from-layer="79" from-port="1" to-layer="81" to-port="0" />
		<edge from-layer="80" from-port="0" to-layer="81" to-port="1" />
		<edge from-layer="81" from-port="2" to-layer="83" to-port="0" />
		<edge from-layer="82" from-port="0" to-layer="83" to-port="1" />
		<edge from-layer="83" from-port="2" to-layer="84" to-port="0" />
		<edge from-layer="84" from-port="1" to-layer="85" to-port="3" />
		<edge from-layer="85" from-port="4" to-layer="86" to-port="0" />
		<edge from-layer="86" from-port="1" to-layer="88" to-port="0" />
		<edge from-layer="86" from-port="1" to-layer="93" to-port="0" />
		<edge from-layer="86" from-port="1" to-layer="103" to-port="0" />
		<edge from-layer="86" from-port="1" to-layer="112" to-port="0" />
		<edge from-layer="87" from-port="0" to-layer="88" to-port="1" />
		<edge from-layer="88" from-port="2" to-layer="90" to-port="0" />
		<edge from-layer="89" from-port="0" to-layer="90" to-port="1" />
		<edge from-layer="90" from-port="2" to-layer="91" to-port="0" />
		<edge from-layer="91" from-port="1" to-layer="118" to-port="0" />
		<edge from-layer="92" from-port="0" to-layer="93" to-port="1" />
		<edge from-layer="93" from-port="2" to-layer="95" to-port="0" />
		<edge from-layer="94" from-port="0" to-layer="95" to-port="1" />
		<edge from-layer="95" from-port="2" to-layer="96" to-port="0" />
		<edge from-layer="96" from-port="1" to-layer="98" to-port="0" />
		<edge from-layer="97" from-port="0" to-layer="98" to-port="1" />
		<edge from-layer="98" from-port="2" to-layer="100" to-port="0" />
		<edge from-layer="99" from-port="0" to-layer="100" to-port="1" />
		<edge from-layer="100" from-port="2" to-layer="101" to-port="0" />
		<edge from-layer="101" from-port="1" to-layer="118" to-port="1" />
		<edge from-layer="102" from-port="0" to-layer="103" to-port="1" />
		<edge from-layer="103" from-port="2" to-layer="105" to-port="0" />
		<edge from-layer="104" from-port="0" to-layer="105" to-port="1" />
		<edge from-layer="105" from-port="2" to-layer="106" to-port="0" />
		<edge from-layer="106" from-port="1" to-layer="108" to-port="0" />
		<edge from-layer="107" from-port="0" to-layer="108" to-port="1" />
		<edge from-layer="108" from-port="2" to-layer="110" to-port="0" />
		<edge from-layer="109" from-port="0" to-layer="110" to-port="1" />
		<edge from-layer="110" from-port="2" to-layer="111" to-port="0" />
		<edge from-layer="111" from-port="1" to-layer="118" to-port="2" />
		<edge from-layer="112" from-port="1" to-layer="114" to-port="0" />
		<edge from-layer="113" from-port="0" to-layer="114" to-port="1" />
		<edge from-layer="114" from-port="2" to-layer="116" to-port="0" />
		<edge from-layer="115" from-port="0" to-layer="116" to-port="1" />
		<edge from-layer="116" from-port="2" to-layer="117" to-port="0" />
		<edge from-layer="117" from-port="1" to-layer="118" to-port="3" />
		<edge from-layer="118" from-port="4" to-layer="120" to-port="0" />
		<edge from-layer="118" from-port="4" to-layer="125" to-port="0" />
		<edge from-layer="118" from-port="4" to-layer="135" to-port="0" />
		<edge from-layer="118" from-port="4" to-layer="144" to-port="0" />
		<edge from-layer="119" from-port="0" to-layer="120" to-port="1" />
		<edge from-layer="120" from-port="2" to-layer="122" to-port="0" />
		<edge from-layer="121" from-port="0" to-layer="122" to-port="1" />
		<edge from-layer="122" from-port="2" to-layer="123" to-port="0" />
		<edge from-layer="123" from-port="1" to-layer="150" to-port="0" />
		<edge from-layer="124" from-port="0" to-layer="125" to-port="1" />
		<edge from-layer="125" from-port="2" to-layer="127" to-port="0" />
		<edge from-layer="126" from-port="0" to-layer="127" to-port="1" />
		<edge from-layer="127" from-port="2" to-layer="128" to-port="0" />
		<edge from-layer="128" from-port="1" to-layer="130" to-port="0" />
		<edge from-layer="129" from-port="0" to-layer="130" to-port="1" />
		<edge from-layer="130" from-port="2" to-layer="132" to-port="0" />
		<edge from-layer="131" from-port="0" to-layer="132" to-port="1" />
		<edge from-layer="132" from-port="2" to-layer="133" to-port="0" />
		<edge from-layer="133" from-port="1" to-layer="150" to-port="1" />
		<edge from-layer="134" from-port="0" to-layer="135" to-port="1" />
		<edge from-layer="135" from-port="2" to-layer="137" to-port="0" />
		<edge from-layer="136" from-port="0" to-layer="137" to-port="1" />
		<edge from-layer="137" from-port="2" to-layer="138" to-port="0" />
		<edge from-layer="138" from-port="1" to-layer="140" to-port="0" />
		<edge from-layer="139" from-port="0" to-layer="140" to-port="1" />
		<edge from-layer="140" from-port="2" to-layer="142" to-port="0" />
		<edge from-layer="141" from-port="0" to-layer="142" to-port="1" />
		<edge from-layer="142" from-port="2" to-layer="143" to-port="0" />
		<edge from-layer="143" from-port="1" to-layer="150" to-port="2" />
		<edge from-layer="144" from-port="1" to-layer="146" to-port="0" />
		<edge from-layer="145" from-port="0" to-layer="146" to-port="1" />
		<edge from-layer="146" from-port="2" to-layer="148" to-port="0" />
		<edge from-layer="147" from-port="0" to-layer="148" to-port="1" />
		<edge from-layer="148" from-port="2" to-layer="149" to-port="0" />
		<edge from-layer="149" from-port="1" to-layer="150" to-port="3" />
		<edge from-layer="150" from-port="4" to-layer="152" to-port="0" />
		<edge from-layer="150" from-port="4" to-layer="157" to-port="0" />
		<edge from-layer="150" from-port="4" to-layer="167" to-port="0" />
		<edge from-layer="150" from-port="4" to-layer="176" to-port="0" />
		<edge from-layer="151" from-port="0" to-layer="152" to-port="1" />
		<edge from-layer="152" from-port="2" to-layer="154" to-port="0" />
		<edge from-layer="153" from-port="0" to-layer="154" to-port="1" />
		<edge from-layer="154" from-port="2" to-layer="155" to-port="0" />
		<edge from-layer="155" from-port="1" to-layer="182" to-port="0" />
		<edge from-layer="156" from-port="0" to-layer="157" to-port="1" />
		<edge from-layer="157" from-port="2" to-layer="159" to-port="0" />
		<edge from-layer="158" from-port="0" to-layer="159" to-port="1" />
		<edge from-layer="159" from-port="2" to-layer="160" to-port="0" />
		<edge from-layer="160" from-port="1" to-layer="162" to-port="0" />
		<edge from-layer="161" from-port="0" to-layer="162" to-port="1" />
		<edge from-layer="162" from-port="2" to-layer="164" to-port="0" />
		<edge from-layer="163" from-port="0" to-layer="164" to-port="1" />
		<edge from-layer="164" from-port="2" to-layer="165" to-port="0" />
		<edge from-layer="165" from-port="1" to-layer="182" to-port="1" />
		<edge from-layer="166" from-port="0" to-layer="167" to-port="1" />
		<edge from-layer="167" from-port="2" to-layer="169" to-port="0" />
		<edge from-layer="168" from-port="0" to-layer="169" to-port="1" />
		<edge from-layer="169" from-port="2" to-layer="170" to-port="0" />
		<edge from-layer="170" from-port="1" to-layer="172" to-port="0" />
		<edge from-layer="171" from-port="0" to-layer="172" to-port="1" />
		<edge from-layer="172" from-port="2" to-layer="174" to-port="0" />
		<edge from-layer="173" from-port="0" to-layer="174" to-port="1" />
		<edge from-layer="174" from-port="2" to-layer="175" to-port="0" />
		<edge from-layer="175" from-port="1" to-layer="182" to-port="2" />
		<edge from-layer="176" from-port="1" to-layer="178" to-port="0" />
		<edge from-layer="177" from-port="0" to-layer="178" to-port="1" />
		<edge from-layer="178" from-port="2" to-layer="180" to-port="0" />
		<edge from-layer="179" from-port="0" to-layer="180" to-port="1" />
		<edge from-layer="180" from-port="2" to-layer="181" to-port="0" />
		<edge from-layer="181" from-port="1" to-layer="182" to-port="3" />
		<edge from-layer="182" from-port="4" to-layer="184" to-port="0" />
		<edge from-layer="182" from-port="4" to-layer="189" to-port="0" />
		<edge from-layer="182" from-port="4" to-layer="199" to-port="0" />
		<edge from-layer="182" from-port="4" to-layer="208" to-port="0" />
		<edge from-layer="183" from-port="0" to-layer="184" to-port="1" />
		<edge from-layer="184" from-port="2" to-layer="186" to-port="0" />
		<edge from-layer="185" from-port="0" to-layer="186" to-port="1" />
		<edge from-layer="186" from-port="2" to-layer="187" to-port="0" />
		<edge from-layer="187" from-port="1" to-layer="214" to-port="0" />
		<edge from-layer="188" from-port="0" to-layer="189" to-port="1" />
		<edge from-layer="189" from-port="2" to-layer="191" to-port="0" />
		<edge from-layer="190" from-port="0" to-layer="191" to-port="1" />
		<edge from-layer="191" from-port="2" to-layer="192" to-port="0" />
		<edge from-layer="192" from-port="1" to-layer="194" to-port="0" />
		<edge from-layer="193" from-port="0" to-layer="194" to-port="1" />
		<edge from-layer="194" from-port="2" to-layer="196" to-port="0" />
		<edge from-layer="195" from-port="0" to-layer="196" to-port="1" />
		<edge from-layer="196" from-port="2" to-layer="197" to-port="0" />
		<edge from-layer="197" from-port="1" to-layer="214" to-port="1" />
		<edge from-layer="198" from-port="0" to-layer="199" to-port="1" />
		<edge from-layer="199" from-port="2" to-layer="201" to-port="0" />
		<edge from-layer="200" from-port="0" to-layer="201" to-port="1" />
		<edge from-layer="201" from-port="2" to-layer="202" to-port="0" />
		<edge from-layer="202" from-port="1" to-layer="204" to-port="0" />
		<edge from-layer="203" from-port="0" to-layer="204" to-port="1" />
		<edge from-layer="204" from-port="2" to-layer="206" to-port="0" />
		<edge from-layer="205" from-port="0" to-layer="206" to-port="1" />
		<edge from-layer="206" from-port="2" to-layer="207" to-port="0" />
		<edge from-layer="207" from-port="1" to-layer="214" to-port="2" />
		<edge from-layer="208" from-port="1" to-layer="210" to-port="0" />
		<edge from-layer="209" from-port="0" to-layer="210" to-port="1" />
		<edge from-layer="210" from-port="2" to-layer="212" to-port="0" />
		<edge from-layer="211" from-port="0" to-layer="212" to-port="1" />
		<edge from-layer="212" from-port="2" to-layer="213" to-port="0" />
		<edge from-layer="213" from-port="1" to-layer="214" to-port="3" />
		<edge from-layer="214" from-port="4" to-layer="216" to-port="0" />
		<edge from-layer="214" from-port="4" to-layer="240" to-port="0" />
		<edge from-layer="214" from-port="4" to-layer="221" to-port="0" />
		<edge from-layer="214" from-port="4" to-layer="231" to-port="0" />
		<edge from-layer="215" from-port="0" to-layer="216" to-port="1" />
		<edge from-layer="216" from-port="2" to-layer="218" to-port="0" />
		<edge from-layer="217" from-port="0" to-layer="218" to-port="1" />
		<edge from-layer="218" from-port="2" to-layer="219" to-port="0" />
		<edge from-layer="219" from-port="1" to-layer="246" to-port="0" />
		<edge from-layer="220" from-port="0" to-layer="221" to-port="1" />
		<edge from-layer="221" from-port="2" to-layer="223" to-port="0" />
		<edge from-layer="222" from-port="0" to-layer="223" to-port="1" />
		<edge from-layer="223" from-port="2" to-layer="224" to-port="0" />
		<edge from-layer="224" from-port="1" to-layer="226" to-port="0" />
		<edge from-layer="225" from-port="0" to-layer="226" to-port="1" />
		<edge from-layer="226" from-port="2" to-layer="228" to-port="0" />
		<edge from-layer="227" from-port="0" to-layer="228" to-port="1" />
		<edge from-layer="228" from-port="2" to-layer="229" to-port="0" />
		<edge from-layer="229" from-port="1" to-layer="246" to-port="1" />
		<edge from-layer="230" from-port="0" to-layer="231" to-port="1" />
		<edge from-layer="231" from-port="2" to-layer="233" to-port="0" />
		<edge from-layer="232" from-port="0" to-layer="233" to-port="1" />
		<edge from-layer="233" from-port="2" to-layer="234" to-port="0" />
		<edge from-layer="234" from-port="1" to-layer="236" to-port="0" />
		<edge from-layer="235" from-port="0" to-layer="236" to-port="1" />
		<edge from-layer="236" from-port="2" to-layer="238" to-port="0" />
		<edge from-layer="237" from-port="0" to-layer="238" to-port="1" />
		<edge from-layer="238" from-port="2" to-layer="239" to-port="0" />
		<edge from-layer="239" from-port="1" to-layer="246" to-port="2" />
		<edge from-layer="240" from-port="1" to-layer="242" to-port="0" />
		<edge from-layer="241" from-port="0" to-layer="242" to-port="1" />
		<edge from-layer="242" from-port="2" to-layer="244" to-port="0" />
		<edge from-layer="243" from-port="0" to-layer="244" to-port="1" />
		<edge from-layer="244" from-port="2" to-layer="245" to-port="0" />
		<edge from-layer="245" from-port="1" to-layer="246" to-port="3" />
		<edge from-layer="246" from-port="4" to-layer="247" to-port="0" />
		<edge from-layer="247" from-port="1" to-layer="249" to-port="0" />
		<edge from-layer="247" from-port="1" to-layer="273" to-port="0" />
		<edge from-layer="247" from-port="1" to-layer="254" to-port="0" />
		<edge from-layer="247" from-port="1" to-layer="264" to-port="0" />
		<edge from-layer="248" from-port="0" to-layer="249" to-port="1" />
		<edge from-layer="249" from-port="2" to-layer="251" to-port="0" />
		<edge from-layer="250" from-port="0" to-layer="251" to-port="1" />
		<edge from-layer="251" from-port="2" to-layer="252" to-port="0" />
		<edge from-layer="252" from-port="1" to-layer="279" to-port="0" />
		<edge from-layer="253" from-port="0" to-layer="254" to-port="1" />
		<edge from-layer="254" from-port="2" to-layer="256" to-port="0" />
		<edge from-layer="255" from-port="0" to-layer="256" to-port="1" />
		<edge from-layer="256" from-port="2" to-layer="257" to-port="0" />
		<edge from-layer="257" from-port="1" to-layer="259" to-port="0" />
		<edge from-layer="258" from-port="0" to-layer="259" to-port="1" />
		<edge from-layer="259" from-port="2" to-layer="261" to-port="0" />
		<edge from-layer="260" from-port="0" to-layer="261" to-port="1" />
		<edge from-layer="261" from-port="2" to-layer="262" to-port="0" />
		<edge from-layer="262" from-port="1" to-layer="279" to-port="1" />
		<edge from-layer="263" from-port="0" to-layer="264" to-port="1" />
		<edge from-layer="264" from-port="2" to-layer="266" to-port="0" />
		<edge from-layer="265" from-port="0" to-layer="266" to-port="1" />
		<edge from-layer="266" from-port="2" to-layer="267" to-port="0" />
		<edge from-layer="267" from-port="1" to-layer="269" to-port="0" />
		<edge from-layer="268" from-port="0" to-layer="269" to-port="1" />
		<edge from-layer="269" from-port="2" to-layer="271" to-port="0" />
		<edge from-layer="270" from-port="0" to-layer="271" to-port="1" />
		<edge from-layer="271" from-port="2" to-layer="272" to-port="0" />
		<edge from-layer="272" from-port="1" to-layer="279" to-port="2" />
		<edge from-layer="273" from-port="1" to-layer="275" to-port="0" />
		<edge from-layer="274" from-port="0" to-layer="275" to-port="1" />
		<edge from-layer="275" from-port="2" to-layer="277" to-port="0" />
		<edge from-layer="276" from-port="0" to-layer="277" to-port="1" />
		<edge from-layer="277" from-port="2" to-layer="278" to-port="0" />
		<edge from-layer="278" from-port="1" to-layer="279" to-port="3" />
		<edge from-layer="279" from-port="4" to-layer="281" to-port="0" />
		<edge from-layer="279" from-port="4" to-layer="286" to-port="0" />
		<edge from-layer="279" from-port="4" to-layer="296" to-port="0" />
		<edge from-layer="279" from-port="4" to-layer="305" to-port="0" />
		<edge from-layer="280" from-port="0" to-layer="281" to-port="1" />
		<edge from-layer="281" from-port="2" to-layer="283" to-port="0" />
		<edge from-layer="282" from-port="0" to-layer="283" to-port="1" />
		<edge from-layer="283" from-port="2" to-layer="284" to-port="0" />
		<edge from-layer="284" from-port="1" to-layer="311" to-port="0" />
		<edge from-layer="285" from-port="0" to-layer="286" to-port="1" />
		<edge from-layer="286" from-port="2" to-layer="288" to-port="0" />
		<edge from-layer="287" from-port="0" to-layer="288" to-port="1" />
		<edge from-layer="288" from-port="2" to-layer="289" to-port="0" />
		<edge from-layer="289" from-port="1" to-layer="291" to-port="0" />
		<edge from-layer="290" from-port="0" to-layer="291" to-port="1" />
		<edge from-layer="291" from-port="2" to-layer="293" to-port="0" />
		<edge from-layer="292" from-port="0" to-layer="293" to-port="1" />
		<edge from-layer="293" from-port="2" to-layer="294" to-port="0" />
		<edge from-layer="294" from-port="1" to-layer="311" to-port="1" />
		<edge from-layer="295" from-port="0" to-layer="296" to-port="1" />
		<edge from-layer="296" from-port="2" to-layer="298" to-port="0" />
		<edge from-layer="297" from-port="0" to-layer="298" to-port="1" />
		<edge from-layer="298" from-port="2" to-layer="299" to-port="0" />
		<edge from-layer="299" from-port="1" to-layer="301" to-port="0" />
		<edge from-layer="300" from-port="0" to-layer="301" to-port="1" />
		<edge from-layer="301" from-port="2" to-layer="303" to-port="0" />
		<edge from-layer="302" from-port="0" to-layer="303" to-port="1" />
		<edge from-layer="303" from-port="2" to-layer="304" to-port="0" />
		<edge from-layer="304" from-port="1" to-layer="311" to-port="2" />
		<edge from-layer="305" from-port="1" to-layer="307" to-port="0" />
		<edge from-layer="306" from-port="0" to-layer="307" to-port="1" />
		<edge from-layer="307" from-port="2" to-layer="309" to-port="0" />
		<edge from-layer="308" from-port="0" to-layer="309" to-port="1" />
		<edge from-layer="309" from-port="2" to-layer="310" to-port="0" />
		<edge from-layer="310" from-port="1" to-layer="311" to-port="3" />
		<edge from-layer="311" from-port="4" to-layer="312" to-port="0" />
		<edge from-layer="312" from-port="1" to-layer="314" to-port="0" />
		<edge from-layer="313" from-port="0" to-layer="314" to-port="1" />
		<edge from-layer="314" from-port="2" to-layer="316" to-port="0" />
		<edge from-layer="315" from-port="0" to-layer="316" to-port="1" />
		<edge from-layer="316" from-port="2" to-layer="318" to-port="0" />
		<edge from-layer="317" from-port="0" to-layer="318" to-port="1" />
		<edge from-layer="318" from-port="2" to-layer="320" to-port="0" />
		<edge from-layer="319" from-port="0" to-layer="320" to-port="1" />
		<edge from-layer="320" from-port="2" to-layer="321" to-port="0" />
		<edge from-layer="321" from-port="1" to-layer="322" to-port="0" />
	</edges>
	<rt_info>
		<MO_version value="2022.3.0-9052-9752fafe8eb-releases/2022/3" />
		<Runtime_version value="2022.3.0-9052-9752fafe8eb-releases/2022/3" />
		<conversion_parameters>
			<data_type value="FP32" />
			<framework value="tf" />
			<input value="Placeholder" />
			<input_model value="DIR\i3d-rgb.frozen.pb" />
			<input_shape value="[1, 79, 224, 224, 3]" />
			<layout value="Placeholder(NDHWC)" />
			<mean_values value="Placeholder[127.5]" />
			<model_name value="i3d-rgb-tf" />
			<output_dir value="C:\new\Source Git\open_model_zoo-master\demos\action_recognition_demo\python\public\i3d-rgb-tf\FP32" />
			<scale_values value="Placeholder[127.5]" />
		</conversion_parameters>
		<legacy_frontend value="True" />
	</rt_info>
</net>
